best_model.pt (torch, 204393 bytes, 9 tensors)

lstm.weight_ih_l0 f4 [256, 1]
0.046169724 0.099299125 -0.11978439 0.048786003 0.1344338 -0.21176714 0.015021177 0.0045721815
0.2450149 0.15649463 0.17467722 0.09314672 -0.054997277 0.09924236 0.105763294 0.12445927
0.17091273 0.22925895 -0.0015420063 0.08162161 -0.03261531 -0.03370215 -0.010495807 -0.054651104
0.23201138 0.010442697 0.26116687 0.1105337 -0.06632879 0.12137441 -0.12922834 -0.059487257
-0.011837568 -0.10446304 0.13380659 0.15325524 -0.0077031087 0.06519132 0.1292158 0.07404716
0.039219048 -0.08481848 0.188599 -0.049359143 0.0032457528 0.08643936 0.10490931 -0.07801695
0.16669315 0.1167725 0.093092136 0.053066526 0.09155303 0.1476615 0.1684435 0.16896908
0.0027887064 0.029417288 0.14866804 0.011423992 0.08270295 0.16823319 -0.10844379 -0.021629216
-0.124020144 0.017194042 -0.25187016 0.044048745 0.01821232 -0.10769896 0.20502414 0.07792392
0.16034786 -0.071897134 0.070677206 0.10445645 -0.045517586 -0.15539296 0.20277214 0.14847425
-0.044741035 0.21375524 0.114570074 0.055781983 -0.30833375 0.12610132 -0.00062615535 0.0058104354
0.06637056 0.13198766 0.13512088 0.17972587 0.079739 0.075999424 -0.33106998 0.08710729
-0.14217323 0.11178732 0.0748707 0.24696419 0.03912375 0.12428655 0.12839809 0.12146775
-0.12925084 0.14273392 0.0062267208 -0.017355032 0.08530924 0.12627152 -0.052104242 -0.23773183
0.102632925 0.15811536 0.050677355 -0.24241914 0.0963896 0.102444224 0.14861727 0.052982494
-0.10290241 0.020362765 0.026586052 -0.003991243 0.19433445 -0.018153157 -0.010513045 0.05180123
0.05924859 0.042805456 -0.08556304 -0.2219151 -0.14576583 0.20424148 0.21116509 0.12020169
0.1751772 0.017575243 -0.24606799 0.20640364 0.12648827 -0.19201042 0.12568997 0.14418659
0.20514177 -0.150278 -0.19872537 0.1224533 -0.21447735 -0.060131952 -0.18709141 0.10215675
-0.17464069 0.06540137 0.2445665 0.17067176 0.10363336 -0.12669973 0.2498279 -0.19407573
0.108274184 0.03499744 0.16607967 -0.22208588 0.10107935 0.19118325 0.10658766 -0.016884517
0.10656507 0.087347575 0.2057367 -0.1423171 0.075054325 -0.051034234 0.06677959 0.19310328
0.084803075 0.22904053 -0.023243073 -0.21339938 0.16364221 0.015859636 -0.20740646 -0.20310524
-0.027238684 -0.21275759 0.24808897 -0.027548714 0.18957299 0.14491561 -0.08730551 -0.09981692
0.025559943 0.002527724 -0.3478179 0.21952356 0.25765434 -0.100633845 0.25241387 0.06627012
0.28722018 0.18000352 0.15104981 0.18088338 -0.088293344 0.019483833 0.21642071 0.25475982
0.12642388 0.24491727 0.20224546 -0.12071642 -0.2117866 -0.045614 0.18277861 -0.025529975
0.20285231 0.04391885 0.27986225 0.24416277 -0.09156798 0.22159937 0.031032942 0.17654191
-0.22390173 -0.08259503 0.22738838 0.26542872 -0.10025728 0.24874108 0.037468795 -0.03858918
-0.04840641 0.027817084 0.04550659 -0.0755742 -0.023026599 0.0689315 0.015090576 -0.16948262
0.063527614 0.3016691 0.0016814156 -0.05001099 0.08345978 0.060984317 0.078199655 0.14028464
0.009268033 0.07917542 0.27072635 -0.018455373 0.10357548 0.15394177 -0.014012967 -0.06310408
00000000: 771c 3d3d 575d cb3d 8551 f5bd d5d3 473d
00000010: 04a9 093e 7cd9 58be 621b 763c 3dd2 953b
00000020: 30e5 7a3e 2140 203e 96de 323e b5c3 be3d
00000030: d344 61bd 943f cb3d 6d9a d83d 80e4 fe3d
00000040: bf03 2f3e dcc2 6a3e 251d caba 3b29 a73d
00000050: a297 05bd 440b 0abd 9bf6 2bbc d6d9 5fbd
00000060: 6494 6d3e d917 2b3c aab7 853e 7e5f e23d
00000070: 63d7 87bd 2693 f83d 6f54 04be e9a8 73bd
00000080: 5cf2 41bc b8f0 d5bd 9804 093e f1ee 1c3e
00000090: 5c6a fcbb 0783 853d 2651 043e 0aa6 973d
000000a0: 27a4 203d 50b5 adbd 1920 413e d02c 4abd
000000b0: b2b6 543b 1f07 b13d b1da d63d 5ac7 9fbd
000000c0: 9cb1 2a3e 6c26 ef3d 17a7 be3d 495c 593d
000000d0: 2880 bb3d 9434 173e 747c 2c3e 3b06 2d3e
000000e0: bbc2 363b 86fc f03c 6f3c 183e b22b 3b3c
000000f0: 2a60 a93d 5245 2c3e c717 debd c12f b1bc
00000100: 46fe fdbd 85da 8c3c 20f5 80be 756c 343d
00000110: 0132 953c 4691 dcbd d9f1 513e 9396 9f3d
00000120: 3b32 243e ce3e 93bd 36bf 903d 43ed d53d
00000130: a670 3abd 551f 1fbe 80a3 4f3e a209 183e
00000140: 6042 37bd a7e2 5a3e b7a3 ea3d a67b 643d
00000150: ecdd 9dbe b420 013e 9324 24ba 7765 be3b
00000160: 4aed 873d c627 073e 215d 0a3e 0f0a 383e
00000170: 334e a33d 96a5 9b3d 0182 a9be 4f65 b23d
00000180: dc95 11be c0f0 e43d cf55 993d 2ee4 7c3e
00000190: 3a40 203d f289 fe3d ca7a 033e 15c4 f83d
000001a0: 555a 04be d728 123e 8509 cc3b 242c 8ebc
000001b0: 9cb6 ae3d 524d 013e 426b 55bd f96f 73be
000001c0: 3631 d23d fee8 213e 0f93 4f3d b93c 78be
000001d0: e967 c53d 47ce d13d 202f 183e 2c04 593d
000001e0: 80be d2bd d0cf a63c feca d93c f9c8 82bb
000001f0: 9cff 463e eeb5 94bc e83e 2cbc 872d 543d
00000200: a6ae 723d c654 2f3d ad3b afbd b63d 63be
00000210: a343 15be ae24 513e a93b 583e 4e2c f63d
00000220: a761 333e f5f9 8f3c 3ff9 7bbe 7a5b 533e
00000230: 2486 013e 619e 44be dfb4 003e a6a5 133e
00000240: af10 523e 7ae2 19be aa7e 4bbe ccc8 fa3d
00000250: f39f 5bbe ec4c 76bd e494 3fbe 8f37 d13d
00000260: 02d5 32be 27f1 853d a46f 7a3e 94c4 2e3e
00000270: ba3d d43d 93bd 01be e3d2 7f3e cabb 46be
00000280: dbbe dd3d 7a59 0f3d ca10 2a3e 7b6a 63be
00000290: b102 cf3d 8bc5 433e a24a da3d 6651 8abc
000002a0: ca3e da3d 49e3 b23d a4ac 523e 93bb 11be
000002b0: 15b6 993d 4609 51bd bdc3 883d debc 453e
000002c0: 3cad ad3d 9a89 6a3e 4268 bebc 5e85 5abe
000002d0: d391 273e 11ec 813c 5c62 54be d2fa 4fbe
000002e0: a923 dfbc 20dd 59be 090b 7e3e d7ad e1bc
000002f0: 6c1f 423e c264 143e 3bcd b2bd d06c ccbd
00000300: 1663 d13c 2ca8 253b 3015 b2be c9ca 603e
00000310: 45eb 833e 1e19 cebd 643c 813e a1b8 873d
00000320: 860e 933e d852 383e cdac 1a3e 7e39 393e
00000330: 24d3 b4bd 8f9c 9f3c 649d 5d3e e16f 823e
00000340: 4375 013e 98cb 7a3e 6f19 4f3e 2c3a f7bd
00000350: 96de 58be bfd5 3abd 512a 3b3e 3d24 d1bc
00000360: 84b8 4f3e 41e4 333d 1b4a 8f3e ce05 7a3e
00000370: fe87 bbbd f2ea 623e cc38 fe3c 67c7 343e
00000380: 7f46 65be 9527 a9bd 80d8 683e 46e6 873e
00000390: b053 cdbd fbb5 7e3e e178 193d b00f 1ebd
000003a0: cd45 46bd a7e0 e33c 1e65 3a3d a5c6 9abd
000003b0: 47a2 bcbc f52b 8d3d 773e 773c da8c 2dbe
000003c0: c41a 823d 5f74 9a3e f262 dc3a 53d8 4cbd
000003d0: f6ec aa3d b1ca 793d 2427 a03d c7a6 0f3e
000003e0: f3d8 173c b926 a23d a59c 8a3e b92f 97bc
000003f0: 621f d43d e9a2 1d3e a596 65bc b63c 81bd

lstm.weight_hh_l0 f4 [256, 64]
0.033136677 -0.04205693 0.07345205 -0.07021535 -0.09358277 0.16757156 -0.08512214 -0.06282462
0.010251401 0.10135475 -0.05407723 0.021134255 0.063222826 0.043595426 0.12916555 0.014974149
-0.021685872 0.021775674 0.08414971 0.059147805 -0.1047498 -0.07710966 0.0357321 0.081636496
-0.09902484 0.066084005 -0.0062539903 -0.092169836 -0.09031187 -0.08749904 0.023184791 -0.22537538
-0.21312693 0.07638952 -0.014479586 0.014634013 -0.086039856 0.10698404 0.000103477316 -0.09465088
0.07325063 -0.052103665 0.07093814 0.12969607 -0.07962378 0.10011422 0.058784306 0.047798183
-0.00213629 0.15949044 0.010541863 -0.21432632 0.11495385 0.07146289 0.010877046 -0.032780603
0.09679374 -0.107731864 0.13611986 0.042600285 0.0039897375 -0.054242052 -0.10927867 -0.101748735
0.08526312 0.015878325 0.03084613 0.071779415 -0.12724175 0.1776818 0.1050433 -0.025542732
0.036699727 -0.092929006 -0.016778791 -0.054128144 -0.050080124 -0.09494384 0.1292711 -0.08691682
-0.024179086 0.091963895 0.05922513 0.02075927 -0.15744606 -0.03219207 -0.1064246 -0.07291126
-0.10087801 0.02496695 -0.10985985 0.06551408 0.123891234 -0.034897424 -0.0651822 -0.15763798
-0.09980075 -0.06498058 -0.10389413 0.1104639 0.12905583 -0.0136254085 -0.0062010475 0.06711103
-0.09868415 -0.08440544 0.14021893 -0.047177944 -0.013195891 -0.102708146 0.058552857 0.068653606
0.018154973 0.1362069 -0.021093445 -0.10825129 0.12382642 -0.054785687 -0.038004786 -0.10631439
0.06380671 -0.11143081 -0.007667044 0.024655445 0.015565014 -0.038358297 -0.013614567 0.0070973346
-0.08901407 -0.09701788 0.05214314 0.101968385 -0.10298733 -0.16912593 0.022238275 -0.01037225
0.042817242 0.070548646 0.11015924 -0.05469699 0.07117553 0.17907271 -0.044681434 0.08434272
0.008021894 0.026036106 0.03518894 -0.1667328 0.12623018 -0.023788836 0.09150634 -0.051475085
-0.060603272 0.054843556 0.02125593 0.01910204 0.05139043 -0.09156203 -0.12242954 0.21271001
-0.13354409 -0.15923955 -0.12092116 -0.004731653 -0.05585888 -0.21986885 0.06708505 0.031937312
-0.07475983 -0.002937152 -0.099186435 -0.041974414 -0.019608995 -0.07432859 -0.021979848 -0.23000452
-0.083202004 0.07888904 0.121807404 0.15937908 -0.09646241 -0.008257222 -0.041285027 -0.014666595
0.09444358 0.03409085 -0.14949347 -0.01865246 0.11239004 -0.037155453 -0.058987077 -0.05227616
0.07423872 -0.1542124 0.1722209 0.07781029 -0.04117375 -0.025858872 -0.022594726 0.0669148
-0.024716284 -0.015404992 -0.14037752 0.15741819 0.174306 0.20181781 0.17952925 0.07531821
0.039692663 -0.12056615 0.04238809 -0.03469014 0.31545165 0.029387737 0.053988002 -0.15578188
-0.16414452 -0.009098496 0.03930837 0.18118382 -0.11021538 0.022904694 -0.28709915 -0.10548395
-0.36081368 -0.0958838 0.026958639 -0.041349944 -0.12769493 -0.044282116 -0.00431333 -0.009287478
0.022273641 -0.08933761 0.031094147 0.17041197 -0.10539953 -0.09137519 0.14898494 -0.10524345
0.05850584 0.117596164 0.19011486 0.13675368 -0.026756965 -0.14454675 -0.15845846 -0.12644476
0.08865027 -0.08610882 0.060310215 -0.052823655 0.034209587 0.11985859 -0.014528063 0.03428712
00000000: 53ba 073d e343 2cbd 076e 963d 11cd 8fbd
00000010: 53a8 bfbd e197 2b3e 8454 aebd 32aa 80bd
00000020: 7ef5 273c 1493 cf3d 1680 5dbd bf21 ad3c
00000030: f87a 813d 1e91 323d f943 043e 2256 753c
00000040: 92a6 b1bc e662 b23c af56 ac3d f844 723d
00000050: 1087 d6bd abeb 9dbd d35b 123d 0931 a73d
00000060: 89cd cabd 0d57 873d 46ee ccbb 8ac3 bcbd
00000070: 6ef5 b8bd b232 b3bd 08ee bd3c cec8 66be
00000080: f23d 5abe 1c72 9c3d c93b 6dbc 80c3 6f3c
00000090: aa35 b0bd 731a db3d f601 d938 52d8 c1bd
000000a0: 6d04 963d a76a 55bd 0448 913d 0ccf 043e
000000b0: cb11 a3bd af08 cd3d d0c7 703d 07c8 433d
000000c0: 0001 0cbb 7651 233e c7b7 2c3c 5c78 5bbe
000000d0: ed6c eb3d 235b 923d a335 323c f444 06bd
000000e0: cc3b c63d 86a2 dcbd 0163 0b3e a37d 2e3d
000000f0: 58bc 823b ea2c 5ebd 7fcd dfbd a461 d0bd
00000100: 6e9e ae3d 4313 823c 06b1 fc3c 1601 933d
00000110: a94b 02be 38f2 353e f120 d73d fe3e d1bc
00000120: 7452 163d 9051 bebd ad73 89bc 79b5 5dbd
00000130: d120 4dbd ea71 c2bd a55f 043e 7201 b2bd
00000140: 3813 c6bc 9157 bc3d 0d96 723d 580f aa3c
00000150: 8a39 21be d5db 03bd 24f5 d9bd 8052 95bd
00000160: 2199 cebd 7d87 cc3c 33fe e0bd 3f2c 863d
00000170: b0ba fd3d 9af0 0ebd 3f7e 85bd da6b 21be
00000180: 5664 ccbd 8a14 85bd 72c6 d4bd e63a e23d
00000190: 3627 043e 1b3d 5fbc 2832 cbbb 8271 893d
000001a0: ea1a cabd c2dc acbd 8d95 0f3e a93d 41bd
000001b0: 9433 58bc a658 d2bd 1fd5 6f3d 439a 8c3d
000001c0: bdb9 943c d279 0b3e 29cc acbc dab2 ddbd
000001d0: b598 fd3d f566 60bd e8aa 1bbd 5cbb d9bd
000001e0: 18ad 823d d635 e4bd d43b fbbb 37fa c93c
000001f0: 6704 7f3c 971d 1dbd a20f 5fbc c290 e83b
00000200: 024d b6bd 4fb1 c6bd 0c94 553d cdd4 d03d
00000210: 05eb d2bd 592f 2dbe 0b2d b63c 5ff0 29bc
00000220: 2261 2f3d cf7b 903d 2b9b e13d f309 60bd
00000230: 7ac4 913d d65e 373e e103 37bd e0bb ac3d
00000240: 436e 033c ac49 d53c 4722 103d 01bc 2abe
00000250: 7c42 013e cee0 c2bc ad67 bb3d 8ad7 52bd
00000260: 233b 78bd a3a3 603d eb20 ae3c e27b 9c3c
00000270: c67e 523d e084 bbbd 57bc fabd a7d0 593e
00000280: c8bf 08be b10f 23be 83a5 f7bd fb0b 9bbb
00000290: 48cc 64bd 4d25 61be e363 893d b3d0 023d
000002a0: af1b 99bd 3c7d 40bb 4222 cbbd 5ded 2bbd
000002b0: 0ba3 a0bc 9639 98bd 150f b4bc 4e86 6bbe
000002c0: d065 aabd 9490 a13d 2976 f93d 4534 233e
000002d0: 168e c5bd 4d49 07bc 7d1a 29bd 284c 70bc
000002e0: a36b c13d d9a2 0b3d d114 19be 0bcd 98bc
000002f0: c02c e63d 5130 18bd 6f9c 71bd 871f 56bd
00000300: 780a 983d dbe9 1dbe ad5a 303e 005b 9f3d
00000310: cea5 28bd fcd5 d3bc 9318 b9bc a00a 893d
00000320: ce79 cabc 3865 7cbc 20bf 0fbe 3c32 213e
00000330: 467d 323e 54a9 4e3e 84d6 373e 6f40 9a3d
00000340: c694 223d 63eb f6bd 229f 2d3d 4017 0ebd
00000350: e182 a13e 8dbe f03c 8622 5d3d 4985 1fbe
00000360: 8015 28be dc11 15bc d001 213d 4088 393e
00000370: 9ab8 e1bd a0a2 bb3c a9fe 92be f807 d8bd
00000380: 92bc b8be ba5e c4bd 5dd8 dc3c 8f5e 29bd
00000390: 76c2 02be 2a61 35bd d656 8dbb 822a 18bc
000003a0: 3677 b63c a3f6 b6bd 27b9 fe3c 7a80 2e3e
000003b0: b5db d7bd ea22 bbbd 828f 183e e189 d7bd
000003c0: d2a3 6f3d 42d6 f03d 78ad 423e 2809 0c3e
000003d0: 6c31 dbbc 1004 14be ef42 22be bc7a 01be
000003e0: 468e b53d d259 b0bd d807 773d 9e5d 58bd
000003f0: 5a1f 0c3d 6c78 f53d 1d07 6ebc a770 0c3d

lstm.bias_ih_l0 f4 [256]
0.030961841 -0.08631983 0.13752474 0.18662347 0.007203191 0.016255211 -0.07754603 -0.056405924
-0.034694895 -0.028203482 0.07681073 0.093301445 0.045596525 0.29506654 0.11099413 0.002638297
0.006513434 0.06895597 -0.0005953239 0.06275554 0.26284078 -0.09220232 0.01723119 -0.111839004
-0.022133304 -0.04460663 0.02319105 0.09061036 -0.07353495 -0.03289124 0.3298702 0.011845346
0.14452478 -0.08009606 -0.028611826 0.07922499 -0.07906769 0.156188 0.101683415 -0.064823866
0.08507696 -0.100559354 0.092218444 -0.011990019 0.04233789 0.06185221 -0.06518548 0.07555279
0.010452368 0.13995601 -0.00967815 0.23691332 -0.01760864 0.033307258 0.017434156 -0.09489767
0.04136258 0.27743396 0.04041185 -0.07213738 0.1349801 0.06820827 -0.114093564 0.057741027
-0.106779516 0.024182605 -0.057729114 -0.049267985 -0.11135785 -0.025095943 0.09774448 -0.10999923
0.11402456 -0.06770621 0.039820634 0.044568796 -0.1305518 -0.044569254 0.031681642 -0.058327343
-0.117026865 0.046775628 0.020883135 0.029792523 0.0015522045 0.08522629 0.0487389 0.026306447
-0.019186305 -0.117177665 -0.013323056 -0.063592814 -0.022882517 0.0010485112 -0.0013133714 -0.10936888
0.10119624 -0.10213636 -0.09952198 0.019949807 -0.12771042 -0.093833536 0.09507612 0.061120432
-0.014033073 -0.03916331 0.09455566 0.04375467 -0.053033173 0.0004976716 0.10624144 0.12371273
-0.094462946 -0.07826776 0.05301543 -0.09182235 0.05570984 0.010248692 0.099847935 0.076070555
-0.082854904 0.056476366 -0.06235084 -0.07768954 -0.08174799 -0.001846565 -0.06802726 0.025726281
-0.01639276 0.01781786 0.028117137 -0.065423116 -0.09196629 -0.09359658 0.009638833 0.03160252
-0.06861536 -0.08986265 0.12972444 0.100649096 0.044407386 0.116044596 -0.0009005287 0.060184535
-0.10325365 -0.015909081 -0.036299292 -0.06576341 -0.050012514 0.101704076 0.017513534 -0.093903996
-0.05126028 -0.02972295 -0.07009335 0.08298934 -0.007317929 0.03482522 -0.048411544 0.09296527
-0.01480931 0.05888832 -0.011515405 -0.10171984 -0.02145381 0.02982502 0.058512226 0.0376895
-0.105503656 0.030804062 -0.05154588 0.11367219 -0.091570325 -0.07730006 -0.038027484 -0.011379648
-0.046673767 -0.06738185 0.11654417 0.07036516 0.09346368 -0.096677884 0.025689766 -0.09159198
0.047541667 0.07652898 -0.11187926 0.028454999 0.05573948 -0.016834954 0.07876399 0.027412139
-0.012212635 -0.07369589 0.026479634 -0.016975801 -0.09164056 0.04225849 -0.07611235 0.023671206
0.037616782 -0.07914651 0.08765102 -0.08016499 -0.012163444 0.21175809 -0.08771329 0.13042623
-0.031037714 0.10800189 0.12372921 0.00766979 0.08414261 -0.10714211 0.17981848 -0.013732513
0.05026913 -0.011979438 -0.023316 -0.011950213 -0.06886246 -0.028848227 0.14581609 0.09927446
0.20446843 0.07116994 0.1035745 0.09231034 -0.017410079 0.086779624 -0.08450477 -0.047837246
0.03893197 -0.12486911 0.02227727 0.009251146 -0.050934598 0.07125409 -0.09615441 -0.024204167
-0.061766934 0.12952746 -0.076719 0.18956506 0.13676684 -0.01838066 0.170226 -0.087557115
0.07959709 0.21744932 0.029184923 -0.108900964 0.020239456 0.062378008 -0.044593304 0.040673297
00000000: b0a3 fd3c 73c8 b0bd 49d3 0c3e 391a 3f3e
00000010: bf08 ec3b a629 853c 74d0 9ebd e609 67bd
00000020: 3c1c 0ebd fd0a e7bc f24e 9d3d d414 bf3d
00000030: 6cc3 3a3d f612 973e e450 e33d 47e7 2c3b
00000040: a56e d53b ca38 8d3d 830f 1cba fa85 803d
00000050: 1193 863e 92d4 bcbd 6d28 8d3c d90b e5bd
00000060: e750 b5bc 71b5 36bd 28fb bd3c ed91 b93d
00000070: 7e99 96bd f7b8 06bd bfe4 a83e fb12 423c
00000080: 4efe 133e 6709 a4bd 5963 eabc b640 a23d
00000090: 3eee a1bd bfef 1f3e 653f d03d 60c2 84bd
000000a0: d43c ae3d 10f2 cdbd 06dd bc3d c971 44bc
000000b0: 7f6a 2d3d be58 7d3d f77f 85bd 6cbb 9a3d
000000c0: 6940 2b3c a150 0f3e 1a91 1ebc 6899 723e
000000d0: ff3f 90bc 316d 083d 13d2 8e3c b659 c2bd
000000e0: cf6b 293d d30b 8e3e e586 253d c3bc 93bd
000000f0: 3938 0a3e c7b0 8b3d e3a9 e9bd db81 6c3d
00000100: 38af dabd 991a c63c 5d75 6cbd 3acd 49bd
00000110: 960f e4bd 0296 cdbc 422e c83d 4747 e1bd
00000120: b585 e93d 8ea9 8abd f61a 233d c58d 363d
00000130: 5faf 05be 408e 36bd 9cc4 013d a7e8 6ebd
00000140: c8ab efbd cd97 3f3d 1c13 ab3c 730f f43c
00000150: 5773 cb3a 1f8b ae3d 71a2 473d 9e80 d73c
00000160: 992c 9dbc d8fa efbd f248 5abc f33c 82bd
00000170: 1e74 bbbc 336e 893a 6e25 acba cbfc dfbd
00000180: f93f cf3d de2c d1bd 2ed2 cbbd c76d a33c
00000190: 85c6 02be cc2b c0bd 45b7 c23d 6b59 7a3d
000001a0: f9ea 65bc b569 20bd 66a6 c13d 1938 333d
000001b0: 5039 59bd 2d76 023a 1d95 d93d 1a5d fd3d
000001c0: ca75 c1bd d94a a0bd b526 593d 5b0d bcbd
000001d0: 0030 643d 21ea 273c 137d cc3d e1ca 9b3d
000001e0: d5af a9bd c353 673d 9863 7fbd b21b 9fbd
000001f0: 7d6b a7bd 7108 f2ba e051 8bbd ecbf d23c
00000200: 1c4a 86bc c3f6 913c e955 e63c 8efc 85bd
00000210: d258 bcbd 90af bfbd 32ec 1d3c a571 013d
00000220: 3686 8cbd e909 b8bd 7cd6 043e 1d21 ce3d
00000230: 85e4 353d caa8 ed3d 7511 6cba 0f84 763d
00000240: a676 d3bd c353 82bc 91ae 14bd f7ae 86bd
00000250: ecd9 4cbd 3a4a d03d 8b78 8f3c bd50 c0bd
00000260: 4df6 51bd 8b7d f3bc 1a8d 8fbd 51f6 a93d
00000270: 3dcb efbb e4a4 0e3d 2f4b 46bd 9364 be3d
00000280: c0a2 72bc e134 713d 1cab 3cbc 7e52 d0bd
00000290: e7bf afbc 9a53 f43c 84aa 6f3d 4e60 1a3d
000002a0: 4d12 d8bd cd58 fc3c c621 53bd f7cc e83d
000002b0: 3989 bbbd 7e4f 9ebd b5c2 1bbd b471 3abc
000002c0: fe2c 3fbd 7fff 89bd b6ae ee3d 9c1b 903d
000002d0: e369 bf3d 0eff c5bd 5873 d23c 9394 bbbd
000002e0: 0dbb 423d 3abb 9c3d f420 e5bd 751a e93c
000002f0: 154f 643d 75e9 89bc 044f a13d 6c8f e03c
00000300: 8117 48bc dfed 96bd d1eb d83c d610 8bbc
00000310: 0cae bbbd 3d17 2d3d cbe0 9bbd 1eea c13c
00000320: 0e14 1a3d 9117 a2bd 6182 b33d 8b2d a4bd
00000330: 2f49 47bc 1dd7 583e 06a3 b3bd 748e 053e
00000340: ce42 febc 1830 dd3d bd65 fd3d dd52 fb3b
00000350: f652 ac3d 536d dbbd 5622 383e 56fe 60bc
00000360: 01e7 4d3d 6845 44bc 3201 bfbc d4ca 43bc
00000370: c307 8dbd 1e53 ecbc d050 153e 6850 cb3d
00000380: 2c60 513e 8cc1 913d de1e d43d 340d bd3d
00000390: 959f 8ebc 84b9 b13d d610 adbd fdf0 43bd
000003a0: 2177 1f3d 60bb ffbd d27e b63c 1e92 173c
000003b0: cca0 50bd aaed 913d 9aec c4bd d147 c6bc
000003c0: 53ff 7cbd d9a2 043e da1e 9dbd 581d 423e
000003d0: 9b0c 0c3e 0a93 96bc b94f 2e3e 2551 b3bd
000003e0: cd03 a33d 09ab 5e3e 3815 ef3c 7807 dfbd
000003f0: 37cd a53c 1580 7f3d 78a7 36bd 0b99 263d

lstm.bias_hh_l0 f4 [256]
0.10767314 -0.0840353 -0.02020028 0.040985744 -0.039974615 0.19568504 0.13880897 -0.061889093
0.035489336 0.048000738 0.19940102 0.011738286 0.09511096 0.3284028 0.037748154 0.013041325
0.022040231 0.11352198 -0.019996874 -0.03903181 0.2437994 0.029110331 0.13103072 -0.112438984
-0.036491696 -0.02130783 0.21831249 -0.099447094 -0.106876135 0.13836186 0.30535653 0.13617185
0.17058098 -0.11674739 0.10255934 0.064172775 -0.13980737 0.19345276 -0.10660755 0.010577685
0.011591039 -0.01422615 -0.0055186176 -0.08368018 0.0381082 0.08776412 0.054821163 -0.020927165
-0.042929843 0.164643 -0.021615895 0.13507275 0.096089445 -0.048652284 0.017340904 -0.04070343
-0.12951474 0.15113536 0.23426358 0.07079461 0.016811576 -0.041510653 -0.027022444 -0.074268945
0.0885662 -0.053250358 -0.12459985 -0.107293054 -0.08378856 0.060974017 0.033910178 0.07042628
-0.11268444 0.026448082 -0.02983298 0.067672275 -0.1425869 -0.028423382 -0.055769857 -0.06245798
-0.016986044 0.018873518 0.03442335 0.115213744 0.13908538 -0.008648146 -0.07031263 -0.04823561
0.06659194 -0.11097574 0.10593401 0.11694668 0.059084877 0.033260517 0.07336363 -0.029440576
-0.05567248 -0.03649795 0.058659837 0.07095896 0.039565966 -0.037380066 0.014117195 -0.07663678
0.09610764 -0.12948838 -0.045132387 -0.026150458 0.060721423 0.10351049 -0.082514994 0.07189149
-0.0041308915 -0.021459473 -0.012115655 -0.023426883 0.112172835 -0.09424065 -0.107816435 0.11017702
-0.028280187 0.055199098 0.11169429 0.10059008 -0.06177391 -0.021074226 0.0060330476 0.03569611
0.0067834696 -0.09631254 0.006516279 0.10470341 0.031216655 0.0729868 0.071581386 0.112174846
0.11039633 -0.071170114 -0.075867645 -0.07150821 0.003818211 -0.046026446 0.036381654 -0.016055433
0.045294546 -0.06482699 -0.039977003 -0.072044685 0.07681094 0.069742054 0.12149018 -0.113146074
-0.07880299 -0.10773335 -0.024165882 0.07669968 -0.08651699 -0.090955935 -0.055377822 -0.100016706
0.026261492 -0.11574709 0.0679114 -0.07521321 -0.08575437 -0.06773951 -0.01182513 -0.11739819
-0.03867757 -0.11503214 0.06305318 0.08993049 -0.031844247 -0.050478265 0.07972192 -0.09365888
0.11732858 0.04479562 0.03570134 -0.054731578 -0.06497341 -0.055244252 -0.028549181 -0.009458587
0.024629 -0.052414775 0.067322 0.076015495 0.024838667 0.0885905 0.069538355 0.007990261
0.001307612 0.0550675 0.019831756 0.06036286 0.026361272 0.1737408 0.11317947 -0.0067263804
0.039344627 -0.06863578 0.20337996 -0.045086395 0.031958163 0.1605831 0.01601896 -0.018069876
-0.06519552 0.04769257 0.014840312 -0.08494945 0.11195537 -0.10267102 -0.011484137 -0.102292664
-0.02807238 -0.02257897 0.19994399 0.10040751 0.09965784 -0.03563271 0.11809756 0.07309167
0.1776159 -0.061785344 -0.067268565 -0.031719748 -0.04132708 0.18324232 0.018544389 -0.082527004
0.07410983 -0.07765886 0.09314182 -0.08938914 0.062424324 -0.09155716 0.018281419 0.05982511
-0.037764817 -0.027133707 -0.04799252 0.10300238 0.16240309 -0.11606671 0.0052851792 0.12762964
-0.015559166 0.18550327 0.22958808 -0.13834928 -0.083055325 0.10731954 0.03871715 0.014032736
00000000: bc83 dc3d b31a acbd 0f7b a5bc abe0 273d
00000010: 6cbc 23bd a961 483e f023 0e3e 6b7f 7dbd
00000020: 445d 113d 6c9c 443d c82f 4c3e f151 403c
00000030: 89c9 c23d 6924 a83e cf9d 1a3d 48ab 553c
00000040: b78d b43c 367e e83d 7cd0 a3bc d2df 1fbd
00000050: 8da6 793e ca78 ee3c eb2c 063e 6946 e6bd
00000060: 5178 15bd c28d aebc 4f8d 5f3e ebaa cbbd
00000070: e0e1 dabd bbae 0d3e b157 9c3e a270 0b3e
00000080: c8ac 2e3e 4119 efbd a20a d23d 046d 833d
00000090: aa29 0fbe 7b18 463e 0f55 dabd 074e 2d3c
000000a0: 57e8 3d3c cc14 69bc 85d5 b4bb 8460 abbd
000000b0: 5817 1c3d adbd b33d 288c 603d 726f abbc
000000c0: 34d7 2fbd 2d98 283e d113 b1bc 8350 0a3e
000000d0: 8bca c43d 9e47 47bd 830e 8e3c a4b8 26bd
000000e0: 839f 04be 3ac3 1a3e cbe2 6f3e c4fc 903d
000000f0: 6eb8 893c 1307 2abd 2c5e ddbc 511a 98bd
00000100: 3262 b53d 0c1d 5abd 352e ffbd 76bc dbbd
00000110: 5699 abbd e4bf 793d 66e5 0a3d a73b 903d
00000120: 1ac7 e6bd a6a9 d83c 4b64 f4bc c397 8a3d
00000130: 4d02 12be 27d8 e8bc ef6e 64bd f0d3 7fbd
00000140: 5126 8bbc a39c 9a3c 80ff 0c3d 2ff5 eb3d
00000150: 666c 0e3e f4b0 0dbc 1100 90bd b492 45bd
00000160: 5b61 883d 4047 e3bd eef3 d83d be81 ef3d
00000170: fc02 723d 2e3c 083d ac3f 963d 5d2d f1bc
00000180: d408 64bd e07e 15bd 4c45 703d ee52 913d
00000190: ec0f 223d d71b 19bd cf4b 673c bef3 9cbd
000001a0: 15d4 c43d 9a98 04be bddc 38bd 7c39 d6bc
000001b0: 07b7 783d 4ffd d33d 9ffd a8bd d83b 933d
000001c0: 6e5c 87bb c7cb afbc bd80 46bc bce9 bfbc
000001d0: dfba e53d 3e01 c1bd ddce dcbd 7da4 e13d
000001e0: daab e7bc 7318 623d fabf e43d 2c02 ce3d
000001f0: a406 7dbd dba3 acbc dfb0 c53b 1636 123d
00000200: de47 de3b 823f c5bd 8386 d53b be6e d63d
00000210: 12ba ff3c 1a7a 953d 4399 923d edbb e53d
00000220: 7917 e23d a3c1 91bd 7f60 9bbd e572 92bd
00000230: f33a 7a3b 3a86 3cbd ee04 153d af86 83bc
00000240: c686 393d 03c4 84bd edbe 23bd 2a8c 93bd
00000250: 0e4f 9d3d ecd4 8e3d d8cf f83d 21b9 e7bd
00000260: 7663 a1bd 4da3 dcbd 87f7 c5bc b914 9d3d
00000270: d22f b1bd 1b47 babd dbd3 62bd 8fd5 ccbd
00000280: 5722 d73c cf0c edbd 2215 8b3d 6209 9abd
00000290: fd9f afbd 03bb 8abd 31be 41bc 766e f0bd
000002a0: 5f6c 1ebd f895 ebbd 0722 813d 7a2d b83d
000002b0: 1d6f 02bd 4cc2 4ebd 3f45 a33d 3ad0 bfbd
000002c0: f749 f03d 9d7b 373d 913b 123d 382e 60bd
000002d0: c710 85bd cc47 62bd f9df e9bc 30f8 1abc
000002e0: c2c2 c93c e0b0 56bd 1ee0 893d 03ae 9b3d
000002f0: 767a cb3c f06e b53d 206a 8e3d 95e9 023c
00000300: 2e64 ab3a 758e 613d 3576 a23c 0c3f 773d
00000310: 98f3 d73c 1ce9 313e a3ca e73d f868 dcbb
00000320: d527 213d ea90 8cbd d642 503e 83ac 38bd
00000330: 90e6 023d e56f 243e 323a 833c 4707 94bc
00000340: 3b85 85bd 4959 433d c824 733c faf9 adbd
00000350: db48 e53d 2f45 d2bd f627 3cbc d17e d1bd
00000360: 0cf8 e5bc 88f7 b8bc 1ebe 4c3e 74a2 cd3d
00000370: 6919 cc3d 9bf3 11bd 22dd f13d 16b1 953d
00000380: f1e0 353e a112 7dbd 1ac4 89bd 91ec 01bd
00000390: 9646 29bd e0a3 3b3e 67ea 973c eb03 a9bd
000003a0: e5c6 973d 9c0b 9fbd 23c1 be3d a711 b7bd
000003b0: a6b0 7f3d 5282 bbbd eac2 953c 2d0b 753d
000003c0: 48af 1abd 8247 debc ce93 44bd e9f2 d23d
000003d0: ff4c 263e 62b4 edbd 4c2f ad3b 58b1 023e
000003e0: dfeb 7ebc 92f4 3d3e 2319 6b3e 6fab 0dbe
000003f0: e918 aabd 59ca db3d e095 1e3d 90e9 653c

lstm.weight_ih_l1 f4 [256, 64]
-0.07463466 0.02265226 -0.12616782 0.027822075 0.031026328 0.11120739 0.057597518 0.107780464
0.11056185 -0.14856544 -0.112141736 0.14699242 0.04744868 -0.0437409 0.12095523 0.018600045
0.17176822 -0.0013932695 -0.0556562 -0.08210473 0.07020772 0.11624428 0.069255136 0.10118245
-0.12201899 -0.08794435 0.117753126 0.023796612 0.05680919 -0.02585313 0.081950426 -0.07849886
-0.059217393 -0.037887644 -0.054758668 -0.05677465 -0.028717075 -0.015395779 0.0024957976 -0.077689156
-0.12237824 0.05175338 0.1420239 0.10457078 -0.014915741 0.007075223 -0.004496949 0.033404894
0.06777284 0.11926859 -0.06355867 -0.14209852 -0.012349583 -0.14625311 0.035273474 -0.08704193
0.10732116 -0.18794696 0.046826895 -0.04353962 0.107868895 0.008405707 0.08098784 0.113902
0.11320845 -0.028564684 -0.020719768 0.1210632 -0.05452451 -0.07631891 0.01266555 0.040895633
0.049983718 0.0012700425 -0.0657737 0.10795337 0.036569368 0.06413684 -0.10548421 -0.057707906
0.039229427 0.053497393 0.077238135 0.011573328 0.059444178 0.04078675 0.11035362 0.061005328
0.09756908 0.10403053 -0.019257817 -0.017230485 -0.0082650725 0.023673715 -0.14755708 0.1202347
-0.23383345 0.049801633 0.0074103223 0.09526166 -0.0034804873 -0.041012887 0.12238273 -0.016817715
-0.10896689 -0.03461881 -0.0382705 -0.06066251 0.07710807 -0.027571233 -0.079987876 -0.080804154
-0.045176502 0.051490385 0.086385824 0.016708316 -0.05243871 -0.11389364 -0.077558674 -0.04427368
-0.004289468 0.031564806 -0.042716336 -0.08007728 -0.11096193 0.101403505 0.0035146654 0.093274735
0.0781563 -0.12329217 -0.023957416 0.043732382 0.09631057 0.08349941 0.10714625 0.103353016
0.05678703 -0.07745975 -0.015037476 0.02535759 -0.101485044 0.043574303 0.13415444 -0.09924126
0.024836736 0.09769952 -0.13726695 0.044485074 -0.110022284 0.1115756 -0.043682083 0.098573446
0.040037498 -0.10438955 0.08170441 -0.10546648 -0.09292321 0.05675996 0.21619968 -0.18780425
0.011430683 0.020604124 -0.052075393 -0.07002393 -0.0774458 0.056301553 0.008825186 0.018904326
0.02217447 -0.046919204 0.10650983 0.120255396 -0.008390703 -0.0332007 0.0019272099 -0.009711258
-0.060888354 -0.036665957 0.12375651 -0.1282195 0.101380125 0.096646324 0.086958244 -0.14631733
-0.03762671 -0.17064074 0.116122924 -0.122781135 -0.003950787 0.032692026 -0.027538197 -0.040709317
-0.09439952 -0.26105282 0.51991457 -0.3868775 -0.35387442 -0.5839587 0.3298557 0.31394044
0.41389567 -0.3369819 -0.24505693 0.23570336 0.16125953 0.31698042 0.34864134 0.21946609
0.11419854 -0.2945094 -0.36187434 -0.39469787 0.75472146 0.4144461 -0.16526605 -0.40277958
-0.24380141 -0.35552427 0.39014047 0.26439112 -0.404376 -0.24961953 -0.66449463 0.048056174
-0.5539457 -0.3726408 0.17978717 -0.18106288 0.054003477 0.04694393 0.37692782 -0.21254468
-0.20476067 -0.30481356 0.40914565 0.22372915 -0.32614028 -0.4036336 0.18473852 -0.532967
0.20665152 0.18951492 0.24614131 0.359969 0.1274388 -0.36383584 -0.2200941 -0.31405443
0.26466477 0.35203436 0.2890735 0.16650777 0.07669322 0.3284028 0.3798455 0.24027309
00000000: 0eda 98bd 3b91 b93c 2332 01be 1feb e33c
00000010: ed2a fe3c b3c0 e33d 60eb 6b3d 01bc dc3d
00000020: 406e e23d 8a21 18be 91aa e5bd 2e85 163e
00000030: 8c59 423d a829 33bd 60b7 f73d 1f5f 983c
00000040: 02e4 2f3e 5e9e b6ba c1f7 63bd 8626 a8bd
00000050: 11c9 8f3d 7b11 ee3d a3d5 8d3d bf38 cf3d
00000060: 18e5 f9bd 2b1c b4bd 8d28 f13d 1df1 c23c
00000070: c1b0 683d f1c9 d3bc a0d5 a73d 03c4 a0bd
00000080: f08d 72bd 1330 1bbd a04a 60bd 898c 68bd
00000090: 1240 ebbc 943e 7cbc 8990 233b 7e1b 9fbd
000000a0: 71a1 fabd 5afb 533d b76e 113e 3529 d63d
000000b0: 2761 74bc 46d7 e73b 245b 93bb 92d3 083d
000000c0: 7dcc 8a3d 1743 f43d 0c2b 82bd 4682 11be
000000d0: e855 4abc 60c3 15be eb7a 103d 0a43 b2bd
000000e0: 32cb db3d 2b75 40be 8fcd 3f3d 9a56 32bd
000000f0: 5eea dc3d 17b8 093c f4dc a53d 7445 e93d
00000100: d5d9 e73d 7c00 eabc 81bc a9bc fcef f73d
00000110: 1855 5fbd 174d 9cbd 2b83 4f3c 2e82 273d
00000120: babb 4c3d 8e77 a63a 5db4 86bd a816 dd3d
00000130: c3c9 153d 2d5a 833d 1b08 d8bd 205f 6cbd
00000140: 09af 203d 1520 5b3d 072f 9e3d 0e9e 3d3c
00000150: bd7b 733d 0210 273d 1401 e23d b9e0 793d
00000160: 4cd2 c73d f50d d53d 92c2 9dbc f226 8dbc
00000170: 3a6a 07bc 61ef c13c 3419 17be 9c3d f63d
00000180: 0972 6fbe ccfc 4b3d 4ad2 f23b 8c18 c33d
00000190: e318 64bb 21fd 27bd cca3 fa3d 4ec5 89bc
000001a0: 082a dfbd 74cc 0dbd 87c1 1cbd 4179 78bd
000001b0: d6ea 9d3d 11dd e1bc afd0 a3bd a67c a5bd
000001c0: ff0a 39bd 95e7 523d 0deb b03d e1df 883c
000001d0: f9c9 56bd 1241 e9bd 15d7 9ebd 5158 35bd
000001e0: aa8e 8cbb 194a 013d 53f7 2ebd 8fff a3bd
000001f0: 0240 e3bd a4ac cf3d 4d56 663b d306 bf3d
00000200: 6910 a03d 9b80 fcbd 5842 c4bc ba20 333d
00000210: 7a3e c53d bd01 ab3d 7e6f db3d bfaa d33d
00000220: 8499 683d 38a3 9ebd bf5f 76bc b8ba cf3c
00000230: 64d7 cfbd f87a 323d c85f 093e 003f cbbd
00000240: 6976 cb3c b016 c83d b58f 0cbe fb35 363d
00000250: 5d53 e1bd c081 e43d fceb 32bd e0e0 c93d
00000260: 5cfe 233d 30ca d5bd a454 a73d cffe d7bd
00000270: 864e bebd 227d 683d 7363 5d3e c24f 40be
00000280: c247 3b3c fbc9 a83c 024d 55bd b568 8fbd
00000290: e79b 9ebd 759c 663d 8397 103c 3fdd 9a3c
000002a0: 3ca7 b53c 5a2e 40bd d321 da3d 7648 f63d
000002b0: 2979 09bc 75fd 07bd 6f9a fc3a f81b 1fbc
000002c0: 1166 79bd 0b2f 16bd 0e74 fd3d f94b 03be
000002d0: 62a0 cf3d 82ee c53d 2a17 b23d 36d4 15be
000002e0: 771e 1abd 72bc 2ebe dbd1 ed3d ad74 fbbd
000002f0: 9a75 81bb 13e8 053d c997 e1bc d0be 26bd
00000300: 8954 c1bd b7a8 85be 1f19 053f cf14 c6be
00000310: 072f b5be 517e 15bf d9e2 a83e cdbc a03e
00000320: 22ea d33e e488 acbe 34f0 7abe 395c 713e
00000330: 3821 253e 424b a23e 1e81 b23e b8bb 603e
00000340: ede0 e93d f0c9 96be 9847 b9be d715 cabe
00000350: 6d35 413f 4732 d43e 813b 29be 2039 cebe
00000360: 14a7 79be 4707 b6be 7ec0 c73e 465e 873e
00000370: 5f0a cfbe 439c 7fbe 521c 2abf 8dd6 443d
00000380: 63cf 0dbf c6ca bebe 211a 383e 8c68 39be
00000390: c032 5d3d 4748 403d affc c03e 50a5 59be
000003a0: c8ac 51be 8610 9cbe 8a7b d13e 4119 653e
000003b0: dcfb a6be 10a9 cebe 182c 3d3e 8670 08bf
000003c0: 759c 533e 3310 423e 780c 7c3e db4d b83e
000003d0: 517f 023e b148 babe 5960 61be becb a0be
000003e0: 2482 873e d93d b43e 7101 943e 0381 2a3e
000003f0: 5611 9d3d 6924 a83e 1c7b c23e 260a 763e

lstm.weight_hh_l1 f4 [256, 64]
-0.04544236 -0.08884438 -0.021783458 -0.15840541 0.117786095 -0.04010765 -0.09340835 0.057806958
0.07386343 -0.113300964 -0.04158378 -0.05805029 -0.06111414 -0.09155099 0.034686815 -0.00031474655
-0.08177621 0.100908 -0.046225592 -0.08540648 -0.09911606 0.056121927 0.15782093 0.0025700843
-0.0818001 -0.013006562 0.08854858 0.009150493 -0.15490392 0.026017549 -0.047793355 -0.05612102
-0.094169065 -0.080413744 -0.11130339 -0.030093113 0.072692275 -0.040953614 0.15481307 0.11107738
-0.08235583 -0.06135105 -0.050801862 -0.09143552 -0.051004212 -0.118890464 0.057251077 0.09314197
-0.05180952 -0.09397937 -0.034748286 0.0080758305 0.12409317 0.02348925 -0.05855825 -3.429146e-05
-0.04604477 0.09755837 0.11998791 -0.08554631 0.021369407 -0.1643065 -0.09279778 -0.09202791
0.023204446 0.13077757 -0.08014261 -0.12510301 -0.051471077 -0.034780014 -0.013666465 0.04269116
0.13986933 0.054710105 0.01842475 -0.05882324 -0.05961133 -0.060679063 0.09066966 -0.067851484
0.008899023 0.07211575 -0.025141051 -0.10351815 -0.032523364 0.045459222 0.09189908 -0.09938912
0.09187103 -0.053436086 -0.1188241 0.036095094 0.09805531 0.023677489 -0.07628545 -0.078644484
0.12522359 -0.092781015 -0.118609905 0.062807426 0.088084444 -0.12744915 0.0013015186 0.19495237
-0.038607065 0.044969525 0.16838498 0.012377213 -0.054134462 -0.09029309 -0.11257634 0.0044404822
0.004576832 0.0046986686 0.04482456 0.14175934 0.12961845 0.102617286 0.011328306 -0.023695113
-0.047266744 0.09213923 0.0252653 -0.0046960176 0.0055704187 -0.019435884 0.139158 -0.08719789
-0.10981055 -0.08634209 0.026221475 -0.17068659 0.080170155 -0.06680748 0.011192938 0.023733944
0.043036513 0.0013824084 -0.007909103 0.09898505 -0.009680876 -0.023412462 0.04423579 0.123802744
-0.09095586 0.03564697 0.062757485 -0.04956268 -0.025486495 0.049863495 0.107899755 -0.07001278
0.09659736 0.089757875 -0.026657565 -0.08806325 -0.101944506 -0.08645505 -0.0059947153 -0.044736654
0.04598313 -0.0864256 -0.08093732 0.035559386 -0.031830564 0.064169794 0.07545594 -0.0039487774
-0.04160774 -0.06937533 0.16345404 -0.008535148 0.046745006 -0.05170428 -0.056609944 0.1308207
-0.095142685 0.09634539 -0.047022194 -0.03378279 0.021994552 -0.0040439395 0.12802875 -0.08652891
-0.07461368 -0.13038439 -0.05131268 0.065362334 0.020516258 -0.040936634 -0.050273843 0.024768908
-0.32037157 0.24574004 -0.19344641 -0.24109226 0.24825478 -0.20013821 0.4130717 0.16147526
0.3272176 -0.25048217 0.45748284 -0.33416623 -0.05389161 0.033279914 0.030675055 -0.7024177
0.04929676 0.2353071 0.17807624 -0.4790937 0.12848328 0.11165678 0.30488732 0.0031582618
0.17975469 0.20789373 0.21461602 -0.3343265 0.031094886 0.109583326 -0.31470236 -0.1971156
0.40015244 -0.35206288 -0.18418926 0.29192066 0.26488268 -0.31788105 0.027834915 0.6366825
0.16832937 0.45400137 0.38368052 0.3444954 0.19727926 -0.29750505 0.3115608 -0.29335904
-0.047939394 -0.37611184 0.115821496 0.34005708 0.4380571 0.019208414 0.33139038 -0.31305116
-0.25839144 0.29793137 0.32247272 0.19729571 0.27216518 -0.3430471 0.21537788 0.15338023
00000000: c521 3abd 0bf4 b5bd 3973 b2bc 0735 22be
00000010: d639 f13d eb47 24bd e14c bfbd fdc6 6c3d
00000020: b645 973d 560a e8bd c153 2abd 24c6 6dbd
00000030: d252 7abd 167f bbbd c313 0e3d 9104 a5b9
00000040: 497a a7bd daa8 ce3d 0c57 3dbd 98e9 aebd
00000050: 5cfd cabd 1be0 653d cf9b 213e dc6e 283b
00000060: d086 a7bd 7a19 55bc f558 b53d f3eb 153c
00000070: 229f 1ebe c122 d53c f7c2 43bd 28df 65bd
00000080: b6db c0bd f6af a4bd 08f3 e3bd d585 f6bc
00000090: b0df 943d fabe 27bd 5187 1e3e 8a7c e33d
000000a0: 2caa a8bd 3d4b 7bbd 9d15 50bd 8c42 bbbd
000000b0: cbe9 50bd d87c f3bd 1b80 6a3d 38c1 be3d
000000c0: 3836 54bd 4278 c0bd 3854 0ebd 7d50 043c
000000d0: 8f24 fe3d 876c c03c c7da 6fbd 2dd4 0fb8
000000e0: 7199 3cbd afcc c73d 39bc f53d e732 afbd
000000f0: e50e af3c f73f 28be c30c bebd 2179 bcbd
00000100: 4017 be3c 8eea 053e cf21 a4bd 011b 00be
00000110: 56d3 52bd 7d75 0ebd 4fe9 5fbc eddc 2e3d
00000120: e839 0f3e b417 603d 80ef 963c a3f0 70bd
00000130: 032b 74bd 9c8a 78bd 04b1 b93d b8f5 8abd
00000140: 35cd 113c 6cb1 933d 9bf4 cdbc 5301 d4bd
00000150: 3837 05bd 7333 3a3d 9635 bc3d 868c cbbd
00000160: e126 bc3d ccdf 5abd 0d5a f3bd 73d8 133d
00000170: 39d1 c83d 4bf7 c13c 8c3b 9cbd 5c10 a1bd
00000180: 9d3a 003e f903 bebd c0e9 f2bd 2ea1 803d
00000190: 9e65 b43d 0882 02be b897 aa3a 98a1 473e
000001a0: 7122 1ebd f731 383d 1d6d 2c3e cbc9 4a3c
000001b0: 19bc 5dbd 95eb b8bd 6d8e e6bd 7781 913b
000001c0: 40f9 953b 4af7 993b f599 373d 5c29 113e
000001d0: b3ba 043e 0329 d23d 5c9a 393c 411c c2bc
000001e0: c69a 41bd 7eb3 bc3d 2df9 ce3c 0de1 99bb
000001f0: 0f88 b63b 0138 9fbc 6f7f 0e3e cf94 b2bd
00000200: 5be4 e0bd 1fd4 b0bd 6bce d63c 77c8 2ebe
00000210: 4030 a43d 5cd2 88bd 9662 373c b06d c23c
00000220: 0e47 303d ee31 b53a 2f95 01bc adb8 ca3d
00000230: 899c 1ebc 7ecb bfbc 9630 353d 4b8c fd3d
00000240: 1147 babd 8f02 123d ff86 803d 3d02 4bbd
00000250: 0ec9 d0bc aa3d 4c3d 8cfa dc3d dc62 8fbd
00000260: d6d4 c53d fad2 b73d f760 dabc 815a b4bd
00000270: 48c8 d0bd 580f b1bd 516f c4bb c83d 37bd
00000280: ce58 3c3d e8ff b0bd 77c2 a5bd b8a6 113d
00000290: c460 02bd 746b 833d a588 9a3d bf64 81bb
000002a0: e16c 2abd a714 8ebd 7f60 273e 01d7 0bbc
000002b0: b177 3f3d dec7 53bd d4df 67bd ddf5 053e
000002c0: 2bda c2bd bb50 c53d 589a 40bd d35f 0abd
000002d0: eb2d b43c 0683 84bb f819 033e 1236 b1bd
000002e0: 0fcf 98bd 7c83 05be 3f2d 52bd b0dc 853d
000002f0: b611 a83c 2cad 27bd f2eb 4dbd 2ae8 ca3c
00000300: be07 a4be 47a3 7b3e d116 46be e4e0 76be
00000310: 8036 7e3e 08f1 4cbe 227e d33e c559 253e
00000320: 1189 a73e 333f 80be 313b ea3e d617 abbe
00000330: 73bd 5cbd 8550 083d 414a fb3c a5d1 33bf
00000340: 66eb 493d 58f4 703e 9e59 363e c54b f5be
00000350: 1f91 033e 4fac e43d 311a 9c3e d7fa 4e3b
00000360: 9d11 383e 18e2 543e 4dc4 5b3e d82c abbe
00000370: b4ba fe3c 396d e03d ab20 a1be acd8 49be
00000380: c8e0 cc3e 9641 b4be 1c9c 3cbe a076 953e
00000390: b49e 873e 4ec1 a2be 0c06 e43c a0fd 223f
000003a0: 895e 2c3e de72 e83e c671 c43e b361 b03e
000003b0: 9303 4a3e 9552 98be e684 9f3e 2833 96be
000003c0: 195c 44bd bb91 c0be d233 ed3d f61b ae3e
000003d0: 0549 e03e f75a 9d3c 00ac a93e 3e48 a0be
000003e0: e24b 84be 768a 983e 251b a53e e307 4a3e
000003f0: 3c59 8b3e dfa3 afbe 058c 5c3e b50f 1d3e

lstm.bias_ih_l1 f4 [256]
0.062379505 0.03944974 -0.063376404 0.3274975 0.0703078 0.017840618 -0.03814174 0.18061545
0.14564136 0.028208664 0.08441483 0.057950772 0.021566458 -0.05994381 -0.108878314 -0.004799947
0.069083594 -0.035202906 0.09333237 0.12534986 -0.010391532 0.10188896 0.25062662 0.24961564
-0.047972344 -0.10128497 0.0715387 0.05610291 -0.013098138 0.21360412 -0.102826335 -0.13229775
-0.038097586 -0.024111224 -0.02065007 -0.08112959 0.17684385 0.06647214 0.022709494 0.07823035
0.14351398 0.26175794 0.12703061 0.13261141 -0.026436873 0.099114 -0.05913007 -0.045046695
0.030225653 0.007427841 0.06962525 -0.09757473 0.01952001 0.0066954875 0.02220395 0.057068318
-0.102494776 0.07567677 0.007614126 0.03224025 0.08591998 0.026488524 0.0100962445 -0.06475022
-0.11916758 -0.081645556 0.04817129 -0.11042239 0.100369915 0.00428213 -0.121214524 -0.12177743
-0.06611261 0.020173796 -0.059005048 0.02448786 -0.02021187 0.015179347 0.07983416 0.03060566
0.010358252 -0.104105406 -0.09277062 0.045557145 -0.013885722 -0.18963441 -0.018555285 0.04906463
0.025706708 -0.12666485 0.09132748 -0.026405372 0.06458499 -0.22801733 0.07175067 0.0015744526
0.08286177 -0.0369768 0.090731606 -0.09920657 -0.116346985 -0.12040455 0.04699142 -0.07456327
0.05230942 -0.08218257 -0.021186627 0.0003719725 -0.03119885 0.04681697 0.08694684 0.009491928
0.010988109 -0.05793766 -0.07727184 -0.1176981 -0.14398022 0.0945019 0.05552326 0.059077535
-0.04396091 -0.101985574 -0.101608634 -0.044777904 -0.11426982 -0.06936592 -0.070858605 -0.09581011
-0.05307875 0.06539597 -0.07845625 0.025731193 0.1260523 -0.050387025 0.059042655 -0.09431819
0.12083309 -0.11830138 0.013965465 0.08605657 0.106119044 0.099929996 0.014365012 -0.0729167
-0.0981031 0.08617149 -0.04815395 -0.12923352 -0.067297354 0.09399757 0.016821124 0.0124504445
0.09847381 0.09358023 -0.013697201 -0.050460946 0.021808127 -0.036996882 0.07867034 0.05848076
-0.014152572 -0.13295329 -0.06791159 0.06557884 -0.016754128 -0.011006461 0.09149107 -0.031331472
0.112085864 0.017730761 0.066351056 0.008326566 -0.06302764 -0.04069731 0.1239017 -0.014363751
-0.10236785 -0.076598115 -0.07593902 -0.07821561 -0.01081992 -0.07406364 -0.09255004 0.0026477065
-0.002566682 -0.10425204 0.10476513 0.09467003 -0.1100194 -0.094720796 -0.05625708 -0.08906463
0.13285014 0.07666317 0.027994355 0.2470965 0.063308075 0.06522638 -0.040518887 0.40203327
0.091599405 0.08622878 0.072783716 0.03324281 0.013230861 -0.08155528 0.10007882 0.0025508364
0.08871082 0.021333952 -0.05239663 -0.07969317 0.05092457 0.045689 0.11948751 0.011800143
-0.08932713 -0.11260865 0.1322004 0.11355133 0.028099973 0.21683289 -0.057762727 -0.057707302
0.013919503 0.0647489 0.13718255 0.10098347 0.16624656 0.18943726 -0.042909045 0.06874984
0.044659857 0.23867428 0.20544197 0.03848627 0.10128773 -0.065394565 0.11974496 -0.00623981
-0.02944682 0.02534678 -0.05091467 0.040758554 -0.026746765 -0.059039466 0.20678602 -0.002370446
-0.01879159 0.018186977 0.1167269 -0.007569423 0.015536273 0.010173301 -0.01833916 -0.090283394
00000000: a781 7f3d 0d96 213d 7dcb 81bd c1ad a73e
00000010: 89fd 8f3d 7d26 923c 833a 1cbd 42f3 383e
00000020: 0223 153e db15 e73c afe1 ac3d ca5d 6d3d
00000030: 24ac b03c a487 75bd 98fb debd e048 9dbb
00000040: b37b 8d3d ec30 10bd 0b25 bf3d b75b 003e
00000050: 3f41 2abc 29ab d03d 2252 803e 3e9b 7f3e
00000060: a67e 44bd 7f6e cfbd e282 923d 2acc 653d
00000070: 9399 56bc 0abb 5a3e 9d96 d2bd 1079 07be
00000080: 370c 1cbd e784 c5bc 562a a9bc 4527 a6bd
00000090: 8e16 353e 8c22 883d 4309 ba3c 3c37 a03d
000000a0: 54f5 123e 2305 863e 5014 023e 49cb 073e
000000b0: 2492 d8bc 48fc ca3d 5f32 72bd e282 38bd
000000c0: ca9b f73c 3f65 f33b af97 8e3d 43d5 c7bd
000000d0: 6ee8 9f3c d265 db3b 0fe5 b53c 78c0 693d
000000e0: c8e8 d1bd 6cfc 9a3d eb7f f93b 5a0e 043d
000000f0: d1f6 af3d 76fe d83c b86a 253c c39b 84bd
00000100: 220e f4bd c935 a7bd 424f 453d 2225 e2bd
00000110: be8e cd3d 1c51 8c3b 523f f8bd 7266 f9bd
00000120: 0c66 87bd 8443 a53c 47af 71bd c49a c83c
00000130: 5d93 a5bc ccb2 783c 1880 a33d b9b8 fa3c
00000140: a8b5 293c 3735 d5bd 86fe bdbd 219a 3a3d
00000150: f080 63bc 862f 42be 4101 98bc fef7 483d
00000160: e096 d23c 6eb4 01be e709 bb3d 1450 d8bc
00000170: 2345 843d 607d 69be 04f2 923d dd5d ce3a
00000180: 6fb3 a93d fc74 17bd 7ed1 b93d d02c cbbd
00000190: 5447 eebd a996 f6bd 137a 403d a1b4 98bd
000001a0: 6742 563d 564f a8bd 948f adbc 4e05 c339
000001b0: bb94 ffbc 27c3 3f3d 2f11 b23d 0884 1b3c
000001c0: 7807 343c 0a50 6dbd b340 9ebd b40b f1bd
000001d0: 8d6f 13be 368a c13d 5c6c 633d 49fb 713d
000001e0: 5b10 34bd d0dd d0bd 3018 d0bd 0969 37bd
000001f0: 4c06 eabd b80f 8ebd 511e 91bd 1738 c4bd
00000200: 1a69 59bd 53ee 853d acad a0bd 39ca d23c
00000210: db13 013e a062 4ebd b6d6 713d e529 c1bd
00000220: 5777 f73d fe47 f2bd 68cf 643c 6d3e b03d
00000230: f154 d93d 19a8 cc3d 3a5b 6b3c 5a55 95bd
00000240: 47ea c8bd ae7a b03d 143d 45bd cb55 04be
00000250: 32d3 89bd cc81 c03d 74cc 893c f3fc 4b3c
00000260: a3ac c93d fea6 bf3d 3a6a 60bc 23b0 4ebd
00000270: f5a6 b23c 0b8a 17bd ea1d a13d 8589 6f3d
00000280: 30e0 67bc e824 08be 3b15 8bbd 334e 863d
00000290: f43f 89bc 7254 34bc ac5f bb3d 6e55 00bd
000002a0: 468d e53d 1a40 913c 10e3 873d 266c 083c
000002b0: a314 81bd 39b2 26bd 2dc0 fd3d f055 6bbc
000002c0: 3ca6 d1bd 79df 9cbd eb85 9bbd 812f a0bd
000002d0: 0946 31bc adae 97bd e08a bdbd 2585 2d3b
000002e0: c735 28bb 1882 d5bd 1a8f d63d 5ce2 c13d
000002f0: da51 e1bd fafc c1bd d36d 66bd 8467 b6bd
00000300: de09 083e 9401 9d3d 6b54 e53c dd06 7d3e
00000310: aaa7 813d 6995 853d 22f7 25bd 4ed7 cd3e
00000320: 7898 bb3d b798 b03d a10f 953d 9d29 083d
00000330: 41c6 583c 7406 a7bd 20f6 cc3d ef2b 273b
00000340: 05ae b53d 8ac4 ae3c d99d 56bd 2c36 a3bd
00000350: 4896 503d 6424 3b3d deb5 f43d 6355 413c
00000360: 24f1 b6bd 5d9f e6bd 8b5f 073e 9a8d e83d
00000370: ea31 e63c 7109 5e3e 9c98 6cbd 7e5e 6cbd
00000380: a10e 643c 129b 843d 9579 0c3e 6cd0 ce3d
00000390: 8a3c 2a3e d7fb 413e 65c1 2fbd b7cc 8c3d
000003a0: 41ed 363d 0867 743e 615f 523e c7a3 1d3d
000003b0: f16f cf3d 96ed 85bd d83c f53d 5277 ccbb
000003c0: 753a f1bc 0da4 cf3c e78b 50bd 71f2 263d
000003d0: 081c dbbc 5ed3 71bd b7bf 533e 7c59 1bbb
000003e0: d2f0 99bc dbfc 943c 830e ef3d ec08 f8bb
000003f0: da8b 7e3c ebad 263c 023c 96bc 80e6 b8bd

lstm.bias_hh_l1 f4 [256]
0.08810135 -0.09263827 0.027413255 0.19336349 0.0015006079 0.10777925 -0.00013006756 0.18041672
0.15981181 -0.06677086 -0.028708331 0.027108928 -0.053115062 -0.030955728 -0.05601378 0.009698515
0.14426997 0.025669286 0.06606232 0.1215689 0.03554802 0.12166346 0.16100454 0.07130674
0.14714684 -0.107857354 -0.05796047 -0.023508757 0.027664576 0.23502536 0.040478095 -0.09704944
-0.01193702 -0.086139925 0.13024062 -0.042003088 0.030921552 0.030808013 -0.013175352 -0.06389077
0.13709088 0.076645084 0.19446856 0.046941947 0.06188918 0.12602648 -0.053875472 0.09241863
-0.005644346 -0.0068702972 -0.03897851 -0.011979453 -0.12780938 -0.046376545 -0.023213714 -0.07263391
-0.024247438 0.107675135 -0.014843478 -0.057980224 0.09670359 0.06766969 0.007882558 0.04856593
-0.0449809 -0.041361246 -0.110034436 -0.22621655 0.022505745 -0.0071860063 0.08397949 0.03507595
-0.01114314 -0.01021113 -0.13759126 -0.028938074 -0.119628794 -0.06221735 -0.029877404 -0.054024853
-0.09417896 0.07244181 -0.11099975 -0.038579836 -0.006766398 -0.18797559 0.03607487 0.029669654
0.008897798 0.054972988 0.04630846 -0.11024864 0.08063314 -0.07516398 0.037033465 0.038755793
0.041158784 0.056190614 0.087218836 -0.03161547 -0.11604354 -0.057342503 -0.09031799 -0.06769721
-0.09188616 0.046022784 -0.10233603 0.118461326 0.060922578 -0.16191934 0.121168554 0.07291681
0.08402265 -0.021317411 0.04560525 0.015271544 0.09258391 0.042183843 -0.08277067 -0.014617791
-0.035408366 -0.11117834 -0.01317055 0.040960502 -0.12977499 -0.054884944 0.037277054 0.09409612
0.03382221 -0.081474215 -0.09213315 -0.082415715 -0.08990398 -0.096068755 0.124265864 0.07902389
-0.086182855 -0.0026474672 0.015212192 -0.09879375 0.015301283 0.11056519 -0.10587133 0.02509054
-0.040806595 -0.007493329 0.06957025 0.043255616 0.0026661193 0.07855092 0.033785768 -0.013804772
0.057584304 -0.073698744 0.11157156 -0.12236834 -0.072713844 0.018250164 -0.11920054 0.06944576
0.08133606 -0.055402394 0.017900262 0.09132315 0.07722124 -0.006000783 0.08609055 0.051267374
-0.044319402 -0.058963347 0.005435308 0.057823643 0.083723255 -0.031159246 0.043526787 0.002237496
-0.046595827 0.08627964 0.09481662 0.061764654 -0.08153597 0.13556781 0.06934351 -0.12773208
-0.12944357 0.10402222 -0.050078522 -0.0027102982 -0.0009132839 0.04895819 -0.016155884 0.102632925
-0.077165484 -0.104433335 0.0054712165 0.25456446 0.02619112 0.029036153 -0.017181262 0.2354793
-0.014054611 0.053881958 -0.009114427 0.12373415 0.12846673 -0.123330265 0.114340365 -0.021474032
0.12713933 -0.015682688 0.08474972 -0.081021145 -0.0047156704 0.037616055 0.059211634 0.16212241
0.059742484 -0.05189639 -0.088103354 0.009624252 0.07730897 0.23985441 -0.015102529 -0.12532723
-0.07823596 -0.05439209 0.07354239 0.028091507 0.12677301 0.0154934125 -0.07265753 0.04568168
0.06033636 0.079859674 0.08716945 0.016204303 0.013164071 0.13875745 -0.062056158 -0.045399576
0.06944752 0.11865207 -0.06561393 0.09117099 0.109256044 -0.029164273 0.1448793 -0.08753992
0.122075886 0.03736195 -0.09080968 -0.034522645 -0.07954831 0.086827904 0.0050855763 0.100538224
00000000: 7b6e b43d 22b9 bdbd c391 e03c 1401 463e
00000010: 0cb0 c43a 5ebb dc3d bf62 08b9 29bf 383e
00000020: b5a5 233e 29bf 88bd bc2d ebbc 8b13 de3c
00000030: 2e8f 59bd de96 fdbc b56e 65bd 85e6 1e3c
00000040: 82bb 133e 6548 d23c ae4b 873d 1ef9 f83d
00000050: cd9a 113d b12a f93d 60de 243e 4509 923d
00000060: a9ad 163e 51e4 dcbd f567 6dbd 7095 c0bc
00000070: d2a0 e23c 7daa 703e 5ccc 253d dbc1 c6bd
00000080: 7e93 43bc 216a b0bd cc5d 053e 6e0b 2cbd
00000090: 324f fd3c 1661 fc3c 6edd 57bc 2ad9 82bd
000000a0: 8d61 0c3e 19f8 9c3d c422 473e 3346 403d
000000b0: 827f 7d3d 160d 013e 87ac 5cbd fb45 bd3d
000000c0: 35f4 b8bb 3b20 e1bb eea7 1fbd 7845 44bc
000000d0: 76e0 02be 55f5 3dbd b02a bebc 16c1 94bd
000000e0: 90a2 c6bc c884 dc3d 0f32 73bc ac7c 6dbd
000000f0: 880c c63d 6896 8a3d d825 013c 12ed 463d
00000100: e43d 38bd 696a 29bd bc59 e1bd 50a5 67be
00000110: f85d b83c 9778 ebbb 70fd ab3d cdab 0f3d
00000120: b791 36bc 954c 27bc b9e4 0cbe 8a0f edbc
00000130: f1ff f4bd 9fd7 7ebd 75c1 f4bc 2a49 5dbd
00000140: e6e0 c0bd 5f5c 943d d653 e3bd e405 1ebd
00000150: a9b8 ddbb ac7c 40be 3ec3 133d c60d f33c
00000160: 12c8 113c 5b2b 613d f1ad 3d3d 0aca e1bd
00000170: fd22 a53d 93ef 99bd 67b0 173d 65be 1e3d
00000180: 1d96 283d 2128 663d ca9f b23d 397f 01bd
00000190: 3ca8 edbd f9df 6abd a3f8 b8bd d6a4 8abd
000001a0: d02e bcbd 6382 3c3d 8d95 d1bd da9b f23d
000001b0: f489 793d 2fce 25be 3827 f83d 6955 953d
000001c0: 1114 ac3d daa1 aebc 92cc 3a3d 8035 7a3c
000001d0: a29c bd3d f7c8 2c3d ab83 a9bd 767f 6fbc
000001e0: 5d08 11bd 78b1 e3bd 4ac9 57bc 33c6 273d
000001f0: bce3 04be 09cf 60bd d3af 183d 77b5 c03d
00000200: 2889 0a3d f4db a6bd 4eb0 bcbd 92c9 a8bd
00000210: 941f b8bd b2bf c4bd 1a7f fe3d 47d7 a13d
00000220: a380 b0bd 2181 2dbb 8f3c 793c 6154 cabd
00000230: 3cb2 7a3c 0170 e23d 11d3 d8bd ad8a cd3c
00000240: d124 27bd 998a f5bb d97a 8e3d cd2c 313d
00000250: 0fba 2e3b 4edf a03d f262 0a3d 692d 62bc
00000260: 85dd 6b3d 5eef 96bd a17f e43d 419c fabd
00000270: ffea 94bd 5e81 953c 6a1f f4bd 9439 8e3d
00000280: 8593 a63d 9fed 62bd 92a3 923c a207 bb3d
00000290: 2b26 9e3d 37a2 c4bb 3e50 b03d bdfd 513d
000002a0: 4388 35bd 8d83 71bd ab1a b23b 7cd8 6c3d
000002b0: 1977 ab3d ad41 ffbc 2549 323d f4a2 123b
000002c0: 44db 3ebd 61b3 b03d 372f c23d effc 7c3d
000002d0: 55fc a6bd 4ad2 0a3e f803 8e3d 33cc 02be
000002e0: db8c 04be 9a09 d53d 231f 4dbd 429f 31bb
000002f0: 7269 6fba 6288 483d 5859 84bc 3631 d23d
00000300: f008 9ebd 25e1 d5bd e447 b33b 4656 823e
00000310: c28e d63c 3add ed3c b8bf 8cbc 7c21 713e
00000320: 5045 66bc 54b3 5c3d ad54 15bc 5468 fd3d
00000330: c88c 033e 9494 fcbd 482b ea3d 4fea afbc
00000340: d030 023e fb78 80bc 4391 ad3d 6aee a5bd
00000350: e985 9abb 4b13 1a3d e687 723d 6b03 263e
00000360: 89b4 743d 4f91 54bd 886f b4bd 0aaf 1d3c
00000370: 2a54 9e3d 659c 753e 9970 77bc c855 00be
00000380: 2d3a a0bd 3dca 5ebd 649d 963d 2920 e63c
00000390: c9d0 013e 15d8 7d3c 79cd 94bd b71c 3b3d
000003a0: 4223 773d 788d a33d e685 b23d e3be 843c
000003b0: 1eae 573c 6f16 0e3e 992e 7ebd e8f4 39bd
000003c0: 803a 8e3d dbff f23d 9960 86bd dbb7 ba3d
000003d0: a2c1 df3d eae9 eebc 3d5b 143e 2148 b3bd
000003e0: ec02 fa3d d808 193d 6dfa b9bd 9e67 0dbd
000003f0: 39ea a2bd d4d2 b13d e8a4 a63b fce6 cd3d
