预测论文/Coding_strucrture_code/best_model.pt (torch, 204393 bytes, 9 tensors)

lstm.weight_ih_l0 f4 [256, 1]
000000 32 ed 20 3e 77 e8 8e 3d e7 9b 94 bd 26 86 56 bd
       0.15715483 0.06977933 -0.072562985 -0.052374028
000010 f0 64 f6 bd ff c9 82 bd 2a 19 07 3c 05 a3 c6 3d
       -0.12030971 -0.06386184 0.008245746 0.09699062
000020 25 3a ba bd bf 2c e0 3d c1 24 03 3d af 08 be bd
       -0.090931214 0.10946035 0.032017473 -0.09279
000030 81 5c 21 3b d1 31 ec bc 8f e9 1a 3e 16 6d 1d 3d
       0.0024621787 -0.028832348 0.15128158 0.03843411
000040 cd 9e 58 3c e1 40 b1 3c 26 1d 0f 3d 40 7f c2 3d
       0.013221455 0.021637382 0.034939907 0.09496927
000050 55 0b 60 bd 5d e9 99 3e 1d 3c 7a 3d 86 81 a3 bb
       -0.054698307 0.30060855 0.061092485 -0.0049898056
000060 3a 18 01 be ac 5e bb bc 12 c8 85 bc 9e aa 49 3e
       -0.12606898 -0.022872292 -0.016330753 0.19693992
000070 1d 2e 13 be b5 e2 f9 bd ad 29 9b bc 97 cc a5 3d
       -0.1437306 -0.12201444 -0.018940771 0.08095663
000080 52 7a f3 bc 5f da bd bc cb 95 33 3e 90 f3 8c 3c
       -0.029721413 -0.023175417 0.1753761 0.017205983
000090 99 b7 86 3c bf 69 36 bd 16 f3 ae 3c 40 d9 37 3e
       0.016444968 -0.04453444 0.021356147 0.17953968
0000a0 e5 a4 5f bc 31 e8 f7 3d 3e de b2 3c a6 0e 11 3b
       -0.013650154 0.12104834 0.021834489 0.0022133975
0000b0 0c 30 82 3d 5b 7b df bd 97 7e 84 bd c9 55 57 3e
       0.063568205 -0.109122 -0.064694576 0.21028818
0000c0 82 4d 97 bd 23 63 14 bd b7 a4 1d 3e f1 bf a9 3c
       -0.0738783 -0.036227357 0.15394865 0.020721408
0000d0 19 2a 7a 3d 9c eb be bc 06 dc b1 bd ac ef 92 bd
       0.061075304 -0.023305707 -0.08684544 -0.0717462
0000e0 df 30 a4 3d 1f 6d f2 bd 73 df ee bd 10 1f 93 bc
       0.08017134 -0.118372194 -0.11663713 -0.017959148
0000f0 9a a7 9d 3d 52 18 b1 3d 9f eb f0 3d 55 70 00 3e
       0.07697983 0.08647217 0.11763691 0.12542851
000100 0d 6e 08 bd 4d 52 2c bd d0 fd 1e be 46 67 b6 bd
       -0.033308078 -0.042070676 -0.1552651 -0.089064166
000110 99 e7 55 bd 1b 19 1e bc fc ac 42 bd bb f5 07 3e
       -0.05222282 -0.00964954 -0.047528252 0.13277332
000120 b8 19 ea 3c d1 da a7 bb a1 34 99 bd 14 ce 7f 3c
       0.028576717 -0.0051225205 -0.07480741 0.015613098
000130 e8 ca 71 3d 56 c8 46 bd 6a 87 b2 bd 88 9c 0b be
       0.059031397 -0.0485309 -0.087172344 -0.1363393
000140 93 e2 50 3d 8f a1 5b 3c 71 5c 15 be 43 8e e1 bc
       0.050997328 0.013405218 -0.14586045 -0.027533656
000150 88 02 b6 bd 4b 9a 1d 3e 4a da 7b ba 50 3d 23 be
       -0.088872015 0.1539089 -0.0009607418 -0.15941358
000160 71 13 fc bd 74 09 78 bd f3 1b 80 3c c2 2b 1b 3d
       -0.12308396 -0.06055589 0.015638327 0.037883528
000170 54 03 48 be d6 1e 38 be b3 be 78 3d df 1a a3 bc
       -0.1953252 -0.17980513 0.06072874 -0.019910274
000180 eb 03 3d 3d 6a 77 0c 3d a8 78 ca 3a 80 3c aa bd
       0.046146315 0.03429357 0.0015447335 -0.08312321
000190 51 f2 8c bc 94 8b 16 3e fd 32 ec bc 54 06 d6 bc
       -0.01720539 0.14701682 -0.028832907 -0.026126064
0001a0 02 aa 97 3c 25 1f 33 bb 27 eb 66 bd 92 8f d9 3d
       0.018513683 -0.0027331796 -0.056376603 0.10623087
0001b0 69 08 55 be d1 1f fe bc 87 fb 96 3c af 66 13 3e
       -0.2080399 -0.03102103 0.018430484 0.1439464
0001c0 0d 2e ba 3d 1d f4 81 bc 2d f9 ec 3c 99 87 d6 ba
       0.09090815 -0.015863473 0.02892741 -0.0016367316
0001d0 4c ed 87 bd 64 75 c7 3d 38 4a 33 3d 0d d9 09 3e
       -0.06637058 0.09739187 0.043771952 0.13461705
0001e0 8b 67 b5 3d fe d6 b5 bc b8 d7 f7 3d ac 53 bb 3d
       0.0885764 -0.022197243 0.12101692 0.091468185
0001f0 7b b0 45 3c cb 15 71 3d b8 5a 52 3d 33 ac aa 3d
       0.012066002 0.058858674 0.051356047 0.08333626
000200 a6 85 40 be e0 e4 a0 3d 5b fb 54 3e 68 d0 a8 bd
       -0.18800983 0.078561544 0.2079901 -0.08242875
000210 a1 0b 50 3e b3 bc 3a be cf f6 26 be 98 e2 20 bd
       0.20316936 -0.18236046 -0.16305088 -0.039278597
000220 93 ff f6 3d 42 08 1d be 2e 37 28 be 8e cd a5 3d
       0.12060466 -0.15335181 -0.164273 0.08095847
000230 1f a8 14 3d a0 e4 e6 3d 8f ac 24 3e 3c aa 0d be
       0.036293145 0.112740755 0.16081451 -0.1383447
000240 6c 48 e6 3d 04 49 3e bd 3e 2e fa bd 86 29 f2 3b
       0.11244282 -0.046456352 -0.12215851 0.007390204
000250 75 1f 04 be d3 f7 3d 3e 23 83 40 be ab 0a 2c be
       -0.12902625 0.18551569 -0.18800025 -0.16800945
000260 c8 b9 45 3e 0f 07 1d 3e 18 6a 86 be b3 ae 45 3e
       0.19309151 0.15334724 -0.26252818 0.19304924
000270 93 16 04 be 3f bb 27 be 26 a1 cc bd 09 5f 7a 3d
       -0.12899236 -0.16380022 -0.09991674 0.06112579
000280 75 13 bd 3d 5e 8e ae bd be 9f 2f 3e ef 7f b1 bd
       0.09232227 -0.08523248 0.1715078 -0.086669795
000290 67 64 30 be 59 53 26 3e 4d 7e 86 3d 45 cc 03 be
       -0.172258 0.16242732 0.06567059 -0.12870891
0002a0 5a ad 3b 3e 0e c1 fe bd 22 bc 3b 3b 4e 40 7d 3d
       0.18327847 -0.12439166 0.0028646071 0.061828904
0002b0 ef e6 2d be bb 0b 38 be a0 43 29 bd 32 0a 89 be
       -0.16982625 -0.17973225 -0.041324258 -0.2676559
0002c0 59 ca 79 3d 47 d3 1e 3e 14 eb 04 3e 1a 58 26 bd
       0.06098399 0.15510283 0.129803 -0.040611364
0002d0 13 91 de 3d e2 09 3c be 08 0a 5f 3c 6d 13 87 3d
       0.108675145 -0.18363145 0.0136132315 0.06595502
0002e0 ed 87 f0 3c 6a 57 39 3e 2c 37 7e 3d 68 24 0c 3d
       0.02936169 0.18099752 0.062064335 0.034214407
0002f0 5e 28 71 be f8 69 c5 bd 99 e7 01 be db b7 2f be
       -0.23550555 -0.096393526 -0.12686004 -0.17159979
000300 bd 1b 6c bd a1 41 22 3d 32 1c 61 bd 55 2c a0 bd
       -0.05764364 0.03961337 -0.05495853 -0.07820956
000310 9d 25 cb 3d 01 c0 23 be 36 c1 f1 3d 37 98 8b 3d
       0.099192835 -0.15991212 0.1180443 0.06816142
000320 41 ae f2 bd 00 1b 78 b7 40 d6 cc bd f4 3a 0f be
       -0.118496425 -1.4788238e-05 -0.100018024 -0.13987333
000330 e6 11 8f 3d 59 1d c2 bc a4 71 22 3e 74 60 26 be
       0.06985836 -0.023695635 0.15863663 -0.16247731
000340 b6 04 ea 3d 81 0e 7e bd 88 af 35 bd 96 99 95 bd
       0.1142668 -0.06202555 -0.044356853 -0.07304685
000350 30 c7 4a 39 8b 25 64 3e 22 6f 61 3d 38 37 e3 3d
       0.00019338424 0.22279947 0.055037625 0.110945165
000360 5f 95 7f bd 9b a1 0d 3e e7 5b e3 bd b0 55 21 3e
       -0.06239831 0.13831179 -0.11101513 0.15755343
000370 03 ca 38 be 6a bf e8 3d 62 9c c6 3c f8 91 d0 3d
       -0.18045811 0.11364634 0.024244491 0.10184091
000380 6e 92 88 3d c0 30 6e bd d1 8d 93 3d 7f f7 af 3d
       0.06668554 -0.05815196 0.07204784 0.08592128
000390 85 99 5b 3c f3 db 30 3e 24 3a b9 39 4d 92 ce 3d
       0.013403301 0.17271404 0.00035329268 0.100864984
0003a0 c0 ce 15 3e 45 40 07 3e 83 ee 9d 3c 65 93 10 3d
       0.1462965 0.1320811 0.01927877 0.035296816
0003b0 78 c6 bf bc f9 54 ad bc 04 b3 0c 3d 6b c8 4d 3e
       -0.023410067 -0.021158682 0.03435041 0.20095985
0003c0 72 36 f1 3d ce 3b 86 bd 7d 84 1e 3e 90 83 f8 3d
       0.11777963 -0.065543756 0.15480228 0.121344686
0003d0 fc e1 28 3e 20 b5 27 3e dc 61 2e bd 28 1d 17 3c
       0.16492456 0.16377687 -0.042573795 0.00922326
0003e0 b1 36 74 bd e4 a8 1f be 61 03 95 bd 8a d2 b6 3d
       -0.05962247 -0.1559177 -0.07276035 0.08926876
0003f0 57 fa 2e 3d 96 64 33 bd 55 4d 46 3e 33 d0 24 bd
       0.04271921 -0.043797098 0.19365437 -0.040237617

lstm.weight_hh_l0 f4 [256, 64]
000000 fb f2 b3 3d 8c ef f4 3d dd ac e7 bd 7d 2a 61 b9
       0.08786579 0.119597524 -0.11312268 -0.000214735
000010 95 0e c3 bd 48 48 10 3c 08 68 fc bb 47 fc ca bc
       -0.09524266 0.008806296 -0.007702831 -0.024778498
000020 b2 ce 58 bd 66 d8 08 be 1c 6f b8 bc 5f a4 86 bd
       -0.052931495 -0.133638 -0.022513919 -0.0657432
000030 f4 6d f0 bd 83 f9 19 bd db d7 68 3d 97 39 be bd
       -0.11739722 -0.03759147 0.05684648 -0.09288328
000040 c1 89 03 3d a4 33 76 3d 07 ba 92 bd 65 fa 88 bc
       0.032113794 0.060107842 -0.07164388 -0.01672096
000050 ef 7f a3 bc 0a e4 58 3d 7b e9 0a 3d bc 7b 61 bd
       -0.019958464 0.05295185 0.03391407 -0.055049643
000060 d5 93 fb bc f0 21 b9 3d 14 3e 88 3d b5 f6 fe bc
       -0.03071014 0.09039676 0.066524655 -0.031123498
000070 9c 74 dd 3c f2 46 bb 3d 52 1f c2 bb 4c 25 00 3e
       0.027033143 0.09144391 -0.005924144 0.12514228
000080 6e 01 a6 b9 19 3d 2e 3d af 3d f7 3d fc 11 0b be
       -0.00031663053 0.042538736 0.12072312 -0.13581079
000090 47 bb e3 3d fd 86 4e 3d ea 97 d6 3d 67 e5 aa bc
       0.11119705 0.050421704 0.10478194 -0.02086134
0000a0 b5 6d 95 3d 72 25 bc bc db cf d5 3c d1 2f c1 3d
       0.072963156 -0.022967074 0.02610009 0.094329484
0000b0 bc 03 0c bd 6b bc 3b bd a4 33 7c 3c 97 2d 06 be
       -0.03418325 -0.045833986 0.015393171 -0.13103329
0000c0 bc ba 23 3d 9a f5 ae 3d d3 8f d5 bc 6e 2c 1e 3d
       0.039973006 0.085429385 -0.026069557 0.03861659
0000d0 cb af 60 bd 54 5a c1 bd e1 10 8f bd 15 ce 8b bd
       -0.05485515 -0.09441057 -0.06985641 -0.068264164
0000e0 f7 db db bd c3 46 4d 3d f5 8c b6 3d e0 94 7d 3d
       -0.10735314 0.05011631 0.08913604 0.061909556
0000f0 9e b1 91 3d f7 99 95 bc b7 c1 ac bd c6 a1 a4 3d
       0.07113956 -0.018261893 -0.08435386 0.08038668
000100 57 1f fb 3d 50 bd ad bd 81 9e f8 bc f6 51 73 3d
       0.12261837 -0.08483374 -0.030349018 0.059404336
000110 cf 09 40 bd af 01 a7 3b 86 ab c5 bd 36 7b 81 3d
       -0.046884354 0.0050966362 -0.09651856 0.06322329
000120 30 91 80 3d b4 af 49 bd 77 45 c4 bd 3b 20 43 bd
       0.06277692 -0.04923983 -0.09583562 -0.04763816
000130 b6 c2 a1 3d ed 0e f0 bd 5e c0 9b bd c6 21 2b bd
       0.07898466 -0.11721597 -0.076050505 -0.041780256
000140 8b f4 0d 3d 7c 15 90 3d 23 82 db bd 9e 3f 08 bc
       0.034657042 0.07035348 -0.10718181 -0.008315949
000150 33 6a a6 3d c1 8e 7c bd 0c 83 74 bc 0c b2 c2 3d
       0.08125725 -0.06165958 -0.014923822 0.09506616
000160 94 62 eb 3d 60 71 83 bd 0c b3 fa bc d5 74 0d 3d
       0.11493412 -0.06418109 -0.030602954 0.034535248
000170 6c c6 8e bd a8 67 1d bc f4 81 73 bd 50 a1 e7 bd
       -0.0697144 -0.009607233 -0.059450105 -0.11310065
000180 1d 7c d7 bc dd c6 12 bd 8e 71 ca bc 22 8d 8f 3c
       -0.026304299 -0.035834182 -0.02471235 0.017523352
000190 a0 b3 b3 3d 0d 8f 83 bd 74 06 4f 3d a3 80 2c 3d
       0.08774495 -0.06423769 0.050543264 0.042114865
0001a0 0e 8e 2b 3c bd c6 dd bd 78 84 59 bd 65 fc ae 3c
       0.01047088 -0.10828922 -0.053104848 0.021360585
0001b0 4b b8 3e be 6d b1 c6 bd 8e de f2 bc ae 15 91 bc
       -0.1862499 -0.0970181 -0.029647138 -0.017710533
0001c0 9a a8 f2 3d 92 06 5a 3d aa 28 c8 bc b1 5a c3 3d
       0.118485644 0.053228922 -0.024433453 0.095387824
0001d0 80 cc 9b 3d ee 7b 26 bd 0e 1b 89 3d a5 d0 99 bd
       0.07607365 -0.040645532 0.066946134 -0.07510499
0001e0 40 e0 a5 bd c0 7e b6 3d c9 d0 42 3c c8 00 04 be
       -0.08099413 0.089108944 0.011890599 -0.12890923
0001f0 f4 ee 72 bd 21 ff 05 be 3a 46 01 3b 88 6a ac 3d
       -0.059309915 -0.13085605 0.0019725696 0.08418757
000200 75 9e fa bd 91 d7 20 be 3a f5 9a bd 6b 09 4e bc
       -0.122372545 -0.15707232 -0.075663045 -0.012575488
000210 98 fd 41 be 89 c2 d0 3d 7a bb 9d 3c 4b 5a 97 bd
       -0.18944395 0.10193355 0.019254435 -0.07390269
000220 36 8f 09 bd bc 87 80 bc eb bb ad 3d 52 23 81 bd
       -0.033583842 -0.015689723 0.08483108 -0.06305565
000230 cf ef 12 3d 18 9c 19 3e a9 7a 00 bd b1 48 f4 3d
       0.03587323 0.15000951 -0.031366978 0.11927927
000240 bc a8 b6 3d 35 d3 80 bc 27 ce 2d 3e ec c4 19 3e
       0.08918902 -0.015725711 0.16973172 0.15016526
000250 49 ba 52 3d 0f 24 cd bd 7a 82 0b 3e f4 e4 9b 3d
       0.051447187 -0.10016643 0.13623992 0.07612029
000260 d0 4e d2 bd 5e b8 10 3e 83 ea 1e 3d a7 ba 75 bd
       -0.102689385 0.1413283 0.038797867 -0.05999246
000270 6a e3 bd 3c d8 45 ef 3c f3 94 4e 3e d4 7a 79 3d
       0.023179729 0.029208109 0.20174007 0.060908154
000280 cc 72 cc bc c4 fa 1f 3e d6 8f 08 bd 31 9e 55 bd
       -0.024957083 0.15623003 -0.033340298 -0.052152816
000290 42 18 55 bc c0 ea 14 3e f4 7b 2f be 24 69 e6 3d
       -0.013006272 0.14542675 -0.17137128 0.11250523
0002a0 97 36 e3 bd c5 23 73 bd ba c2 c8 bd 94 ab 00 bc
       -0.110943966 -0.059360284 -0.09802766 -0.007853407
0002b0 6a f5 3b 3e f9 d8 2b 3e b5 94 5a 3e 03 37 20 3c
       0.18355337 0.16781987 0.2134579 0.009778741
0002c0 64 5b 1d bd af 1d 8c 3c f1 31 8a bc 37 a6 66 bd
       -0.038417235 0.017103998 -0.016869517 -0.05631086
0002d0 24 28 a3 3d dd d0 bd bd 5d bd 56 3d cd 51 b9 bc
       0.079666406 -0.09268353 0.052426685 -0.022622013
0002e0 ff fa 93 3d fb 26 f4 bd 2c 54 4f be 00 04 10 3e
       0.07225608 -0.119214974 -0.20246953 0.14064026
0002f0 3a fd e5 3d 0e c8 4c 3d de 30 19 3d b4 89 d7 3c
       0.1122994 0.049995475 0.03740012 0.02631078
000300 b2 c3 61 3d 56 42 83 3d 09 30 60 3c 7b a5 af bd
       0.05511827 0.06409137 0.0136833275 -0.08576485
000310 b6 ca eb bd de 97 f2 3c de 93 b0 3c b0 96 ca bc
       -0.115132734 0.029613432 0.021554884 -0.024730057
000320 ec d5 9b bd 91 37 a9 bd d1 4c 71 bd ca fa 13 bb
       -0.07609162 -0.082625516 -0.05891115 -0.0022579902
000330 09 9a eb 3c a3 f0 18 bd 48 f9 cc 3c c1 f2 26 bc
       0.028759973 -0.037338864 0.02502121 -0.010189713
000340 76 68 a4 bd 77 0c 89 bd 79 8c 8e 3d 5f d4 b6 bc
       -0.08027737 -0.066918306 0.06960387 -0.022318063
000350 0f 4b 95 bd 75 11 f4 3c 7f 59 7d 3d 19 6d 32 3c
       -0.07289707 0.02979348 0.06185293 0.010890269
000360 15 29 7c bc 9d 24 cf bb e9 5e 75 3d 93 be ac 3c
       -0.015390654 -0.0063215033 0.059904967 0.021086967
000370 db 86 1a be 65 e2 67 3d ce 84 93 bd b7 bc e2 bc
       -0.15090506 0.05661239 -0.07203065 -0.027677877
000380 7e 1b a8 bc ed d3 5c bc c1 5f 94 bd fd 89 a9 bd
       -0.020520922 -0.013478261 -0.07244826 -0.08278272
000390 ae fc 0b 3d cd ec bf bd cb 32 6a bd 31 02 3f 3b
       0.03417652 -0.09371338 -0.057177346 0.0029145593
0003a0 c4 92 ed bb 35 8d 9e bd ad 03 51 3d 57 82 e8 3c
       -0.007250162 -0.07741777 0.051028896 0.028382463
0003b0 c3 d3 7c bd 5b 8c 4b bd ca a7 28 3d 4c 80 89 bd
       -0.06172539 -0.0496944 0.04117564 -0.06713924
0003c0 15 a6 5e 3a 5e db 38 bd 06 d8 d7 3d 63 74 9b 3d
       0.0008493376 -0.04513108 0.1053925 0.075905584
0003d0 e7 2a c2 3d ab 07 8f bd 6e f6 c7 bc 83 34 2e 3d
       0.09480839 -0.069838844 -0.024409499 0.042530548
0003e0 67 67 54 bd 07 13 53 bd f8 71 48 bc 74 41 89 bd
       -0.051856425 -0.051531818 -0.0122342035 -0.06701937
0003f0 7a 8f 54 bc 32 fa 03 be 6d fe d3 3d 9a df 35 bd
       -0.012973661 -0.1288841 0.10351262 -0.044402696

lstm.bias_ih_l0 f4 [256]
000000 d4 66 eb bc 67 dc 92 bb a8 ca 38 3e f6 31 37 bd
       -0.028735556 -0.0044818404 0.18046057 -0.04472538
000010 d9 36 84 3c da 27 e9 3d 21 c7 e6 3d aa f9 06 bd
       0.016139435 0.11384554 0.112684496 -0.032952942
000020 27 11 ee 3d cb b4 e3 bd de 1c b1 bd b7 4b ca bd
       0.11624365 -0.11118468 -0.08648084 -0.09877723
000030 1e c6 ec bd 94 dd c5 3d 0b 8b a6 3d 14 84 cc bc
       -0.11561225 0.09661403 0.08131989 -0.024965324
000040 7c 1c 85 bd 72 84 8b bd 7e 57 9b bd f0 80 a4 3d
       -0.064995736 -0.06812371 -0.07585047 0.080324054
000050 5d 11 a2 bb 9a 5b 9f 3e a8 9b 5f 3e b6 1e 7a 3c
       -0.0049459175 0.31124574 0.21836722 0.015266111
000060 03 f0 26 3b 6f 4b dd bd 03 40 94 3d eb a0 df 3b
       0.0025472648 -0.108054034 0.07238772 0.006824603
000070 8d a9 b0 3d 6d 8d 74 3d 73 37 c3 3d 95 7a f1 bd
       0.08626089 0.059705187 0.095320605 -0.11790959
000080 ed 28 d7 bd 5b 02 a9 bd 30 57 cc 3d 72 2f ad bd
       -0.10505853 -0.082524024 0.09977567 -0.08456315
000090 1d 7d 63 3d 40 44 48 3d 5a a4 bb bd ab 38 96 3d
       0.05553924 0.048893213 -0.09162207 0.07335027
0000a0 d0 92 b5 bd ba a2 0d 3c c1 b6 ed bd b2 c1 b2 bd
       -0.08865893 0.008644754 -0.11607123 -0.08728351
0000b0 88 6d c2 3d 70 7f 37 3d 7a c0 3a 3d 68 f4 fd 3d
       0.09493548 0.04479927 0.045593716 0.124001324
0000c0 49 78 6c bd 0c 0e b0 3d 0e 4a 76 bd a9 55 d4 3d
       -0.0577319 0.08596429 -0.060129218 0.10367901
0000d0 8f e9 93 3b e8 0f 75 bb df 3b ed bc 34 8d 97 bd
       0.0045139263 -0.0037393514 -0.028959213 -0.07399979
0000e0 34 c7 d9 3d 93 ff f4 3d 96 5c a4 3b 32 aa d2 3a
       0.10633698 0.119628094 0.00501592 0.0016072451
0000f0 98 e4 14 3c 12 ab be bb 73 db c0 bd 6f b1 20 3e
       0.009087704 -0.005818733 -0.094168566 0.15692686
000100 30 51 81 3c ea 39 b1 bd 44 8f 78 bd 3b 56 c6 3d
       0.015785784 -0.08653624 -0.060683504 0.09684416
000110 34 39 f1 bd 05 f8 0d bd 38 a5 59 bc d1 30 94 3c
       -0.11778489 -0.034660358 -0.01328402 0.018089684
000120 f9 7d 26 3b 93 fe 8e bd 1c c2 3d bd f3 f1 ec bd
       0.0025404675 -0.0698215 -0.046327695 -0.11569586
000130 b2 81 6a 3c 0f 02 a0 bd 7c d3 4a 3d 16 ec bf bd
       0.014313148 -0.07812893 0.049518093 -0.09371202
000140 ea be 9f bd 7f 96 d7 3c 11 03 0e be de 06 3f bc
       -0.07800086 0.02631688 -0.13868357 -0.011659352
000150 12 e0 0c 3d c7 6c 31 3e 59 64 3e 3d 81 f4 54 3d
       0.034393378 0.17326652 0.046482418 0.05199099
000160 a4 a4 06 bd 34 a8 ba 3d 6c 79 0f 3e bf 6b cf 3d
       -0.032871857 0.091141135 0.14011163 0.10127973
000170 1d 22 f2 bd 4a e1 84 3d 65 c0 88 3d 6b 96 df 3c
       -0.11822913 0.06488283 0.06677321 0.027293405
000180 19 58 bc bd 48 06 a2 bd 54 05 bb bd 18 e2 aa bd
       -0.09196491 -0.07911354 -0.09131876 -0.08343905
000190 b4 4c 24 bd c8 d3 db bd 7d 1a 19 3d d3 2b e0 bd
       -0.040112212 -0.107337534 0.037378777 -0.10945859
0001a0 01 de 91 3b 38 1e 05 bc 8a 47 dd 3d 25 5d bb bd
       0.0044515138 -0.0081248805 0.108046606 -0.09148625
0001b0 65 d7 02 3e 20 9f 9f 3d c8 a3 dc bd 92 27 14 3e
       0.12777479 0.077940226 -0.10773426 0.1446822
0001c0 1a ec c4 3d e3 11 50 3d 05 da 26 bc 05 51 72 bd
       0.09615345 0.050798308 -0.010183816 -0.059159297
0001d0 5f f5 dd bc 24 4a 17 3d e0 4f 14 3d 9c 24 82 bd
       -0.027094541 0.03693594 0.036208987 -0.06354639
0001e0 96 64 ff bd fb 3a 81 bd b0 27 55 3d 16 e1 eb 3d
       -0.12470357 -0.06310078 0.052039802 0.11517541
0001f0 de af 82 3d a8 99 d3 bd 85 8d a6 3d 7a a7 ef 3d
       0.063812 -0.10332042 0.081324615 0.117018655
000200 04 4c 03 bd 49 3d 17 bd 2d fb b0 bd ac ee b4 bd
       -0.032054916 -0.03692368 -0.08641658 -0.088345855
000210 bd c7 e9 bd aa 28 bd bd 8b d9 08 3d 53 4d 8b bd
       -0.1141505 -0.09236272 0.03341059 -0.06801858
000220 8e b6 f2 bd 89 ae e4 bd 6e c7 51 bd 75 d1 be bd
       -0.11851226 -0.111661024 -0.05121558 -0.093172945
000230 a7 98 ab ba 1d 29 84 3d 6d 60 be bd b2 35 30 3d
       -0.0013091759 0.06453154 -0.092957355 0.043019958
000240 45 13 c9 3d 4e 0b 9c bd 9b e9 b8 3c 97 f3 87 3d
       0.098181285 -0.07619344 0.02257233 0.06638258
000250 e1 04 4d bb 2a a6 8a 3d e3 00 61 bd 51 48 1d 3d
       -0.0031283426 0.067699745 -0.054932486 0.038399044
000260 f0 3c f7 bd 4f c0 a4 3d aa 4f f6 3d d1 91 8f 3b
       -0.1207217 0.080444925 0.120269135 0.0043813963
000270 a8 b3 e9 3d 5a e9 78 bd ec 8c cc 3d 93 ad cd 3d
       0.1141122 -0.060769416 0.09987816 0.10042872
000280 56 29 80 3d 2c 0e a3 3d 5b 41 c2 bd e0 01 6b 3c
       0.06257884 0.079616874 -0.09485122 0.014343709
000290 7e 91 f4 3c ef d5 8a 3d 72 9a 17 bd 32 f1 ad bd
       0.029854532 0.06779086 -0.037012525 -0.0849327
0002a0 e6 67 68 3c 68 8d 60 3d 91 18 b8 3d 90 3d 17 3d
       0.014184928 0.054822356 0.08989061 0.036923945
0002b0 b4 8e 8b 3d 4f 68 b9 3d 51 68 01 3d a3 80 f4 3d
       0.06814328 0.090530984 0.031593625 0.11938598
0002c0 3a ff fb bb d8 62 d6 bd f8 fb ee bd dd 58 5d bd
       -0.0076903375 -0.10468072 -0.11669153 -0.054039825
0002d0 9f f2 d2 3d 35 8b e4 bd a8 25 3f 3d a3 38 0f 3c
       0.103001826 -0.11159364 0.04666677 0.008741531
0002e0 dc 4d 72 bc 57 78 e5 bd 76 b4 82 bc 4c fb d5 3d
       -0.014789071 -0.11204594 -0.015955191 0.10448322
0002f0 15 1f 13 3d 59 17 dd 3d ec 7b d9 bd a2 be 6f bd
       0.035918314 0.10795469 -0.10619339 -0.05853141
000300 22 28 c8 bc 59 26 a9 3d 7e e1 fc 3d eb 02 d7 3c
       -0.0244332 0.08259267 0.12347697 0.026246509
000310 fb c7 36 3c 43 10 c4 bc a6 30 86 3d 2d 5c d2 3d
       0.0111560775 -0.023933535 0.06552248 0.102714874
000320 8c ea cd bd 5b 35 c6 bd 60 b4 df bb 6f 1e 9c 3d
       -0.10054502 -0.096781455 -0.0068269223 0.07622992
000330 43 20 f0 bd 4e 45 f3 3c a9 5d e0 3d 1e c0 9d bd
       -0.117249034 0.029696133 0.10955364 -0.07702659
000340 26 28 d6 bd ed cd fc bd 7f b9 87 3d b1 6b c4 bd
       -0.104568765 -0.12343965 0.066271774 -0.09590853
000350 69 10 08 3c 3f 38 43 3e b8 46 00 3e 28 03 f1 bc
       0.008304694 0.19064425 0.12526977 -0.02942045
000360 cb fe b0 bc ff 73 a1 3d 94 79 d9 3c 97 48 da bb
       -0.02160587 0.078834526 0.02654723 -0.0066614854
000370 b1 bc f1 3b 16 24 36 3d 5e 53 8e bd 61 69 b4 bd
       0.00737723 0.044468008 -0.06949495 -0.08809162
000380 4f fe 55 bd 61 6e a7 bc a6 e5 af 3d 6e 94 c1 3d
       -0.05224448 -0.020438375 0.08588724 0.09452139
000390 21 7d 1f 3e 37 0f b3 3d cc 59 7c bc ed b8 c3 3d
       0.15575077 0.087431364 -0.015402269 0.09556756
0003a0 20 46 a2 bc 21 f9 ed 3d 4f 41 4b 3b cf 75 f6 bd
       -0.019808829 0.11619783 0.0031014269 -0.12034189
0003b0 17 46 46 3e 72 d4 3a 3d 97 e1 ab bc ea 29 cf 3d
       0.19362675 0.04561276 -0.020981593 0.10115416
0003c0 da a0 e3 bd 1b 87 81 bc 4a b4 92 3d 71 06 dd bc
       -0.111146644 -0.015811494 0.07163294 -0.02698061
0003d0 ef 8c c0 3d 0c 0d a8 bd 3e 59 ff 3c 6c f9 90 bd
       0.09401881 -0.082056135 0.031170484 -0.070788234
0003e0 92 4e 2e bd 03 36 6e 3d 90 e6 ec bd af 0d 57 bd
       -0.0425554 0.05815698 -0.11567414 -0.052503284
0003f0 fc 83 38 3e 3b 9c 6f 3d e4 aa ab bd 13 c3 fc 3d
       0.18019098 0.058498602 -0.08382204 0.12341895

lstm.bias_hh_l0 f4 [256]
000000 9b a2 88 bd 1d 09 53 3d 94 bb 31 3e a9 55 16 3d
       -0.066716395 0.051522363 0.17356712 0.036702786
000010 1b 12 0a 3d e2 ff 10 3d f5 c9 bb 3d d7 24 e1 3c
       0.033708673 0.03540028 0.091693796 0.027483387
000020 d5 fc 2d bd b6 18 44 3c 9c da e9 3d 71 a1 ae bb
       -0.042477448 0.011968782 0.114186496 -0.005329304
000030 8c 6e 39 bd d9 44 52 bb b7 b1 a7 3d 3a 75 3a bd
       -0.04527144 -0.0032084493 0.08188193 -0.045521952
000040 45 c3 f1 3c e3 28 5b bd 68 c0 5f bd 9b 93 21 3a
       0.029512057 -0.05350579 -0.054626852 0.00061636575
000050 4d 12 60 3d eb b9 34 3e a5 12 86 3e b3 45 3b 3e
       0.054704953 0.17649047 0.261861 0.18288307
000060 b5 ca 45 3e df 6e 88 3d 0b 4e 83 3e 85 8a b4 3d
       0.19315608 0.06661772 0.2564548 0.08815483
000070 9b d2 ce bd d6 b4 1c 3e af 65 e2 3d 8a 9b 17 3d
       -0.100987636 0.15303358 0.11054551 0.037013568
000080 5b 06 d0 3d 01 44 cb 3d aa 5a eb 3d 81 82 85 3c
       0.10157462 0.0992508 0.11491902 0.01629758
000090 c0 a2 a8 bd 35 ce cd 3c 30 11 0b 3d 3e a5 e7 bc
       -0.08234167 0.025122741 0.03395194 -0.028277036
0000a0 1c c8 7b bd 9b a3 cc 3d fb 73 61 bd 34 e0 06 bd
       -0.061470136 0.09992143 -0.05504225 -0.03292866
0000b0 79 e7 30 bd 20 35 38 3e 56 40 48 3d e3 13 b3 3c
       -0.0431895 0.17989016 0.04888948 0.021860069
0000c0 97 a9 4d 3d a1 00 22 3b e0 19 1f bc ad 62 00 3e
       0.05021056 0.0024719613 -0.009710759 0.12537642
0000d0 b2 b0 e1 3d 51 19 aa bd c1 1c 8d bd 3d 94 1a 3d
       0.1102003 -0.0830561 -0.0689025 0.037739027
0000e0 e9 ed 17 bd 0d d7 22 bc 46 a3 9c bd a9 a6 95 3c
       -0.037092123 -0.009938967 -0.076483294 0.018267946
0000f0 9e 05 31 3e 9a cc b3 3d 37 58 4b 3c b3 6d 12 3d
       0.17287299 0.08779259 0.012411169 0.03574915
000100 42 7f ce 3d 2d 7a a7 bd ce 14 06 3e 7d 56 c9 bd
       0.10082866 -0.081776 0.13093874 -0.098309495
000110 a5 4e 98 3c 23 69 2c 3d ce cd a3 bc 5d d0 81 3d
       0.018592188 0.042092454 -0.019995596 0.0633857
000120 79 e9 a6 3d 6c 9d 8e bd aa 6c 2b 3d 8c 5b c1 bb
       0.0815 -0.069636196 0.041851677 -0.005900806
000130 ef 9b 89 bd 22 74 16 3b cd 11 e4 bc ea 26 cf bb
       -0.06719195 0.0022957404 -0.02784052 -0.0063217776
000140 7c c3 30 3d fa e8 ea bc 6a c0 0f 3d a2 51 c3 bd
       0.04315518 -0.028675545 0.03509561 -0.095370546
000150 57 be e2 bd 1e 94 78 ba 8f b5 f6 3d 9e 19 19 bd
       -0.11071461 -0.00094825204 0.12046348 -0.037377946
000160 88 bf 5b bd d3 a2 e1 3d 6d 31 35 3d a1 21 d1 3d
       -0.053649455 0.110173844 0.04423659 0.10211492
000170 4d 9c ff bd 3a 66 e9 bb eb f3 dd 3c a4 e5 66 bc
       -0.12480984 -0.007122782 0.027093848 -0.0140928365
000180 fc 7f 43 3c 15 14 a1 bd 5a 30 a4 bc c5 58 b6 3c
       0.011932369 -0.078651585 -0.020042587 0.022259125
000190 13 aa 1f bd 47 ea fe 3c 51 6b 9f bd b9 47 a2 bd
       -0.038980555 0.031117572 -0.07784141 -0.07923836
0001a0 1a e7 8b 3b 1b 02 4a bd fb 98 97 bd cf c7 e0 bd
       0.004269493 -0.049318414 -0.074022256 -0.109756105
0001b0 2c ca d2 3d 65 de 56 bd 56 b6 27 bd 5c ce 9f 3a
       0.102924675 -0.052458186 -0.040945373 0.0012192237
0001c0 c8 7e a4 bd d0 a6 cf 3c d1 e2 c6 3d cf 64 94 bd
       -0.08031994 0.025348097 0.097112305 -0.0724579
0001d0 f4 4e bd 3b ed d3 d5 bb 0f f4 eb bd 88 4d 05 3e
       0.005777234 -0.0065255077 -0.1152116 0.13017857
0001e0 22 f1 2d bd 71 5e a4 3d 02 06 a5 bd 5c 0e 73 3d
       -0.04246629 0.08025826 -0.080577865 0.059339866
0001f0 d6 69 0e 3d 50 5d f5 bd a7 8e fe 3d f6 9f a5 3d
       0.0347689 -0.119806886 0.124295525 0.08087151
000200 7c 0a 63 3d 49 de 8f bd 2e f3 3b bb ab a1 6f 3d
       0.05542992 -0.070248194 -0.0028678882 0.058503788
000210 0d 4e 4e 3c 77 e1 00 3e 81 d9 7c bd e3 17 a2 bd
       0.012591851 0.12586008 -0.061730865 -0.07914712
000220 b9 bb 30 bd 33 73 91 bd a1 b6 fb 3d 39 e3 a8 3d
       -0.043147776 -0.07102051 0.12290693 0.08246464
000230 7a ec 8e bb 78 7c d8 3d 14 f9 19 3d 14 b6 99 3d
       -0.0043616863 0.105706155 0.037591055 0.07505432
000240 5c 90 a7 3d ca ca ad bc 5a 17 a3 3b db da 24 bd
       0.08181831 -0.021214861 0.004977149 -0.04024778
000250 13 e9 9b bd 2a af ad bd 61 28 e9 3d 8d c1 5b 3d
       -0.07612815 -0.084806755 0.11384655 0.05365138
000260 b4 dd 9b bb 21 77 65 3d 63 91 23 3c 1a 3f f5 39
       -0.0047566537 0.056021813 0.009983393 0.00046777056
000270 c6 e6 92 bd 42 be 0c 3e 55 90 c5 bb 9c af 95 bd
       -0.07172923 0.13744453 -0.0060291686 -0.073088855
000280 13 00 40 3d 36 33 d9 3d c9 cb bf 3d 64 97 7a bd
       0.04687507 0.10605471 0.09365041 -0.061179534
000290 f9 5f 80 3c 3a b4 47 3d d0 e4 da bd 9e 69 c5 3d
       0.015670763 0.04875586 -0.10688174 0.096392855
0002a0 70 29 66 bd ac c6 c1 bd 39 6d b5 bd eb 79 64 3d
       -0.05619186 -0.09461722 -0.08858723 0.055780333
0002b0 a6 ab 0e 3c 24 99 9f bd 58 42 4e 3d 2f 9b 8d bd
       0.008707916 -0.07792881 0.05035624 -0.069143645
0002c0 98 d2 64 3d e9 e1 85 3c 0e ab e3 3d 65 f2 35 3d
       0.0558649 0.016343074 0.111166105 0.04442062
0002d0 ef c1 5e bd 5b 29 fd 3d 4d 1c e0 3c 4f de 4f 3c
       -0.05438417 0.123614036 0.027357245 0.01268728
0002e0 ff 0f 80 bb 77 9b 2f bb 43 3c f0 bd bb 07 38 bd
       -0.003908157 -0.0026795545 -0.11730244 -0.044929247
0002f0 9c 14 17 3d 30 88 85 3d 60 32 ce 3d 11 92 9c 3c
       0.03688489 0.06520116 0.10068202 0.019112619
000300 67 26 fa 3d 3e 15 00 3d b9 aa 1c 3e 27 6e 1e bd
       0.12214356 0.031270258 0.152995 -0.03867927
000310 a9 76 3d 3e 4f 7d cb 3d fa 4f 71 bd c0 a5 03 3c
       0.18502297 0.0993601 -0.058914162 0.008035123
000320 56 05 cb bd db ae aa 3d 6d 8b 06 3d f2 e9 13 bd
       -0.09913127 0.08334132 0.03284781 -0.03611178
000330 d5 ac a0 3d a3 2a ee 3c 86 5b 37 3c c7 f5 8d bc
       0.07845465 0.029073065 0.0111912545 -0.01732911
000340 a8 27 0e 3d 3b 70 aa bd 63 f0 83 3d fd 85 ed 3d
       0.034705788 -0.083221875 0.064423345 0.11597822
000350 4c 95 cc 3c f4 50 23 3e 08 c8 60 3e ae 82 2d 3e
       0.024973534 0.1594885 0.21951306 0.16944382
000360 e4 fd 0d 3e db c4 a8 3d bd 21 57 3e ef ef d3 bc
       0.13866383 0.08240672 0.21008964 -0.025871245
000370 f6 a2 62 bc 16 14 0f 3e e3 a2 72 bd 1b 77 b3 3d
       -0.013832798 0.13972506 -0.059237372 0.08762952
000380 7e 9b 3e bb a0 be b0 3c e5 31 af 3d b3 cc e4 bd
       -0.002908438 0.021575272 0.085544385 -0.11171856
000390 54 a1 21 3e 6e 12 f0 bc 5f ed 33 3d f0 1d ed bc
       0.15784198 -0.029305663 0.043927547 -0.02894494
0003a0 75 1c fe 3d 45 3e d2 3d 18 cc d8 3d 9d 0e fb bd
       0.124077715 0.10265783 0.10585803 -0.12258647
0003b0 da a9 0c 3c a3 87 0f 3e 78 d4 e3 bd 7f 95 78 3e
       0.008585418 0.14016585 -0.111245096 0.24275778
0003c0 69 57 c1 3b 91 9e 8f 3d 7b 61 74 bd 19 7f f8 3d
       0.0059003127 0.07012666 -0.059663277 0.12133617
0003d0 c0 c0 9d 3c 90 ce d2 3d b5 f2 95 3a e6 fc 6a 3d
       0.01925695 0.10293305 0.001144013 0.05737009
0003e0 15 e3 7a 3d c3 36 30 bd 4a a0 ed bd 2f c0 dd bd
       0.06125172 -0.043020975 -0.11602838 -0.10827672
0003f0 33 67 4e 3e 6d e0 71 3d 63 c2 74 bd 9b ff 93 bd
       0.20156555 0.05905192 -0.059755694 -0.07226487

lstm.weight_ih_l1 f4 [256, 64]
000000 2d f5 c7 bd 7d 8e 70 3d 9f e4 eb 3d 5a e8 81 3d
       -0.097635604 0.058729637 0.115182154 0.06343146
000010 2a 13 af bc 84 f0 30 bd 01 e2 57 3b 0c 1e f9 3d
       -0.021371443 -0.043198124 0.0032941105 0.12163934
000020 6b 2e 62 bd d7 66 ca bc 56 15 0c 3d d2 70 c0 bc
       -0.05522005 -0.024707241 0.034200035 -0.023491297
000030 40 4f 3d bc d1 d4 7f 3d 69 a3 c5 bc 81 46 df bd
       -0.011554539 0.062458817 -0.024125772 -0.109021194
000040 a3 28 26 3d 3c 33 c1 bd 6f 34 42 3d 3e 97 4f 3d
       0.040566098 -0.094336 0.047413286 0.050681345
000050 2a ea e5 bd ba 0a 9a bc c9 9d 3e bd 31 31 9c bd
       -0.11226304 -0.018803943 -0.046537194 -0.0762657
000060 c3 6b b3 bd a0 06 a2 bc 1a eb ce bd 1c e9 8e 3d
       -0.08760788 -0.01977855 -0.10103436 0.06978056
000070 1f a8 a0 bc 7c e1 c7 3c f0 a9 a6 bc ea 4e c9 3c
       -0.019611416 0.024399512 -0.020344704 0.024573762
000080 0b cb e4 3d 5a 2c 6e bd 79 5f be bb a6 62 b5 bb
       0.1117154 -0.058147766 -0.005809721 -0.0055354415
000090 4a 69 d0 3d 30 75 6d 3d 8b 9b 0d 3e be 20 94 bd
       0.10176332 0.057973087 0.13828866 -0.072328076
0000a0 b9 25 6d 3d 02 17 ba 3d 98 a0 e7 3c eb 3b 18 3d
       0.057897303 0.0908642 0.02827482 0.037166517
0000b0 ea ec 4b 3c 49 0d 9d 3c a7 21 1b bd fd 7c 1e bd
       0.012446621 0.019171374 -0.03787389 -0.038693417
0000c0 47 10 ab bd 0b a4 c2 bc c6 4d 0a 3d c3 65 f0 3b
       -0.08352714 -0.023759862 0.033765577 0.0073363497
0000d0 65 42 01 be 44 d4 e0 bd ea 71 5d 3d e7 33 46 3d
       -0.12622984 -0.109779865 0.054063715 0.04838934
0000e0 71 c8 b1 3c 81 3e 1b 3d a1 1e b6 bd 75 d3 ed bc
       0.021702023 0.037901405 -0.08892561 -0.029031495
0000f0 de 63 87 bc f7 08 09 be 17 22 ac 3d 82 fc 6f bd
       -0.016527113 -0.13382326 0.084049396 -0.05859042
000100 42 00 5d 3d b4 35 1f 3d ac aa e6 bc 35 16 d9 3d
       0.053955324 0.038869575 -0.028157555 0.10599939
000110 4f 67 0b 3d 45 02 a5 3c 91 1c 07 be e7 6c c7 3d
       0.03403407 0.020142684 -0.13194491 0.09737568
000120 98 58 95 bd d5 03 48 3d d4 68 60 3d ec 44 a5 3d
       -0.072922885 0.04883178 0.054787472 0.080697864
000130 18 c2 03 3e 5c 40 c0 bd fc 76 81 3d 4e 7b cd 3c
       0.1286701 -0.093872756 0.063215226 0.02508321
000140 55 c8 00 3c fe 7e de bd 05 11 ce 3c 6d 59 f0 3d
       0.007860263 -0.108640656 0.0251546 0.117358066
000150 17 3b 99 3c e4 2c b2 3c 82 15 ae 3d 36 25 a9 bd
       0.018704934 0.021749921 0.08500196 -0.082590505
000160 05 c1 ef 3d 05 d6 88 3c 3d 89 1d be f2 89 e5 3d
       0.117067374 0.016703615 -0.15384383 0.112079516
000170 a1 3d 01 3c c3 c5 ed bc 8e d1 be 3d 88 2a 9b bd
       0.007888229 -0.029024964 0.09317313 -0.075764716
000180 af 7e ae bd e6 6f 84 bd a0 cc d6 3d e4 82 ec 3d
       -0.08520257 -0.064666554 0.10488248 0.11548403
000190 79 60 0c be b0 ca 0e 3d ba 9e d7 39 91 47 ac bd
       -0.13708676 0.034861267 0.00041126256 -0.08412088
0001a0 e5 f5 0a bd 87 b5 cc ba 88 91 3e bc 99 a2 08 3c
       -0.03392591 -0.0015618064 -0.011631377 0.008339548
0001b0 50 52 3e be f9 54 18 be 14 87 df bd db 53 f1 bc
       -0.18586087 -0.14876164 -0.10914436 -0.02945893
0001c0 6a e4 65 bb 02 eb 85 3d e2 7e 09 3e ab 45 b5 bb
       -0.0035078772 0.06538965 0.13427308 -0.0055319867
0001d0 78 07 bf 3b a3 ae fe bd 7d 34 21 bd 25 11 d2 3d
       0.0058297478 -0.12435653 -0.039356697 0.10257176
0001e0 74 e6 be 3d 0e 8a d2 bd c2 f3 55 3d e3 94 87 bd
       0.09321299 -0.10280238 0.05223442 -0.06620195
0001f0 c5 73 0d be a1 37 8b bd 7d 7e 8a bd d5 df c2 bd
       -0.13813694 -0.0679772 -0.06762407 -0.09515349
000200 c5 8e 82 bd 55 57 bd 3c f2 38 e8 bb 06 ca 89 bb
       -0.063748874 0.023112932 -0.0070868665 -0.0042049913
000210 96 8a 03 3e 94 45 02 3d 68 45 cf bc 23 88 a7 bc
       0.12845835 0.031804636 -0.02530165 -0.020450657
000220 d8 44 4d bb fd d3 99 3b 81 ec 7d 3d 02 be e6 3d
       -0.0031321552 0.0046944604 0.061993126 0.1126671
000230 92 7f fe 3d f0 a3 ee 3d d3 f6 3d bd 17 8a 9b 3d
       0.12426676 0.11652362 -0.046377968 0.07594698
000240 aa 2c f1 3d 90 66 11 bd cc 38 e2 3c bb ef 25 bc
       0.11776097 -0.0354982 0.027614973 -0.010127957
000250 4b ac c1 3c 90 76 b3 3d 5b c0 10 be 8c e1 c2 bd
       0.023641726 0.087628484 -0.14135878 -0.09515676
000260 de 52 90 3d 1a 9a 1c bd 33 89 49 bd c5 16 f9 3c
       0.07047056 -0.0382329 -0.04920311 0.030406365
000270 47 bb 63 bd 60 62 ab 3d db 79 86 bd c2 dc c7 bd
       -0.055598523 0.08368373 -0.06566211 -0.09758903
000280 0e d2 bd 3d d5 01 81 3d b1 7a 3e bd ca 82 76 3b
       0.092685804 0.062991776 -0.046503726 0.0037614577
000290 1e 4b 80 bd b2 05 fa bc 29 61 f0 3d b7 03 01 be
       -0.062643275 -0.030520294 0.11737282 -0.12599073
0002a0 02 bf 48 bd ea a9 32 3b 2a 6b 03 3e 3c c8 fe 3c
       -0.049010284 0.0027261921 0.12833849 0.031101339
0002b0 bb 60 09 be bd bb d6 bd f7 2b 93 3d 80 9e 11 be
       -0.13415806 -0.10485027 0.0718612 -0.14220619
0002c0 1b af 00 bd 9d 7c 77 3d a2 3d 5f bd a2 cc d3 3d
       -0.031416994 0.060421575 -0.054502137 0.10341765
0002d0 6b 1e 94 3d 92 66 8b bd 7d d4 fd bc fb 78 4f 3d
       0.07232364 -0.06806673 -0.030985111 0.050652485
0002e0 67 af a8 bd eb f9 b7 bd 2a 6a 0f 3d 42 0d 33 bb
       -0.0823658 -0.08983215 0.035013355 -0.0027321135
0002f0 e5 95 9b 3d 44 c6 cd bd 05 e4 ce bc b7 ca 47 3d
       0.075969495 -0.10047582 -0.025255213 0.04877731
000300 2d a7 8f 3d 91 78 ff 3d fb 10 b1 bd c4 a1 e8 bd
       0.07014308 0.12474168 -0.08645817 -0.11358979
000310 90 95 aa bc 67 9d 32 bd 13 9f 4a 3c 92 d9 86 bc
       -0.02082327 -0.04360714 0.012367028 -0.016461167
000320 08 82 a5 bd 4c 01 4c bd d0 31 20 bd fc c1 b2 3d
       -0.08081442 -0.049805924 -0.039110005 0.08728406
000330 38 c1 79 bd 9b 9a c7 bd 80 e0 dd 3d 50 70 f1 bd
       -0.060975283 -0.097462855 0.108338356 -0.11789
000340 92 4d 9e bd 7b 0f 34 bd 17 0a a6 3d 1c c3 8e bd
       -0.07729639 -0.043960076 0.08107393 -0.06970808
000350 12 bd 8f 3c d0 90 f1 bd c9 bd 9d bd e1 c0 d0 bd
       0.01754621 -0.11795199 -0.07702214 -0.10193039
000360 9a 6c ff bd 56 97 5e 3c 6f b6 a7 3d ab 00 0f 3d
       -0.12471886 0.013585886 0.08189093 0.034912746
000370 2e b6 ae 3d 98 28 94 3d d2 1b 11 bc 0d af 92 bc
       0.08530842 0.07234305 -0.008856731 -0.017905736
000380 50 ab 59 bd 60 a0 58 3d b9 16 d0 bc ba 9f 32 3d
       -0.053141892 0.05288732 -0.02540146 0.04360936
000390 84 b5 39 bd 38 5c ad bd a8 ea a2 bd 70 70 aa 3c
       -0.045339122 -0.08464855 -0.079549134 0.020805568
0003a0 41 fa b0 3d fd f7 c1 3c c1 59 e0 bd b2 40 03 be
       0.08641482 0.02367782 -0.10954619 -0.12817648
0003b0 2c 35 d8 bd 30 69 04 be 2d f4 64 3c 88 55 96 bd
       -0.10557017 -0.12930751 0.013974232 -0.073405325
0003c0 65 d4 b4 bd e0 47 80 3d ec f8 95 3c ff fc 1b 3d
       -0.088295735 0.06263709 0.018307172 0.038083073
0003d0 3d 36 d3 3d f2 c5 ff 3d f9 e0 ed bc 41 b7 5e 3d
       0.103130795 0.12488927 -0.02903794 0.054373983
0003e0 6d 0e c3 bc d4 ae a5 3d d0 21 ab bd db f2 8e 3d
       -0.02381059 0.080899864 -0.083560586 0.06979915
0003f0 56 12 72 3c 37 04 c1 bd 69 1f b2 bd dd dc 62 bd
       0.014774879 -0.09424632 -0.08697397 -0.055386413

lstm.weight_hh_l1 f4 [256, 64]
000000 ef 97 c8 3d 99 d7 24 3d 92 e3 d8 3d 00 f8 35 bc
       0.09794604 0.040244672 0.105902806 -0.011106491
000010 35 a6 02 bd d7 18 7c 3d a3 1a a1 3d f9 f6 cb 3d
       -0.03189679 0.061547127 0.07866409 0.09959216
000020 fc 5f d8 3d b4 61 99 3d e2 f7 97 3d cc 0a 0e 3e
       0.105651826 0.074893385 0.07420327 0.13871306
000030 01 19 5a 3d 3d 08 3d 3c 69 80 84 3d 33 7c c4 3d
       0.0532465 0.011537609 0.06469805 0.095940016
000040 25 d0 51 3d 70 a4 bc 3d b6 30 51 3d 08 dd 02 be
       0.051223893 0.092110515 0.051071845 -0.12779629
000050 ce e0 b8 3d 4d a4 40 bc 64 36 f2 bd 57 f4 32 3d
       0.09027253 -0.011757922 -0.118267804 0.043690052
000060 63 55 82 3d 02 bf 82 3d 79 6d d4 3d e2 be a7 3d
       0.063639425 0.06384088 0.10372443 0.08190705
000070 cc 3c aa 3d 40 2e c8 bd be 60 3f 3b e6 46 fe bd
       0.08312377 -0.097744465 0.002920195 -0.124158666
000080 a7 cc b3 3d 14 a4 c3 3c 38 e6 23 3d c6 42 b7 3d
       0.08779269 0.02388195 0.040014476 0.08948283
000090 d6 a1 25 3d 7c 2e a4 3c 86 c7 04 be 06 13 c4 ba
       0.040437542 0.020041697 -0.12966737 -0.0014959283
0000a0 0a a5 01 3d 36 99 ae 3d 9e 63 be 3b fc fc b5 3d
       0.031651534 0.085253164 0.005810215 0.088861436
0000b0 50 9d 6b bd 7f 6d 36 bd a1 be 94 3d 6a b7 ca bc
       -0.05752307 -0.044538017 0.07262922 -0.024745662
0000c0 bf 8a ce 3d c5 a9 8f bc da 80 ee bd 22 3f 21 3b
       0.100850575 -0.017537007 -0.1164567 0.002460428
0000d0 dd d1 84 bd 42 99 97 bd 4e 93 d0 3d 74 6a f0 bd
       -0.06485341 -0.074022785 0.10184346 -0.11739054
0000e0 96 a7 d8 3b 65 47 a9 3d c8 ee 45 3c 83 b8 90 bd
       0.0066117747 0.082655706 0.012080856 -0.07066443
0000f0 e7 ae 38 3d 69 9f 6d bd 34 1b 01 3e 56 3b 43 bd
       0.045088675 -0.058013353 0.12608033 -0.04766401
000100 7b e3 e8 3d e8 aa 88 bd 3f 1f b0 3c 36 4f 81 bb
       0.113715135 -0.06673223 0.021499274 -0.0039462103
000110 e0 0c ab bc b2 11 00 3e 66 b4 fc 3c 67 e5 75 3a
       -0.020880163 0.1250675 0.03084774 0.0009380192
000120 fd 8c b4 bc 8d 5c 48 3d 04 c1 eb bc 54 d6 b0 bd
       -0.022039885 0.04891639 -0.02877856 -0.0863463
000130 7c 60 69 3d 96 ef 80 bd 9d 27 bb 3c 8e 09 d2 3c
       0.05697678 -0.062956974 0.022846038 0.025639322
000140 9e b2 fc bc e0 f0 92 3d 0c 15 89 3c f6 10 0f bc
       -0.03084689 0.071748495 0.016733669 -0.008732071
000150 40 ec 5b 3d 69 ee 0f 3e 88 01 27 3c 38 99 90 bc
       0.053692102 0.1405579 0.010193236 -0.017651185
000160 f1 bb 2f bd 24 7d 1e bd 41 6b 8e 3c 81 c9 05 bd
       -0.042903844 -0.038693562 0.017385127 -0.032662872
000170 e9 f0 89 bd 5c e1 65 3d 5b fa b8 bd ad a0 fd ba
       -0.06735403 0.056123123 -0.090321265 -0.0019350253
000180 aa 16 8e bd 03 d1 2c 3c ee 57 be bd 54 5a d2 bd
       -0.069379166 0.010547879 -0.09294115 -0.10271135
000190 f9 9f a8 3d fd 54 c4 3d 1c 12 7d 3d fa 13 e7 3d
       0.08233637 0.09586523 0.06178485 0.11283107
0001a0 f8 48 ba ba 75 ad 2e 3d 9f 1d cb 3c 7d 8a 1f 3d
       -0.001421242 0.04264589 0.024794398 0.038950432
0001b0 2e 27 9a bd bf a3 52 3d b5 27 57 bd 0c f6 47 bc
       -0.07527004 0.05142569 -0.052528102 -0.012204658
0001c0 cc ad aa bd ab e0 c3 3d e9 7c 11 bc 48 8b e3 bc
       -0.083339304 0.095643364 -0.008879879 -0.027776375
0001d0 19 4c 3b bd 48 84 3e 3d 68 23 23 3c d2 db 24 bc
       -0.04572687 0.046512872 0.009957172 -0.010062175
0001e0 4a 05 ea 3d 2f e5 65 3d df d3 1f bb 0d 00 0d 3d
       0.1142679 0.05612677 -0.002438776 0.034423877
0001f0 6b c0 e8 3d e3 cf ef bd 3c ef 57 3c 52 7e 01 bd
       0.11364826 -0.11709573 0.0131795965 -0.03161461
000200 82 42 fe bc bc dd d3 bd de 42 36 bd de 0c 30 3d
       -0.031037573 -0.10345027 -0.044497363 0.04298102
000210 fa ee 40 bc 89 36 59 bd c4 3e cf bd aa 4a 94 3d
       -0.011775726 -0.053030524 -0.101193935 0.072408035
000220 8e 8b e1 bb 5d b5 ab b9 3c 48 97 3d f0 b4 33 bd
       -0.0068830913 -0.00032750788 0.073868245 -0.043873727
000230 64 44 07 3c 1f b7 67 3c 51 c5 51 3c c2 24 a8 3d
       0.008256052 0.014142781 0.012803392 0.08210136
000240 bf 2e 40 bc 53 e7 a6 3b bf f1 1b 3d a7 23 b3 3d
       -0.011729895 0.005093494 0.038072344 0.087470345
000250 77 52 84 bd 48 52 73 bd 1e f1 04 3d 5f 38 1c bd
       -0.064610414 -0.05940464 0.03245651 -0.038139697
000260 ae 60 06 3c 15 9a 91 3d 8f 05 dc bd 38 08 93 3d
       0.008201761 0.07109467 -0.10743248 0.07179302
000270 5f 7b d1 3d ec 90 7a bd df b1 b1 bd 27 67 52 3d
       0.10228609 -0.061173365 -0.08676504 0.051367905
000280 b7 76 ad bd a0 ad 93 bd ae b3 c7 bc 0d 7c e1 3c
       -0.08469909 -0.07210851 -0.02437767 0.027524972
000290 47 c0 88 3d 56 1b d5 3c 2c b1 f8 bd 1b 9e 94 bd
       0.06677299 0.026014011 -0.12143168 -0.07256719
0002a0 9d 97 10 3e 55 4a bc bd 84 02 dc 3c 97 cf 55 3d
       0.14120336 -0.09193865 0.026856668 0.052199926
0002b0 3a 38 1d 3c fe 30 a2 3c ee 75 65 3d 84 3d 66 bd
       0.009595925 0.019798752 0.05602067 -0.05621101
0002c0 e6 a3 25 bd b9 bd d8 bd 7e 8e 73 3b dc cc c9 bd
       -0.04043951 -0.10583062 0.003716379 -0.09853527
0002d0 33 31 d2 3d 31 52 9f bd fe 62 b4 bd 31 82 2f bd
       0.1026329 -0.07779349 -0.08807944 -0.04284877
0002e0 72 4c b5 bd 77 5c 8d 3d 4e 61 9a bd f6 d5 f9 bd
       -0.088524714 0.06902402 -0.07538091 -0.12199013
0002f0 27 e1 fb 3c 08 18 f2 bd 42 03 c9 3d 6a 93 a4 3d
       0.03074701 -0.1182099 0.098150745 0.080359295
000300 eb e7 05 3e ac a8 99 3d 48 f1 ff 3d 2a 53 03 3d
       0.13076751 0.07502875 0.124971926 0.032061733
000310 f8 76 de bd a1 2b 02 3d 74 0a ba bd d9 24 59 bd
       -0.10862535 0.03177989 -0.09084025 -0.053013656
000320 a0 44 c1 3c 72 a5 39 bd ac 3e 87 bd 4f 0d 67 bd
       0.023592293 -0.045323797 -0.066037506 -0.056409176
000330 8d 32 7f bc 51 1b 90 bc c3 d4 58 3c 82 7a 1e ba
       -0.015576017 -0.01759115 0.01323432 -0.0006045477
000340 b9 45 40 bc 20 3f a7 3d fa b4 ad bb 33 7f ed 3d
       -0.011735373 0.08166337 -0.005301115 0.11596527
000350 d7 d0 c4 bd b7 1a ac 3b 5d 24 bb bc 94 3a b5 bd
       -0.096101455 0.005252208 -0.022844488 -0.088490635
000360 f1 a5 4b bc 94 c4 bc 3d 0e 96 33 bd 0a f0 3f 3d
       -0.0124297 0.09217182 -0.043844275 0.04685978
000370 7b 35 00 be 71 60 1b 3e 6a 42 79 3d 46 48 0b 3d
       -0.12520401 0.15173508 0.060854353 0.034004472
000380 2e c7 f6 bd 7f 6d f2 bd aa 5a b3 bc 63 31 a1 3d
       -0.12049709 -0.11837291 -0.021893818 0.07870748
000390 23 b9 7f bc c5 31 c4 bd f3 f4 a6 bd 24 e9 83 3d
       -0.015608105 -0.09579805 -0.08152189 0.064409524
0003a0 d7 2e f2 3d 2d df 1a 3d 74 f7 42 bd e8 ae b1 bd
       0.1182534 0.037810493 -0.04759927 -0.08675939
0003b0 a3 1d f7 3d 96 9a 02 3e 9f c9 4f bd db 9e 28 3d
       0.120662 0.12754282 -0.05072939 0.04116712
0003c0 ad ba 8c bc 6f 62 2e bd 02 f1 3a bd 00 c8 0a 3e
       -0.017178858 -0.042574342 -0.04564 0.13552856
0003d0 dd ec 25 bd 83 a8 f0 bd ca 93 be bd 8a dd 2c 3d
       -0.040509094 -0.11750891 -0.09305532 0.042203464
0003e0 74 61 aa 3b 54 ba 12 bd a3 97 81 bd 28 e6 bb 3c
       0.0051996056 -0.035822228 -0.063277505 0.022936895
0003f0 d8 5d 81 3c 84 85 df 3d a6 c2 fc 3d 75 1f 9e bc
       0.015791818 0.10914138 0.12341814 -0.01930211

lstm.bias_ih_l1 f4 [256]
000000 76 c9 54 bd bb 94 ec 3b c1 61 c1 bd 47 f4 f2 3c
       -0.05194994 0.0072198785 -0.09442473 0.029657496
000010 7c 42 97 bd ed d4 cb bd 10 71 ac 3c 61 0a b2 3b
       -0.07385728 -0.09952722 0.021050006 0.005433366
000020 b1 13 0e 3e 1d 25 12 bd 91 72 2c bd bb db ec 3d
       0.13874699 -0.035679925 -0.042101447 0.11565348
000030 48 0c ea bc f2 38 d1 3d b9 b4 be bd 8d e4 fd 3c
       -0.02857031 0.102159396 -0.09311814 0.03099277
000040 2c 51 59 bd bf 4e 3c bd ec 60 2e bd e5 09 d8 bc
       -0.053055927 -0.045973536 -0.0425729 -0.026371906
000050 70 59 dc bc 25 57 8d 3d 5d 15 1d bc 53 b4 b8 3d
       -0.026898116 0.06901387 -0.009587613 0.09018769
000060 95 c1 ec bc 07 ed 65 bb eb bb d1 bd 7c aa c2 bd
       -0.0289009 -0.0035083906 -0.10240921 -0.095051736
000070 fe 70 08 be 7f 33 a3 3d f0 41 dc 3d 66 2a 35 3c
       -0.13324353 0.079688065 0.10754764 0.011057472
000080 c5 9b b6 bd 1b 90 ff 3d 99 32 b0 3d 4d 4a 10 3d
       -0.089164294 0.12478658 0.08603401 0.03522711
000090 53 16 81 3d 84 6c 99 bd 89 cb b5 bb c3 60 fe 3d
       0.06303086 -0.07491401 -0.005547945 0.124207996
0000a0 b8 56 eb 3d bf b8 16 bd e1 50 e8 3d b9 fa c2 bd
       0.1149115 -0.03679728 0.113435514 -0.09520478
0000b0 21 8b 57 3d 56 54 b1 3d 48 69 c0 3d f8 9d 09 bc
       0.052622918 0.08658664 0.09395081 -0.008399479
0000c0 4f 3d 04 3d fc 86 17 3c 4f be fd bd 76 72 ee bd
       0.03228503 0.009248491 -0.12389814 -0.116429254
0000d0 d9 20 0e 3e da 53 d3 3a b5 ef 4e 3e eb 78 b4 3d
       0.13879718 0.0016123012 0.20208628 0.08812126
0000e0 ef 25 91 3c 24 be 80 3c f7 00 f2 3c 2f b1 5c bd
       0.017718283 0.015715666 0.029541476 -0.053879913
0000f0 d2 7a ae 3d 46 9d b5 bc fa 0f 94 bd df 62 a4 3d
       0.0851952 -0.02216972 -0.0722961 0.08026671
000100 86 4d 7e 3b a6 86 3c 3d 54 1b 36 3c 6c 73 ac 3c
       0.0038803532 0.04602685 0.011114914 0.021051131
000110 9c 4e 7b bc 5b e8 ca bd 1c 5b e6 3d c7 6c bd bd
       -0.015338566 -0.099075995 0.112478465 -0.09249263
000120 7a 68 c9 bd fc f8 a0 bd 8e 3e 6d 3c e4 eb e7 bd
       -0.098343804 -0.0785999 0.014480246 -0.113242894
000130 bd 81 4c bd b2 e6 eb bd b5 c9 ac bd a1 24 76 bb
       -0.049928416 -0.11518611 -0.0843691 -0.0037558454
000140 0b f2 87 bc f1 55 83 3d dc 76 53 bc 3b 98 fb 3c
       -0.016594907 0.064128764 -0.012906756 0.030712238
000150 6c eb d9 bc 70 56 eb bd 52 11 47 3d 49 59 c3 3c
       -0.026601516 -0.11491096 0.048600502 0.023846285
000160 9b 0c 70 bd 91 d1 d3 3d 6f f9 3e 3d 5a a3 03 3b
       -0.05860577 0.10342706 0.046624597 0.0020086379
000170 d6 5f f2 bd 4b b9 14 bd e0 04 28 3d b4 d1 ad 3d
       -0.118346855 -0.03630952 0.041020274 0.08487263
000180 f6 bb 05 3e 22 c4 93 3c ac 28 17 3d c7 1f 86 bd
       0.13059983 0.01803786 0.036904022 -0.0654903
000190 95 12 e9 3d 3c 27 55 3d 77 c0 4f 3d d3 f5 de 3d
       0.11380497 0.05203937 0.05072066 0.10886731
0001a0 0b 5c e9 bd 35 2b b8 bc 31 5e 28 bd b4 de aa 3a
       -0.11394509 -0.02248154 -0.041105453 0.0013036341
0001b0 30 e9 96 bc ff e3 57 bd 26 cf f7 bd d2 a6 f1 3d
       -0.01842174 -0.05270767 -0.12100057 0.117993966
0001c0 ca 8b 8b bd ab 96 29 3d 1c 98 ec bd ea f8 f7 3c
       -0.06813772 0.041403454 -0.1155245 0.030270059
0001d0 88 8e 93 3d 79 9a 3b bb 61 51 93 3c 0b b1 65 3d
       0.0720492 -0.0028626008 0.01798314 0.056077044
0001e0 1b 8c c7 bc 93 a4 2d 3d d6 85 ae bd 57 d2 a7 3d
       -0.0243588 0.04239328 -0.08521621 0.08194416
0001f0 34 21 ee 3d b8 d6 a2 bd 25 76 02 bd e2 48 67 3d
       0.11627427 -0.079511106 -0.031850953 0.05646599
000200 b9 65 e3 3c 41 6a 1f bd 7a 8c 42 bc c2 4a 5d bd
       0.027758466 -0.03891969 -0.011874313 -0.054026373
000210 18 ff b0 bc 4f 98 0d bd 84 a3 a0 bd 79 92 3f bd
       -0.021606013 -0.03456908 -0.07843688 -0.046770547
000220 0a 36 69 bd 4f 89 b3 bd 02 31 27 bd 75 38 46 3d
       -0.0569363 -0.08766424 -0.040818222 0.048393685
000230 fa 73 f4 bd de 95 79 3b ef 9f 9d ba 02 2e ee bd
       -0.11936183 0.0038083713 -0.0012025813 -0.11629869
000240 69 01 57 3d e7 6a ac bd 9e 15 0b bd ef 84 05 3d
       0.05249158 -0.084188275 -0.033956163 0.03259748
000250 1e 6e a5 3d 27 91 9b 3d 4e bf a3 bd 6d fb 5c bc
       0.08077644 0.07596045 -0.07995473 -0.013487679
000260 ce 43 0b 3e 38 40 00 bd 82 94 07 3e 5e 8d 98 bd
       0.13600084 -0.031311244 0.13240245 -0.07448839
000270 76 eb e2 3b 15 cb 15 3d 96 5d 43 bd 51 86 3f 3d
       0.006925042 0.036570627 -0.047696672 0.046758953
000280 99 3e 09 3e cc 2d a9 bd 3a 62 bc bd 1f 92 8a bd
       0.13402785 -0.08260688 -0.09198423 -0.06766152
000290 f7 a2 e6 3d 4c 71 bb bc fc d9 dc 3d a8 18 fd bd
       0.11261552 -0.022881173 0.10783765 -0.123582184
0002a0 b5 3f 68 3d dd b7 02 3e 29 62 03 be 4a b9 fe bb
       0.05670138 0.12765451 -0.12830414 -0.007773553
0002b0 76 4a 5e bd f3 38 47 3c fc 24 c1 bd fb 26 17 bd
       -0.05427023 0.012159574 -0.09430882 -0.03690241
0002c0 48 2a 1c bd 74 01 f3 3b a2 63 a7 3d 8f 02 58 bd
       -0.03812626 0.0074159447 0.081733 -0.052736815
0002d0 50 82 92 bc c6 92 53 bd fe 1f 8e 3d f5 6e 9c 3d
       -0.017884403 -0.051653646 0.06939696 0.07638351
0002e0 b6 d6 44 bd b1 d6 6d 3d 2f 86 92 3d f0 a4 bc 3d
       -0.048056327 0.058066074 0.071545 0.09211147
0002f0 6e 0f c2 bd a0 fb 3d 3b 91 23 10 be c8 fa 6a bd
       -0.09475599 0.0028989092 -0.14076068 -0.05736807
000300 93 49 c2 bd a9 ee b6 3d 83 b2 60 bd 75 ff cc bd
       -0.094866894 0.089322396 -0.054857742 -0.10009662
000310 14 14 6c bd 10 d3 92 bd 20 1a 94 3c f0 f5 b9 3d
       -0.057636335 -0.07169163 0.018078864 0.09080112
000320 cc 9c 07 3e da 93 55 3d cb c2 51 bd 26 cc 50 bd
       0.13243407 0.052142955 -0.05121116 -0.05097594
000330 0c 4d f3 3d c7 49 ce 3d b6 51 a8 bd a7 28 b5 3d
       0.1187993 0.10072666 -0.0821871 0.088456444
000340 d9 0f 02 3e 55 c7 e8 3c 11 ff c4 3c 52 f2 40 3d
       0.12701358 0.028415361 0.024047406 0.047106095
000350 74 f3 91 bd 72 4b 27 3e 12 f2 fc 3d 74 7f 54 3d
       -0.07126513 0.16337374 0.12350859 0.05187936
000360 fc 5e 1c 3d be e1 99 3d 86 45 09 3e c3 19 a5 3d
       0.03817652 0.0751376 0.13405427 0.08061554
000370 34 b1 08 be 5b 0e 6d bb 1c b0 a6 bc d9 b9 80 bd
       -0.13348848 -0.0036171887 -0.020347647 -0.062854476
000380 33 8d 74 3d 30 cb 44 3d 44 71 ca bd e7 ec 33 bd
       0.05970497 0.048045337 -0.09884885 -0.0439271
000390 8f 93 f4 3c 4c 8a 08 bd 52 da e8 bd 63 9e dc 3d
       0.029855518 -0.033335015 -0.11369766 0.10772397
0003a0 5b c6 9c 3d 45 09 bd bd 07 e6 8d 3b 5d 2b 1b bc
       0.07655021 -0.09230284 0.0043304 -0.009470788
0003b0 43 eb 88 3e 44 74 7e bd f2 90 ee bb 6f 64 d9 bd
       0.2674199 -0.0621226 -0.0072804624 -0.10614859
0003c0 cc e5 83 3b ee be 08 3e c7 04 53 3d d6 cd a2 3d
       0.0040251967 0.13354084 0.051518228 0.07949416
0003d0 23 13 88 bd ae 61 07 3d 0e e5 d5 3d c9 a6 d2 bb
       -0.06644275 0.03305214 0.10444079 -0.0064285737
0003e0 73 41 bb 3d 2b ed f2 3d 60 c5 24 bd d5 a6 e1 bd
       0.09143343 0.118616425 -0.040227294 -0.11018149
0003f0 72 51 14 3d 90 8c 27 3d e2 12 7e bd 34 71 42 3d
       0.036210485 0.040905535 -0.062029727 0.04747124
