预测论文/save_model_para/best_model_seq24.pt (torch, 474908 bytes, 25 tensors)

encoder_layer.self_attn.in_proj_weight f4 [48, 16]
0.30259958 -0.16602308 -0.019361109 0.2501205 -0.07078087 -0.18403985 0.09608087 0.15212199
0.24900237 -0.110181496 -0.20789477 -0.028872013 0.30097082 -0.21709552 0.25302568 -0.1822871
-0.022899836 0.001440376 -0.13896658 0.043866873 0.02220139 0.17072907 -0.2861941 0.07384035
-0.19796559 0.13136053 0.038258374 0.2904286 -0.1263988 0.27667162 0.24293944 0.1896776
-0.22352059 -0.08570725 -0.23073024 -0.28157294 0.15430683 -0.18780258 0.15131891 0.10996944
-0.0026032627 0.21479365 -0.27017576 -0.2948444 -0.2186226 -0.13043503 0.073999524 0.03504294
0.14597556 0.074937046 -0.009709179 -0.20863932 0.23358402 0.10268989 -0.14409982 -0.07415542
-0.10120827 0.19719622 0.1407189 -0.13296615 0.062011212 -0.21517806 0.040620655 -0.26953948
-0.025945574 0.22254637 0.20057681 0.109329045 -0.041463464 0.27221987 0.0747771 -0.060902804
-0.26032624 0.28357777 0.029877067 -0.04359004 0.29072955 -0.21460266 -0.04908809 0.18494076
-0.165738 -0.028005421 -0.14827593 0.055904955 0.26570836 -0.08867496 0.022166133 -0.06668675
0.06995565 0.08412847 0.27351347 0.112802565 0.24476579 0.012029082 0.2739509 -0.19381148
0.175809 -0.15979211 0.16635296 0.20428368 0.10004932 0.02810061 0.13905597 -0.0860894
-0.034946144 -0.2371397 -0.17273141 0.20168772 0.19269335 0.19427273 -0.001648277 -0.038943887
0.01897636 0.19685999 -0.2881243 -0.13537075 -0.08971077 0.12648305 0.09320691 -0.26580623
0.13273606 0.008698016 -0.010597527 -0.2465199 0.27578202 0.24882218 -0.22975045 0.22426823
0.06282255 0.2541984 0.07859388 0.24135372 -0.16661233 0.15065524 -0.2768075 -0.22020425
-0.09808791 -0.16958484 0.21736571 -0.2234025 -0.19442052 -0.21955264 -0.2823029 0.08834639
-0.27016294 0.032669127 -0.014265895 0.26524308 -0.22251275 0.07946119 -0.05528173 -0.08572531
-0.27866018 -0.082408056 0.12911314 0.23523185 0.15193817 0.13926145 0.17641622 0.05020383
-0.28952634 -0.13771717 -0.22376747 -0.22270754 0.14330143 0.034638554 -0.15954767 -0.08815418
0.2625306 0.0085478425 -0.29187185 -0.17108737 -0.089041576 -0.099388525 0.049678534 -0.23683226
0.024213761 -0.2382229 0.18582866 -0.06519918 0.06390166 -0.18920949 -0.025606453 -0.19445238
-0.20650038 0.2891657 0.025914758 0.18539017 -0.27977833 -0.01836279 0.14027795 -0.059944347
-0.2972533 -0.070113644 -0.06056401 0.17168564 0.16926259 0.27556303 -0.17925222 0.28919128
-0.30315208 0.11676392 0.2705519 0.17512882 0.29698423 -0.049841583 0.10793331 0.09284997
-0.25147521 -0.14688314 -0.28433543 0.19322816 0.101564854 -0.29025844 0.024548411 0.14446256
-0.15872547 -0.20011689 0.18130663 0.17023957 0.25763366 -0.10510902 -0.23409402 0.06356096
0.17180589 0.15654933 0.076714635 -0.08620857 -0.0986795 -0.0979545 0.13473076 0.1708329
-0.2722941 0.13875732 0.08741796 0.2795008 0.1545066 0.15480852 -0.17393307 -0.18823303
-0.10628232 0.10922733 0.06433505 0.041290313 -0.12329498 0.14340577 -0.09284924 0.015717775
-0.06843464 0.062306464 0.13979897 -0.21692897 0.04547727 -0.15318367 0.09556037 -0.05946985
00000000: 55ee 9a3e f401 2abe 309b 9ebc cb0f 803e
00000010: 90f5 90bd f174 3cbe 0cc6 c43d dec5 1b3e
00000020: 7afa 7e3e d6a6 e1bd 5ee2 54be 0085 ecbc
00000030: d918 9a3e 4a4e 5ebe 958c 813e 78a9 3abe
00000040: 7098 bbbc 00cb bc3a 414d 0ebe c0ad 333d
00000050: b0df b53c 9ad3 2e3e 0888 92be 9c39 973d
00000060: 7eb7 4abe 6083 063e d0b4 1c3d 0fb3 943e
00000070: b06e 01be e7a7 8d3e 1ec5 783e d83a 423e
00000080: 95e2 64be 4887 afbd 8c44 6cbe 542a 90be
00000090: 9c02 1e3e 524f 40be 58f3 1a3e a837 e13d
000000a0: 809b 2abb def2 5b3e 7a54 8abe d8f5 96be
000000b0: 9ade 5fbe c390 05be 108d 973d 3089 0f3d
000000c0: 9e7a 153e 9878 993d 4013 1fbc 8ca5 55be
000000d0: a630 6f3e 144f d23d e78e 13be ccde 97bd
000000e0: 4846 cfbd ceed 493e 9e18 103e 4728 08be
000000f0: 78ff 7d3d a357 5cbe d861 263d 1401 8abe
00000100: d08b d4bc 32e3 633e 0264 4d3e e8e7 df3d
00000110: 98d5 29bd 6760 8b3e bc24 993d 3875 79bd
00000120: 7b49 85be 1b31 913e c0c0 f43c 788b 32bd
00000130: 81da 943e cdc0 5bbe 9810 49bd 1c61 3d3e
00000140: 39b7 29be a06b e5bc a5d5 17be 98fc 643d
00000150: ed0a 883e 389b b5bd c095 b53c 1093 88bd
00000160: e844 8f3d 8c4b ac3d f509 8c3e 0805 e73d
00000170: e2a3 7a3e a015 453c 4b43 8c3e 8476 46be
00000180: 4607 343e 8ba0 23be 6e58 2a3e be2f 513e
00000190: a8e6 cc3d 4033 e63c b064 0e3e a44f b0bd
000001a0: b023 0fbd c0d4 72be 81e0 30be 3a87 4e3e
000001b0: 6851 453e 6eef 463e 000b d8ba a083 1fbd
000001c0: 5074 9b3c aa95 493e 0785 93be a19e 0abe
000001d0: 48ba b7bd c684 013e 44e3 be3d c117 88be
000001e0: f6eb 073e 2082 0e3c 40a1 2dbc b66f 7cbe
000001f0: 4d33 8d3e 3ecb 7e3e b443 6bbe 92a6 653e
00000200: 1ca9 803d 4b26 823e d4f5 a03d 6e25 773e
00000210: 6c9c 2abe 5e45 1a3e b6b9 8dbe 397d 61be
00000220: 50e2 c8bd a6a7 2dbe 1e95 5e3e a0c3 64be
00000230: 2c16 47be 68d2 60be 018a 90be f4ee b43d
00000240: cc52 8abe 10d0 053d 80bb 69bc f1cd 873e
00000250: 62da 63be 8cbc a23d 186f 62bd c090 afbd
00000260: 8cac 8ebe 8ec5 a8bd 3c36 043e 9ee0 703e
00000270: ae95 1b3e 8e9a 0e3e 74a6 343e 88a2 4d3d
00000280: cc3c 94be bb05 0dbe 4d23 65be 720d 64be
00000290: 9cbd 123e 28e1 0d3d 7760 23be 2e8a b4bd
000002a0: 696a 863e 400c 0c3c 3a70 95be 8731 2fbe
000002b0: 6e5b b6bd 368c cbbd b87b 4b3d 2884 72be
000002c0: f05b c63c b4f0 73be de49 3e3e 2687 85bd
000002d0: e0de 823d 22c0 41be a0c4 d1bc 861e 47be
000002e0: d674 53be 870d 943e 304b d43c ecd6 3d3e
000002f0: 1b3f 8fbe 906d 96bc 06a5 0f3e 3488 75bd
00000300: 9631 98be be97 8fbd f811 78bd 5cce 2f3e
00000310: 2c53 2d3e 9916 8d3e e58d 37be e110 943e
00000320: c036 9bbe ec21 ef3d c785 8a3e f854 333e
00000330: 510e 983e b026 4cbd 240c dd3d 2028 be3d
00000340: 5cc1 80be 8968 16be 6a94 91be 9add 453e
00000350: 3c01 d03d c19c 94be c019 c93c feed 133e
00000360: ee88 22be 71eb 4cbe 72a8 393e 4853 2e3e
00000370: 8fe8 833e 6643 d7bd 58b6 6fbe 402c 823d
00000380: e2ed 2f3e 784e 203e 901c 9d3d 1e8e b0bd
00000390: 7a18 cabd 5e9c c8bd dcf6 093e d2ee 2e3e
000003a0: 226a 8bbe 6616 0e3e 3008 b33d bb1a 8f3e
000003b0: fa36 1e3e 2086 1e3e 831b 32be 29c0 40be
000003c0: 8caa d9bd 94b2 df3d 18c2 833d 0820 293d
000003d0: 1482 fcbd f6d8 123e be27 bebd 90c2 803c
000003e0: 7627 8cbd 1035 7f3d 7627 0f3e a122 5ebe
000003f0: 6046 3a3d 2edc 1cbe 28b5 c33d a896 73bd

encoder_layer.self_attn.in_proj_bias f4 [48]
0.0 0.0 0.0 0.0 0.0 0.0 0.0 0.0
0.0 0.0 0.0 0.0 0.0 0.0 0.0 0.0
0.0 0.0 0.0 0.0 0.0 0.0 0.0 0.0
0.0 0.0 0.0 0.0 0.0 0.0 0.0 0.0
0.0 0.0 0.0 0.0 0.0 0.0 0.0 0.0
0.0 0.0 0.0 0.0 0.0 0.0 0.0 0.0
00000000: 0000 0000 0000 0000 0000 0000 0000 0000
00000010: 0000 0000 0000 0000 0000 0000 0000 0000
00000020: 0000 0000 0000 0000 0000 0000 0000 0000
00000030: 0000 0000 0000 0000 0000 0000 0000 0000
00000040: 0000 0000 0000 0000 0000 0000 0000 0000
00000050: 0000 0000 0000 0000 0000 0000 0000 0000
00000060: 0000 0000 0000 0000 0000 0000 0000 0000
00000070: 0000 0000 0000 0000 0000 0000 0000 0000
00000080: 0000 0000 0000 0000 0000 0000 0000 0000
00000090: 0000 0000 0000 0000 0000 0000 0000 0000
000000a0: 0000 0000 0000 0000 0000 0000 0000 0000
000000b0: 0000 0000 0000 0000 0000 0000 0000 0000

encoder_layer.self_attn.out_proj.weight f4 [16, 16]
-0.17767218 0.2231878 -0.08696762 -0.08185077 -0.05321467 -0.13133404 0.2159479 -0.10370886
0.0024520755 -0.17038253 0.0377087 -0.12130308 -0.12404826 -0.11263394 -0.115398556 -0.04565108
0.13670719 0.09145257 0.064588755 0.16125825 0.24142393 0.090503484 0.013841182 -0.030624896
0.1981158 -0.15172777 -0.15022963 0.14883688 0.0482952 -0.18420222 -0.18307534 0.20501006
-0.21376246 -0.118338615 -0.0004311502 0.21864772 -0.1336216 0.24198142 0.09551188 0.07117933
0.17190778 -0.19541195 -0.23710716 -0.13147366 -0.180323 0.13075387 0.17363343 -0.09194183
-0.075837076 -0.101448804 -0.16190124 0.23023713 -0.052324206 -0.18756896 -0.18146905 -0.24206379
0.0022448301 -0.24612248 -0.060909003 0.07573143 0.14665124 -0.048217714 0.21262577 0.19095796
-0.029643029 0.07363737 -0.014372468 0.21206367 0.1075905 0.07299277 0.103796005 -0.24447569
0.01588872 0.03256741 -0.122642964 0.22723207 0.18776879 -0.11148214 -0.061636567 0.11113155
-0.0929876 -0.019611865 -0.21454775 0.20597565 -0.14733154 -0.03577432 -0.23632354 -0.17509627
0.21143803 -0.05093798 0.11261788 -0.21193084 0.0018123984 0.15163383 -0.132108 0.089545846
0.06858903 -0.16412088 -0.2290557 0.18470398 -0.24969462 -0.17005962 -0.068496585 -0.18910289
-0.08431643 -0.11443895 0.14756647 0.21381396 0.1106537 0.107224315 0.12884659 -0.2013993
0.096257955 0.03608361 0.19486722 0.07194054 -0.06229657 0.1365735 0.03290853 0.02746898
-0.007885724 0.14428967 0.23747224 -0.14819634 0.18253094 0.04684046 -0.121551424 -0.049122334
-0.20726287 0.066259444 0.15585831 0.06470847 -0.2380889 0.045274347 0.040776342 -0.10922706
-0.16455588 0.042101175 0.23464876 0.09875062 -0.044715345 -0.20235208 -0.11800796 0.083866715
-0.13936877 -0.05091861 -0.16196337 -0.10854694 -0.22147703 -0.13274607 -0.18518648 -0.035309464
-0.12949178 -0.14876801 -0.012343615 -0.054383248 0.037180573 -0.03517914 0.066865295 0.15103018
0.0352962 0.14470255 -0.2329944 -0.09637228 0.21797088 0.08461189 -0.22823617 -0.2221171
0.23571008 0.15844926 -0.21466646 -0.121546686 0.18782681 -0.17667472 -0.18139681 -0.18836567
-0.13793361 0.21531305 -0.07586223 0.21372345 -0.22177547 -0.14505112 -0.24633783 0.06688282
-0.037267864 -0.09495166 -0.11967951 -0.13203558 0.14991501 0.23360473 -0.16969696 -0.19800845
0.111697614 0.03523609 0.23546717 0.22774673 0.0753195 -0.058933407 0.07697484 0.2164304
-0.12197259 -0.061729044 0.13287821 -0.14758405 -0.18736151 -0.11981365 0.1401543 0.13993245
0.05845356 0.11207175 -0.14159837 0.16988182 0.123446554 -0.19230986 0.24394563 -0.18175656
0.07561952 -0.017990977 -0.15247735 0.04831928 -0.22185361 -0.04475227 0.21000034 -0.03181562
0.11190957 0.13199139 -0.03999427 -0.16089895 0.21965334 0.13856009 -0.17229453 -0.012881339
0.021528542 -0.17515379 -0.035204887 0.09596747 -0.13424513 0.20781937 0.025029778 0.19055694
-0.1688061 -0.20724553 0.044998705 0.14495942 0.10636824 0.0009915531 -0.021993011 0.23101294
0.024218678 -0.230658 -0.078561515 -0.17122564 -0.07922113 0.108933985 -0.18265495 0.042370766
00000000: b2ef 35be 588b 643e 141c b2bd 60a1 a7bd
00000010: a0f7 59bd 6e7c 06be 7221 5d3e 5065 d4bd
00000020: 00b3 203b c278 2ebe 7074 1a3d c06d f8bd
00000030: 040d febd a0ac e6bd 1456 ecbd a0fc 3abd
00000040: f8fc 0b3e 7c4b bb3d 1c47 843d e220 253e
00000050: d637 773e e459 b93d 20c6 623c 10e1 fabc
00000060: dede 4a3e 865e 1bbe ccd5 19be b268 183e
00000070: 30d1 453d 829f 3cbe 1a78 3bbe 28ee 513e
00000080: 8ce4 5abe 845b f2bd 000c e2b9 30e5 5f3e
00000090: 1ad4 08be fac9 773e bc9b c33d 78c6 913d
000000a0: 9808 303e 121a 48be 38cc 72be 08a1 06be
000000b0: 98a6 38be 58e4 053e f6cc 313e 004c bcbd
000000c0: 7850 9bbd 64c4 cfbd 70c9 25be 48c3 6b3e
000000d0: e851 56bd 1412 40be 06d3 39be 92df 77be
000000e0: 001e 133b 8807 7cbe b87b 79bd 1419 9b3d
000000f0: be2b 163e f07f 45bd 92ba 593e 7c8a 433e
00000100: f0d5 f2bc 30cf 963d 807a 6bbc 3827 593e
00000110: 6858 dc3d 3c7d 953d 0093 d43d d657 7abe
00000120: 1029 823c 6865 053d 3c2c fbbd 86af 683e
00000130: 7646 403e c050 e4bd a076 7cbd f098 e33d
00000140: 4870 bebd 10a9 a0bc 68b2 5bbe 48eb 523e
00000150: 14de 16be 1888 12bd ccfe 71be 704c 33be
00000160: 3683 583e 58a4 50bd 34a4 e63d 6604 59be
00000170: 008e ed3a e645 1b3e 5247 07be d063 b73d
00000180: 6878 8c3d 4e0f 28be 948d 6abe 0a23 3d3e
00000190: f2af 7fbe 1c24 2ebe f047 8cbd 30a4 41be
000001a0: 18ae acbd f85e eabd aa1b 173e 0cf2 5a3e
000001b0: 689e e23d 6c98 db3d 5cf0 033e 9e3b 4ebe
000001c0: e422 c53d 68cc 133d 468b 473e 9055 933d
000001d0: b02a 7fbd ecd9 0b3e 18cb 063d a006 e13c
000001e0: 2033 01bc acc0 133e ec2b 733e c8c0 17be
000001f0: 64e9 3a3e c8db 3f3d f4ef f8bd 8034 49bd
00000200: b83c 54be 08b3 873d 5299 1f3e e085 843d
00000210: 94cd 73be 9871 393d 1805 273d 70b2 dfbd
00000220: 5681 28be 4872 2c3d c447 703e c43d ca3d
00000230: 7027 37bd 6235 4fbe 28ae f1bd 50c2 ab3d
00000240: b0b6 0ebe 0890 50bd bad9 25be dc4d debd
00000250: e0ca 62be 96ee 07be 86a1 3dbe a8a0 10bd
00000260: 7e99 04be a456 18be e03c 4abc f8c0 5ebd
00000270: a84a 183d 0018 10bd acf0 883d a8a7 1a3e
00000280: c092 103d e82c 143e 1696 6ebe d45e c5bd
00000290: c233 5f3e 0049 ad3d beb6 69be aa72 63be
000002a0: fc5d 713e 8640 223e 86d1 5bbe 78ed f8bd
000002b0: ac55 403e 38ea 34be 16c0 39be eee2 40be
000002c0: 783e 0dbe 067b 5c3e a85d 9bbd 52da 5a3e
000002d0: 1c19 63be 4888 14be fc3f 7cbe dcf9 883d
000002e0: 30a6 18bd 0476 c2bd 881a f5bd 5634 07be
000002f0: 5283 193e 1436 6f3e 0ac5 2dbe bac2 4abe
00000300: b8c1 e43d b853 103d 4e1e 713e 7036 693e
00000310: 1c41 9a3d 2864 71bd fca4 9d3d ee9f 5d3e
00000320: c4cc f9bd 98d7 7cbd 3a11 083e 4620 17be
00000330: b2db 3fbe dc60 f5bd 9c84 0f3e 744a 0f3e
00000340: 006d 6f3d e085 e53d 2aff 10be 80f5 2d3e
00000350: 8cd1 fc3d e0ec 44be e2cc 793e 641e 3abe
00000360: 68de 9a3d d061 93bc 0623 1cbe 70ea 453d
00000370: 982d 63be 284e 37bd 540a 573e 1851 02bd
00000380: d830 e53d c028 073e 08d1 23bd b2c2 24be
00000390: ceec 603e b2e2 0d3e fa6d 30be 400c 53bc
000003a0: a05c b03c 845b 33be 0033 10bd 988a c43d
000003b0: 8e77 09be 9ace 543e 400b cd3c 5c21 433e
000003c0: 82db 2cbe 2c38 54be 9050 383d 3e70 143e
000003d0: 98d7 d93d 00f7 813a b02a b4bc a88e 6c3e
000003e0: 4066 c63c 9c31 6cbe dce4 a0bd c655 2fbe
000003f0: b03e a2bd c818 df3d e609 3bbe f88c 2d3d

encoder_layer.self_attn.out_proj.bias f4 [16]
0.0 0.0 0.0 0.0 0.0 0.0 0.0 0.0
0.0 0.0 0.0 0.0 0.0 0.0 0.0 0.0
00000000: 0000 0000 0000 0000 0000 0000 0000 0000
00000010: 0000 0000 0000 0000 0000 0000 0000 0000
00000020: 0000 0000 0000 0000 0000 0000 0000 0000
00000030: 0000 0000 0000 0000 0000 0000 0000 0000

encoder_layer.linear1.weight f4 [512, 16]
0.18823645 0.015871048 -0.1392945 -0.17427313 -0.16989458 0.23080471 0.048434854 0.0359371
0.21299365 -0.23152012 0.19708195 0.17963508 0.15376234 -0.0023550093 0.19455507 0.16301173
0.053199947 -0.17911243 -0.008163333 -0.023273945 -0.08944154 0.09473455 -0.12831786 0.08435708
-0.12502539 -0.1409578 -0.06325629 0.20811638 -0.18252403 -0.2087256 -0.017934293 0.21936092
0.2277039 0.14039025 0.055071652 0.017302394 0.07169896 -0.11833376 -0.034002364 0.17238775
0.1288087 -0.22350079 -0.068639964 -0.100916445 -0.20043012 0.20642668 0.22499242 -0.1439277
0.15898338 0.19641906 -0.01419872 -0.14735213 -0.0646593 0.10514486 -0.0021427274 -0.0255287
-0.07605505 -0.12729725 0.2055012 0.02524963 -0.17740548 -0.029759645 -0.13828915 -0.09477183
0.09320021 0.09077135 0.15077206 0.1390686 -0.06926185 0.22698334 -0.0454067 -0.06077093
-0.17339781 -0.12871414 0.10279539 -0.11527139 0.15664327 -0.037489295 0.07519707 -0.081397116
-0.061293364 -0.20497337 0.103465915 0.18639031 -0.09302625 -0.15807989 0.046659917 0.18636945
0.0063231587 0.16304925 0.24106067 0.06367567 0.19083643 0.15333799 -0.24239966 0.10885757
-0.19372219 -0.20997629 -0.025686622 0.008803666 -0.04694575 0.1713404 0.19132891 0.1007112
0.035152316 0.07957685 0.019515634 0.20140466 -0.116845995 -0.09870291 0.01615733 -0.03351298
-0.20934159 -0.2071617 -0.24986148 0.03524348 0.17392704 -0.021041214 0.14195558 -0.14100745
0.020727992 0.0709081 -0.014331251 0.2116355 0.11021078 -0.20574108 -0.13971019 0.17521039
0.052465945 -0.060033172 0.1857143 -0.027154505 -0.1286523 0.007858574 0.054385126 -0.13924348
-0.05560741 -0.0023172796 0.13667321 0.20025867 -0.097937256 -0.18262485 0.11230609 0.24145478
-0.20845369 0.011738509 0.1338698 -0.12042615 0.23188108 0.16040641 -0.19342586 -0.16147763
-0.013399512 -0.05361837 0.14614418 0.13644981 0.05355543 -0.22368175 -0.08008057 0.14573932
0.22918427 0.10513994 -0.15070322 -0.12369278 -0.22608978 -0.23314005 -0.08589384 -0.13429284
-0.060757756 0.0067700744 -0.013849109 -0.027276099 -0.20202401 -0.049485862 -0.04235652 -0.1658628
0.15427625 0.10834223 0.23569098 -0.22481969 -0.14497674 0.093266785 -0.099904805 -0.0741142
-0.1977182 0.23145354 0.11033863 -0.14456102 0.13867763 0.035176843 -0.10650596 -0.06856647
-0.00069856644 0.021820515 0.21798193 -0.023509562 -0.09159538 0.07456601 -0.0193218 0.016376704
0.1091443 0.03638211 -0.24367148 -0.12828803 0.22786158 0.10831869 0.1134657 -0.086334854
0.0723899 -0.06834832 -0.09706259 -0.223266 -0.21214384 -0.20690048 -0.0832763 -0.01982063
-0.14094472 -0.05460611 0.083717436 -0.102846295 -0.10001758 -0.2436341 0.028045714 -0.05415839
0.21486238 0.1250923 0.035596073 0.12343866 -0.12811717 0.022025526 0.18364808 -0.23573458
-0.22214833 -0.021638691 -0.049180537 0.012565345 0.09878707 0.08097243 -0.16265383 0.06950429
-0.093461245 -0.076214224 0.19906059 -0.03505665 0.18029496 -0.23790926 0.21221122 0.10459605
-0.12706915 0.12835857 -0.050551385 0.102526695 0.23774463 -0.23190567 -0.06339511 -0.0006725788
00000000: 0ec1 403e 0004 823c 38a3 0ebe a874 32be
00000010: d8f8 2dbe 1258 6c3e a063 463d c832 133d
00000020: 021b 5a3e 9c13 6dbe dacf 493e 42f2 373e
00000030: e073 1d3e 8056 1abb 7239 473e 8cec 263e
00000040: 30e8 593d 4069 37be 80bf 05bc 00a9 bebc
00000050: 202d b7bd 3004 c23d c265 03be 68c3 ac3d
00000060: a806 00be 3e57 10be 848c 81bd 761c 553e
00000070: 94e7 3abe 2abc 55be f0ea 92bc 26a0 603e
00000080: 362b 693e 76c2 0f3e d092 613d c0bd 8d3c
00000090: e8d6 923d f858 f2bd 1046 0bbd 6a86 303e
000000a0: 6ee6 033e 64dd 64be 1c93 8cbd 48ad cebd
000000b0: 8e3d 4dbe 8461 533e 6a64 663e c861 13be
000000c0: 8acc 223e 1422 493e c0a1 68bc 7ae3 16be
000000d0: 186c 84bd 3056 d73d 006d 0cbb 9021 d1bc
000000e0: c0c2 9bbd 365a 02be e86e 523e 50d8 ce3c
000000f0: c8a9 35be 80ca f3bc ac9b 0dbe bc17 c2bd
00000100: c0df be3d 54e6 b93d fe63 1a3e 0068 0e3e
00000110: 28d9 8dbd 526e 683e 60fc 39bd f0ea 78bd
00000120: 328f 31be a4cd 03be 6486 d23d 6813 ecbd
00000130: 1867 203e 608e 19bd ec00 9a3d 88b3 a6bd
00000140: c00e 7bbd 8ae4 51be f0e5 d33d 1add 3e3e
00000150: 8c84 bebd b2df 21be 781e 3f3d a2d7 3e3e
00000160: 8032 cf3b 62f6 263e 9cd8 763e 6468 823d
00000170: a06a 433e a204 1d3e 9e37 78be b8f0 de3d
00000180: 1c5f 46be 0604 57be c06c d2bc 403d 103c
00000190: 304a 40bd dc73 2f3e baeb 433e ac41 ce3d
000001a0: e0fb 0f3d 30f9 a23d 40df 9f3c 063d 4e3e
000001b0: f44c efbd c024 cabd 605c 843c e844 09bd
000001c0: a45d 56be 3222 54be b0db 7fbe 785b 103d
000001d0: ee19 323e a05e acbc ce5c 113e 4264 10be
000001e0: c0cd a93c 4438 913d a0cd 6abc fab6 583e
000001f0: 30b6 e13d caad 52be 3010 0fbe 5a6a 333e
00000200: 88e6 563d 58e5 75bd e42b 3e3e 2073 debc
00000210: 6ebd 03be 40c1 003c f0c2 5e3d d895 0ebe
00000220: 98c4 63bd 80dd 17bb 10f4 0b3e 9c10 4d3e
00000230: 5493 c8bd 0202 3bbe bc00 e63d ec3f 773e
00000240: e274 55be e052 403c 2a15 093e fca1 f6bd
00000250: 3c72 6d3e 9441 243e 6e11 46be 645a 25be
00000260: a089 5bbc f09e 5bbd d2a6 153e 80b9 0b3e
00000270: f05c 5b3d d40c 65be 4801 a4bd b03c 153e
00000280: 48af 6a3e 9c53 d73d f251 1abe a452 fdbd
00000290: 1484 67be 44bc 6ebe 1ce9 afbd 1084 09be
000002a0: 20dd 78bd 80d7 dd3b 60e7 62bc 2072 dfbc
000002b0: 62df 4ebe b0b1 4abd 087e 2dbd f0d7 29be
000002c0: 98fa 1d3e 88e2 dd3d fa58 713e 2237 66be
000002d0: c874 14be a802 bf3d e49a ccbd 30c9 97bd
000002e0: a476 4abe 2802 6d3e 38f9 e13d ce07 14be
000002f0: 8201 0e3e 9815 103d cc1f dabd 946c 8cbd
00000300: 0020 37ba f0c0 b23c a836 5f3e 2097 c0bc
00000310: 5c96 bbbd 10b6 983d c048 9ebc 7028 863c
00000320: 0c87 df3d 6805 153d 0485 79be f05d 03be
00000330: 8c54 693e 30d6 dd3d b460 e83d 54d0 b0bd
00000340: 2841 943d 34fa 8bbd c0c8 c6bd d89f 64be
00000350: 3c3c 59be b8dd 53be c48c aabd e05e a2bc
00000360: d053 10be a8aa 5fbd 0c74 ab3d 14a1 d2bd
00000370: 04d6 ccbd 387b 79be 20c0 e53c 30d5 5dbd
00000380: e204 5c3e 3218 003e 30cd 113d 68cd fc3d
00000390: 2631 03be e06e b43c 3e0e 3c3e 6864 71be
000003a0: da7a 63be a043 b1bc 8871 49bd e0de 4d3c
000003b0: e050 ca3d e0d4 a53d ba8e 26be 4458 8e3d
000003c0: 9c68 bfbd 3416 9cbd 8ad6 4b3e 9097 0fbd
000003d0: 3e9f 383e 7c9e 73be e64d 593e 7436 d63d
000003e0: 6a1e 02be 6e70 033e f80e 4fbd 84f9 d13d
000003f0: 5473 733e ae78 6dbe 4cd5 81bd 0050 30ba

encoder_layer.linear1.bias f4 [512]
0.03188607 0.13762426 -0.22315302 0.086242825 0.11384866 0.008964449 0.0188514 -0.1006906
0.13698 0.111107916 -0.22875312 -0.20099175 0.115201384 -0.21807235 -0.12497577 -0.21894011
0.16973075 -0.15380514 -0.006782919 0.04097888 -0.011579961 0.15284348 0.21485269 0.1358236
0.22534773 0.09994009 -0.12818342 0.07908231 0.025046647 0.104016095 -0.09239027 -0.022806883
-0.17291412 -0.005366087 -0.0010570884 -0.115675986 0.003235668 0.042033195 0.01441434 0.06736407
-0.11616668 0.14692685 0.09378007 0.22050768 0.05535847 0.14096352 -0.078207016 -0.13236067
0.22980163 0.06616014 -0.22136357 0.13323638 0.07183388 -0.19793174 0.041561157 -0.10819867
0.060146272 0.033198178 -0.15188465 0.029381752 -0.24230707 -0.1510872 0.1626262 0.1614607
0.19547206 -0.22761518 -0.19819173 0.109885335 -0.17147866 -0.24510834 0.15039793 -0.16308156
-0.08207616 0.17670986 0.045214802 -0.07083818 -0.06287286 0.13738027 -0.18523577 -0.23230779
0.16995326 0.23331279 -0.20802319 0.09496847 -0.12690896 -0.22612604 -0.010789394 -0.007948786
0.22331932 -0.22725737 0.054197192 -0.1974071 -0.029310137 -0.13562486 0.064543754 0.13036889
0.013152808 -0.0668132 0.045374215 -0.15181392 0.0600152 -0.21681938 -0.22039935 -0.081481725
-0.1403487 -0.046295404 -0.0030452907 -0.08042082 0.15188888 0.09740195 0.20695984 0.11898881
-0.06930652 0.12019658 -0.1215553 0.10567346 -0.1271061 -0.12389198 0.19616246 0.108822316
0.07778427 -0.17777517 0.13459828 -0.23018825 0.18698877 0.11816993 0.13232642 0.20330098
-0.028164625 0.21522132 0.0025603175 -0.12445083 0.1977137 0.19866318 0.05261138 -0.2174834
0.23045379 -0.0374842 0.03558451 -0.030462742 0.058762997 -0.024560899 0.13975608 0.22355032
-0.109890044 0.11743212 -0.033251703 0.2030366 -0.018025756 -0.2395451 0.06723362 -0.143154
0.23477158 -0.08409858 0.10592914 -0.13077843 -0.15402645 0.07865566 0.16097003 0.06456897
-0.19621247 -0.09880391 0.22799867 0.10979548 0.02267608 -0.06369698 0.17142883 -0.16772354
0.018649042 0.22887751 -0.195586 0.22703823 0.18254343 0.23856154 0.2258923 0.0014249086
-0.22475815 0.16176903 -0.030388951 -0.102671474 0.19729936 -0.104243964 0.044273317 -0.07541382
-0.24737889 0.01431039 0.006395906 0.22977778 0.21552157 0.07021144 -0.10519743 -0.11163014
0.05903855 -0.045995593 0.046553105 -0.039800763 0.060554266 -0.1187264 -0.20431474 0.1068283
-0.027969062 -0.19491976 0.03482887 0.23974928 0.24119338 0.15833327 -0.19847706 0.15546733
0.12081057 -0.1996482 -0.24931759 0.20019251 0.0796763 -0.12346855 -0.019141316 -0.1335487
-0.18385828 0.17822829 0.14362636 -0.029454678 -0.089901 0.13267443 -0.14717993 0.024849236
-0.18935049 -0.124495864 0.18570304 -0.21082985 -0.049614936 0.08489403 0.21918213 -0.20721042
-0.016567945 0.14995062 0.0031062663 -0.14598379 0.008429438 -0.14555001 0.23024842 0.24194628
0.24070376 -0.17578131 0.010071188 0.019416034 0.14832285 -0.13194811 0.10225186 -0.001042366
0.012557864 0.019874841 -0.23572463 0.14055195 -0.04157558 0.17676604 -0.24972597 -0.062446266
00000000: f89a 023d 60ed 0c3e 3a82 64be 14a0 b03d
00000010: 7c29 e93d a0df 123c 406e 9a3c e036 cebd
00000020: 7c44 0c3e 8c8c e33d 423e 6abe c8d0 4dbe
00000030: b4ee eb3d 5c4e 5fbe 4cf3 ffbd d631 60be
00000040: e6cd 2d3e 187f 1dbe 4043 debb 78d9 273d
00000050: e0b9 3dbc 0083 1c3e 5802 5c3e 5815 0b3e
00000060: 8ec1 663e 64ad cc3d 8442 03be e8f5 a13d
00000070: a02e cd3c 6406 d53d 1c37 bdbd 80d5 babc
00000080: 6610 31be 00d6 afbb 008e 8aba 88e7 ecbd
00000090: 800d 543b 002b 2c3d 202a 6c3c 2cf6 893d
000000a0: cce8 edbd fe73 163e c40f c03d c4cc 613e
000000b0: 90bf 623d be58 103e 002b a0bd 8e89 07be
000000c0: 1e51 6b3e f87e 873d 22ad 62be 1e6f 083e
000000d0: a41d 933d 9eae 4abe 083c 2a3d 4497 ddbd
000000e0: f05b 763d d0fa 073d a687 1bbe 00b2 f03c
000000f0: 581f 78be 9ab6 1abe 7c87 263e f455 253e
00000100: d429 483e f413 69be c6f2 4abe 900b e13d
00000110: 1a98 2fbe aefd 7abe ea01 1a3e dafe 26be
00000120: 8c17 a8bd 6ef3 343e 2833 393d 9c13 91bd
00000130: 7cc3 80bd 6aad 0c3e 72ae 3dbe 18e2 6dbe
00000140: 3a08 2e3e 8ce9 6e3e 0804 55be d47e c23d
00000150: 6cf4 01be 968d 67be 00c6 30bc a03b 02bc
00000160: d2ad 643e 28b6 68be e0fd 5d3d 1625 4abe
00000170: d01b f0bc 3ee1 0abe 842f 843d 6c7f 053e
00000180: e07e 573c 5cd5 88bd 50da 393d 1c75 1bbe
00000190: 80d2 753d e605 5ebe 5eb0 61be e4df a6bd
000001a0: 92b7 0fbe 40a0 3dbd 8093 47bb acb3 a4bd
000001b0: c288 1b3e ac7a c73d 48ed 533e 68b0 f33d
000001c0: 94f0 8dbd a029 f63d fcf1 f8bd 546b d83d
000001d0: 1a28 02be 14bb fdbd d0de 483e 3cde de3d
000001e0: 5c4d 9f3d b20a 36be 22d4 093e 78b6 6bbe
000001f0: fc79 3f3e 1403 f23d 9480 073e 222e 503e
00000200: 80b9 e6bc fa62 5c3e 00cb 273b 14e0 febd
00000210: 7675 4a3e 5c6e 4b3e 087f 573d f8b3 5ebe
00000220: 14fc 6b3e 0889 19bd 10c1 113d 008d f9bc
00000230: 78b1 703d f033 c9bc 381c 0f3e 60ea 643e
00000240: 080e e1bd 4080 f03d f032 08bd d4e8 4f3e
00000250: c0aa 93bc 504b 75be c8b1 893d f696 12be
00000260: f667 703e e03b acbd 60f1 d83d c8ea 05be
00000270: 1cb9 1dbe 3816 a13d 54d5 243e bc3c 843d
00000280: eceb 48be b459 cabd 7c78 693e 74dc e03d
00000290: 30c3 b93c 9073 82bd 0a8b 2f3e b8bf 2bbe
000002a0: e0c5 983c de5e 6a3e b247 48be b67c 683e
000002b0: aaec 3a3e 7a49 743e 5050 673e 00c4 ba3a
000002c0: 0027 66be c8a6 253e 40f2 f8bc 6c45 d2bd
000002d0: d808 4a3e dc7d d5bd f057 353d 9072 9abd
000002e0: e450 7dbe 2076 6a3c c094 d13b de4a 6b3e
000002f0: b0b1 5c3e 04cb 8f3d c071 d7bd 589e e4bd
00000300: 68d2 713d e065 3cbd 78ae 3e3d 2006 23bd
00000310: c007 783d d426 f3bd e237 51be ccc8 da3d
00000320: 601f e5bc 0c99 47be b8a8 0e3d d680 753e
00000330: 66fb 763e 1e22 223e 923d 4bbe d432 1f3e
00000340: 886b f73d 9470 4cbe 1c4d 7fbe 44ff 4c3e
00000350: 542d a33d 14dd fcbd 40ce 9cbc fec0 08be
00000360: 5845 3cbe 7a81 363e ca12 133e f04a f1bc
00000370: 041e b8bd cedb 073e 56b6 16be a090 cb3c
00000380: 18e5 41be b0f7 febd f028 3e3e c8e3 57be
00000390: 0839 4bbd ecdc ad3d 4871 603e f82e 54be
000003a0: 80b9 87bc a88c 193e 8092 4b3b c67c 15be
000003b0: a01b 0a3c 100b 15be 3ec6 6b3e c4c0 773e
000003c0: 0c7b 763e 0400 34be a001 253c 600e 9f3c
000003d0: f2e1 173e 681d 07be 6c69 d13d 00a0 88ba
000003e0: 80bf 4d3c 90d0 a23c cc61 71be daec 0f3e
000003f0: 284b 2abd 2802 353e 2ab8 7fbe a8c7 7fbd

encoder_layer.linear2.weight f4 [16, 512]
0.03695881 -0.04186937 -0.0024727397 0.0030020662 0.024748418 0.032410186 0.03378323 -0.016345922
0.02722362 -0.04047784 0.010172453 -0.018145978 0.03085738 0.008862648 -0.007949501 0.013060361
0.031761456 -0.03725496 0.017559 0.003536094 0.024179284 0.032035243 -0.002479162 0.041967276
-0.0020762607 -0.03556075 0.0041330718 0.008000877 -0.034717835 -0.020989252 -0.040664524 0.0019448362
0.044137802 0.015130319 0.027857024 -0.0025044344 0.040193353 0.036776382 0.02411433 0.007858928
0.021448355 -0.020512918 -0.032667607 0.039202567 -0.02995396 -0.029634435 -0.043753263 -0.009199649
0.0021624565 0.000665877 0.006465789 -0.01650461 -0.042007394 0.020294037 -0.0412332 -0.035699256
-0.012426194 0.020987611 0.014429443 -0.030908996 -0.038805377 0.04074281 0.0035909861 -0.0015033036
-0.025994036 0.028850716 -0.04411202 0.024087448 -0.021105519 -0.04371168 -0.022779917 -0.021055564
0.036029276 -0.013584441 0.010576595 0.013385296 0.031024795 -0.035029072 0.023194145 0.029036406
-0.018740127 0.003648758 -0.008238666 -0.043553803 -0.019469393 -0.010975059 0.016642649 0.036552783
0.01104001 -0.035891056 0.015157286 -0.012648959 -0.02548326 -0.025120312 -0.03816887 0.0416965
0.016804136 -0.035574 0.031966727 -0.025931733 -0.041014403 -0.02152783 0.028453212 -0.0011161789
-0.032050192 -0.0019393973 -0.015940275 -0.017589523 -0.014227344 -0.006951537 -0.035654627 0.023322877
-0.0026919357 0.005029831 0.026519742 -0.0321934 -0.0023226328 -0.029510222 -0.043911405 -0.0059976503
-0.015550816 0.04295617 0.00039730594 -0.035982583 0.016708259 0.025008071 0.014013059 -0.037276015
-0.006881021 -0.008055717 0.018121812 -0.022440836 -0.03667532 0.042003963 0.042607974 -0.0058865435
0.0010157079 -0.008649424 0.0047565773 0.023720149 -0.03371321 -0.035994492 0.04322565 0.027988795
0.03148398 0.03650296 -0.03340068 0.024459448 0.007179089 0.0012347028 0.03725158 0.0047351457
0.014155578 -0.012546532 -0.0073101707 0.035468955 0.02679314 -0.014078418 -0.0033461638 0.006858062
-0.04186591 0.019559193 0.04351608 0.019786958 0.03387436 0.014915131 0.0085329525 -0.039733723
-0.00041420385 0.032898683 0.037358355 -0.02036562 -0.015876481 -0.03801675 -0.0027047284 0.0091425255
-0.015252244 0.02284022 0.041100774 0.021680366 0.009365473 -0.007230982 -0.028828766 -0.011935525
0.03790332 -0.0022765845 0.024349716 0.037264604 0.007702753 0.040700134 -0.01589101 0.036686722
0.022636656 0.034844 0.028358925 -0.012976471 0.012653973 0.006192822 0.037127513 0.025415305
-0.043247387 -0.03261671 -6.1288476e-05 0.035803143 -0.011339951 0.029141415 -0.032431953 0.00019659474
0.0038536116 0.036956426 -0.025985355 -0.01841597 -0.010693725 0.035985094 -0.0054517947 -0.03391507
-0.04161088 0.026800256 -0.031276688 0.02319562 -0.01592742 -0.043508258 0.00965482 -0.038687497
-0.03784356 0.035624992 -0.004682567 0.022505198 -0.009426817 -0.025989559 0.009926062 -0.01065094
-0.03826581 -0.033713233 0.016114462 0.0059707426 0.0023828633 -0.031334236 0.035698105 -0.019769737
0.019460883 0.02849726 -0.010251962 -0.020434663 -0.034664825 -0.023688393 -0.035763964 -0.0132519435
0.02822331 0.03286655 0.024617698 0.0044493005 0.01580818 0.04378214 0.027376879 -0.021436177
00000000: 1f62 173d 377f 2bbd b00d 22bb 50be 443b
00000010: 32bd ca3c 8bc0 043d 4960 0a3d e2e7 85bc
00000020: 1204 df3c 17cc 25bd 5caa 263c e0a6 94bc
00000030: 9ec8 fc3c a434 113c a03e 02bc 20fb 553c
00000040: 4d18 023d a898 18bd e4d7 8f3c d0bd 673b
00000050: a213 c63c 6337 033d 7079 22bb e1e5 2b3d
00000060: e011 08bb 26a8 11bd b86e 873b 1c16 033c
00000070: 4a34 0ebd a7f1 abbc d88f 26bd e0e9 fe3a
00000080: d7c9 343d 28e5 773c 6a34 e43c 7021 24bb
00000090: c9a1 243d d5a2 163d 6a8b c53c bcc2 003c
000000a0: 76b4 af3c b50a a8bc 78ce 05bd df92 203d
000000b0: 0262 f5bc eac3 f2bc 9f36 33bd 20ba 16bc
000000c0: 00b8 0d3b 408e 2e3a f8de d33b ad34 87bc
000000d0: f20f 2cbd ae3f a63c 25e4 28bd 6239 12bd
000000e0: 3c97 4bbc 36ee ab3c 7869 6c3c dd34 fdbc
000000f0: 63f2 1ebd efe1 263d c056 6b3b 800a c5ba
00000100: 72f1 d4bc 5658 ec3c ceae 34bd 0a53 c53c
00000110: 7be5 acbc 050b 33bd f39c babc b87c acbc
00000120: 6f93 133d 4691 5ebc 7449 2d3c 004e 5b3c
00000130: b627 fe3c a57a 0fbd a601 be3c c2dd ed3c
00000140: e584 99bc 0020 6f3b 78fb 06bc 7965 32bd
00000150: 477e 9fbc bcd0 33bc 2a56 883c 5fb8 153d
00000160: 28e1 343c 8002 13bd 4456 783c 943d 4fbc
00000170: 45c2 d0bc 1dc9 cdbc f656 1cbd f3c9 2a3d
00000180: d4a8 893c 0bb6 11bd 8bef 023d c96e d4bc
00000190: b8fe 27bd 225b b0bc b616 e93c c04c 92ba
000001a0: 1047 03bd 6033 feba 2e95 82bc e717 90bc
000001b0: ce19 69bc b8c9 e3bb 960a 12bd 9e0f bf3c
000001c0: 306b 30bb 48d1 a43b ee3f d93c 3add 03bd
000001d0: 5037 18bb 6cbf f1bc 72dc 33bd f087 c4bb
000001e0: dac8 7ebc cff2 2f3d 804d d039 7962 13bd
000001f0: c2df 883c badd cc3c 0897 653c bcae 18bd
00000200: 307a e1bb 20fc 03bc 3274 943c d8d5 b7bc
00000210: dc38 16bd 590c 2c3d b385 2e3d e8e3 c0bb
00000220: 8021 853a 50b6 0dbc 10dd 9b3b c250 c23c
00000230: dd16 0abd f66e 13bd 610d 313d c248 e53c
00000240: 59f5 003d 2184 153d 27cf 08bd 2e5f c83c
00000250: 903e eb3b c0d5 a13a 1d95 183d 4829 9b3b
00000260: ccec 673c f88f 4dbc 288a efbb e547 113d
00000270: 4a7d db3c 2aa9 66bc 504b 5bbb 98b9 e03b
00000280: 977b 2bbd 9a3a a03c eb3d 323d 4218 a23c
00000290: d7bf 0a3d 985e 743c cccd 0b3c d4bf 22bd
000002a0: 8029 d9b9 c5c0 063d 1305 193d cdd5 a6bc
000002b0: 650f 82bc 74b7 1bbd d041 31bb 88ca 153c
000002c0: 8ce4 79bc 6a1b bb3c 4959 283d 069b b13c
000002d0: a471 193c e0f1 ecbb 4e2a ecbc 388d 43bc
000002e0: 8340 1b3d c032 15bb 0e79 c73c c5a2 183d
000002f0: 6067 fc3b 2fb5 263d dd2d 82bc d144 163d
00000300: 8270 b93c 95b8 0e3d fa50 e83c 449b 54bc
00000310: 9c52 4f3c 28ed ca3b 0513 183d c233 d03c
00000320: 2c24 31bd 1999 05bd 0088 80b8 51a6 123d
00000330: 34cb 39bc fab9 ee3c 5ed7 04bd 0025 4e39
00000340: e08c 7c3b 9f5f 173d 3ddf d4bc 17dd 96bc
00000350: bc34 2fbc 1b65 133d f8a4 b2bb 87ea 0abd
00000360: 2c70 2abd 368c db3c fc1b 00bd be04 be3c
00000370: 397a 82bc b735 32bd 402f 1e3c c876 1ebd
00000380: d901 1bbd 83eb 113d 3870 99bb d25c b83c
00000390: f072 1abc 0ee8 d4bc eca0 223c 4881 2ebc
000003a0: 9cbc 1cbd e316 0abd 7a02 843c 38a6 c33b
000003b0: d029 1c3b 5458 00bd 2d38 123d 25f4 a1bc
000003c0: 6e6c 9f3c 1673 e93c d8f7 27bc 9866 a7bc
000003d0: b4fc 0dbd 290e c2bc 3c7d 12bd ae1e 59bc
000003e0: 9234 e73c 139f 063d 0eab c93c 70cb 913b
000003f0: 2880 813c e754 333d 7a45 e03c ec9a afbc

encoder_layer.linear2.bias f4 [16]
0.02178527 -0.029911302 0.017389309 0.0169091 0.03426527 -0.02740045 -0.010263786 0.0046442226
-0.030347886 -0.029559638 0.01719375 -0.04384202 -0.027117398 -0.026958894 0.03748418 -0.01689918
00000000: 0677 b23c 8c08 f5bc 0674 8e3c f484 8a3c
00000010: bd59 0c3d e976 e0bc 7029 28bc 902e 983b
00000020: 219c f8bc 0e27 f2bc e8d9 8c3c b193 33bd
00000030: 4e25 debc e6d8 dcbc 0389 193d 2670 8abc

encoder_layer.norm1.weight f4 [16]
1.0 1.0 1.0 1.0 1.0 1.0 1.0 1.0
1.0 1.0 1.0 1.0 1.0 1.0 1.0 1.0
00000000: 0000 803f 0000 803f 0000 803f 0000 803f
00000010: 0000 803f 0000 803f 0000 803f 0000 803f
00000020: 0000 803f 0000 803f 0000 803f 0000 803f
00000030: 0000 803f 0000 803f 0000 803f 0000 803f

encoder_layer.norm1.bias f4 [16]
0.0 0.0 0.0 0.0 0.0 0.0 0.0 0.0
0.0 0.0 0.0 0.0 0.0 0.0 0.0 0.0
00000000: 0000 0000 0000 0000 0000 0000 0000 0000
00000010: 0000 0000 0000 0000 0000 0000 0000 0000
00000020: 0000 0000 0000 0000 0000 0000 0000 0000
00000030: 0000 0000 0000 0000 0000 0000 0000 0000

encoder_layer.norm2.weight f4 [16]
1.0 1.0 1.0 1.0 1.0 1.0 1.0 1.0
1.0 1.0 1.0 1.0 1.0 1.0 1.0 1.0
00000000: 0000 803f 0000 803f 0000 803f 0000 803f
00000010: 0000 803f 0000 803f 0000 803f 0000 803f
00000020: 0000 803f 0000 803f 0000 803f 0000 803f
00000030: 0000 803f 0000 803f 0000 803f 0000 803f

encoder_layer.norm2.bias f4 [16]
0.0 0.0 0.0 0.0 0.0 0.0 0.0 0.0
0.0 0.0 0.0 0.0 0.0 0.0 0.0 0.0
00000000: 0000 0000 0000 0000 0000 0000 0000 0000
00000010: 0000 0000 0000 0000 0000 0000 0000 0000
00000020: 0000 0000 0000 0000 0000 0000 0000 0000
00000030: 0000 0000 0000 0000 0000 0000 0000 0000

transformer_encoder.layers.0.self_attn.in_proj_weight f4 [48, 16]
0.23459207 -0.05772016 0.034466926 0.23409532 -0.14265569 -0.00035790505 0.18910687 0.03106692
0.47036853 -0.24834387 0.06708832 -0.1685606 0.5944271 -0.3569331 0.5524832 -0.32214075
0.015869522 -0.1494653 -0.25856823 0.029055018 0.047560643 -0.027768955 -0.43764517 0.13989417
-0.46778727 0.20986176 -0.27988902 0.37001505 -0.46112043 0.35636762 -0.09715919 0.2693842
-0.12300827 -0.15697859 -0.25526512 -0.22917245 0.2651916 -0.32015708 0.092982806 0.25981688
-0.18256482 0.3791508 -0.50050277 -0.12921499 -0.46627825 0.03532032 -0.17927857 0.20081039
0.09810129 0.20955598 0.05407361 -0.19719277 0.1910114 0.3378454 -0.029065272 -0.18159771
0.15222706 0.06849404 0.45267493 -0.26360026 0.3941892 -0.34600452 0.37936872 -0.40038556
-0.019069012 0.08436833 0.058479067 0.087807596 -0.003690295 0.12669753 -0.059302047 -0.03659001
-0.47740948 0.31175122 -0.21914212 -0.015152582 0.030900823 -0.18613954 -0.31241018 0.21340571
-0.30859053 0.03942528 -0.12456538 -0.029775128 0.15384306 0.034607433 0.09033115 -0.21971884
0.25787747 -0.08060047 0.5108344 -0.052914467 0.49911314 -0.15378454 0.5338308 -0.3596366
0.07238745 -0.07158569 0.18165095 0.16133006 -0.009558606 0.23016419 0.19988503 -0.2598571
0.1748504 -0.43284208 0.10100047 0.0040322132 0.4886415 -0.0035757385 0.30153435 -0.23681137
-0.06026502 0.261828 -0.2007158 -0.17921601 -0.18418975 0.16466239 0.16770186 -0.32898626
0.26586106 -0.049774066 0.14430602 -0.30439344 0.43806872 0.19101046 -0.06507507 0.16646229
0.16085386 0.24918056 0.1822041 0.2493299 -0.06844456 0.2746646 -0.089862615 -0.23297337
0.16619045 -0.18802667 0.51486576 -0.24231437 0.114629656 -0.23851109 0.030508164 0.0693832
-0.23995456 -0.08809146 -0.037564654 0.19828881 -0.17019363 0.18906206 0.079444565 -0.19764267
-0.040567517 -0.20609812 0.41375685 0.11051524 0.45299318 0.01444356 0.48283958 -0.074623935
-0.25549495 0.018151814 -0.15359879 -0.080144025 0.13690597 0.056931693 -0.24212654 0.04475986
0.10461905 0.14574656 -0.48249257 -0.03354718 -0.29106018 0.038184505 -0.15605162 -0.099254996
-0.011112704 -0.13391043 0.2032942 -0.000746357 0.0029903403 -0.28059465 -0.16540892 -0.097667456
-0.44195428 0.3959153 -0.25231254 0.29300085 -0.57304096 0.08933332 -0.15789597 0.047760043
-0.38011625 -0.037369616 -0.12285217 0.19216831 0.04120624 0.22058532 -0.3911219 0.29584318
-0.5807521 0.12377337 -0.03452346 0.18211424 -0.017559675 -0.042858973 -0.20968552 0.09983169
-0.27396977 -0.021829844 -0.24715 0.26129496 0.059142288 -0.41985443 -0.09705 0.26550627
-0.38557273 -0.066255584 -0.0937444 0.3052047 -0.034519393 0.02996577 -0.53185105 0.19864672
0.15037417 0.014137476 0.020143686 -0.21715689 -0.07298294 -0.11533768 0.23619366 0.059082013
-0.09963763 0.024000097 0.29073673 0.16452056 0.36847976 0.039806195 0.043511547 -0.30323684
-0.040972605 0.03321999 0.06738096 0.013584461 -0.036500875 0.3010706 0.07339293 -0.066048376
0.20539202 -0.0328457 0.46250665 -0.31325072 0.38545355 -0.24962468 0.44118777 -0.15592092
00000000: e738 703e f96b 6cbd 312d 0d3d afb6 6f3e
00000010: 5514 12be 34a5 bbb9 3ba5 413e 0e80 fe3c
00000020: 25d4 f03e db4d 7ebe 9a65 893d 269b 2cbe
00000030: 602c 183f efbf b6be 8a6f 0d3f a2ef a4be
00000040: cd00 823c 6e0d 19be 0e63 84be ca04 ee3c
00000050: f3ce 423d b87b e3bc 0713 e0be 6b40 0f3e
00000060: d081 efbe 00e6 563e 9d4d 8fbe 9d72 bd3e
00000070: fa17 ecbe d175 b63e 66fb c6bd baec 893e
00000080: c3eb fbbd ffbe 20be 1cb2 82be 2fac 6abe
00000090: 32c7 873e a1eb a3be c56d be3d b806 853e
000000a0: 46f2 3abe 0e20 c23e f320 00bf ef50 04be
000000b0: 06bc eebe 0aac 103d cd94 37be 3da1 4d3e
000000c0: 54e9 c83d d895 563e 4a7c 5d3d e7ec 49be
000000d0: 7e98 433e 13fa ac3e 4b1a eebc c0f4 39be
000000e0: 69e1 1b3e 9a46 8c3d 02c5 e73e 9df6 86be
000000f0: 2bd3 c93e 8127 b1be 9e3c c23e 56ff ccbe
00000100: 9e36 9cbc 4ec9 ac3d bf87 6f3d 78d4 b33d
00000110: e0d8 71bb ffbc 013e b4e6 72bd 68df 15bd
00000120: 046f f4be db9d 9f3e cb66 60be 8942 78bc
00000130: b923 fd3c 5d9b 3ebe 3af4 9fbe 0787 5a3e
00000140: 94ff 9dbe 677c 213d 221c ffbd f8ea f3bc
00000150: 0989 1d3e 86c0 0d3d 8aff b83d fafd 60be
00000160: 8408 843e dc11 a5bd 0bc6 023f d7bc 58bd
00000170: c28b ff3e b279 1dbe 23a9 083f 4a22 b8be
00000180: df3f 943d 859b 92bd b502 3a3e b533 253e
00000190: b39b 1cbc 29b0 6b3e a9ae 4c3e fd0b 85be
000001a0: fc0b 333e 7a9d ddbe 56d9 ce3d a820 843b
000001b0: 382f fa3e f056 6abb b662 9a3e ae7e 72be
000001c0: 74d8 76bd 520e 863e 7188 4dbe 6784 37be
000001d0: 3d9c 3cbe 429d 283e 09ba 2b3e e370 a8be
000001e0: f11e 883e e4df 4bbd f5c4 133e 75d9 9bbe
000001f0: 8b4a e03e 3f98 433e 1446 85bd 1775 2a3e
00000200: e0b6 243e 3029 7f3e b693 3a3e 5650 7f3e
00000210: a92c 8cbd d7a0 8c3e e409 b8bd 9290 6ebe
00000220: d42d 2a3e 108a 40be 3ece 033f 4221 78be
00000230: f4c2 ea3d 403c 74be 42ec f93c c718 8e3d
00000240: a6b6 75be 4c69 b4bd 65dd 19bd 390c 4b3e
00000250: 3d47 2ebe 7c99 413e d5b3 a23d d762 4abe
00000260: 202a 26bd 630b 53be f0d7 d33e d055 e23d
00000270: b9ee e73e aea4 6c3c c036 f73e 6fd4 98bd
00000280: 3cd0 82be 1db3 943c 0049 1dbe 8d22 a4bd
00000290: 1431 0c3e 3531 693d 05f0 77be 1d56 373d
000002a0: 8342 d63d 963e 153e 4409 f7be c568 09bd
000002b0: d705 95be 5b67 1c3d ffcb 1fbe 3446 cbbd
000002c0: 0f12 36bc d11f 09be 5b2c 503e 2ca7 43ba
000002d0: 96f9 433b 1aaa 8fbe f560 29be e005 c8bd
000002e0: d547 e2be 69b5 ca3e 1c2f 81be 3504 963e
000002f0: d0b2 12bf 63f4 b63d 7baf 21be 09a0 433d
00000300: 999e c2be e210 19bd eb99 fbbd c5c7 443e
00000310: e0c7 283d 1ee1 613e 2141 c8be c278 973e
00000320: 2bac 14bf e57c fd3d 7968 0dbd 287c 3a3e
00000330: 4fd9 8fbc e48c 2fbd cdb7 56be 8f74 cc3d
00000340: c445 8cbe 80d4 b2bc e414 7dbe 74c8 853e
00000350: 2f3f 723d 29f7 d6be 27c2 c6bd 70f0 873e
00000360: ca69 c5be 02b1 87bd 10fd bfbd ca43 9c3e
00000370: 3564 0dbd c67a f53c 6427 08bf 0c6a 4b3e
00000380: b0fb 193e dfa0 673c 5f04 a53c 605e 5ebe
00000390: 1478 95bd 2936 ecbd c0dc 713e fbff 713d
000003a0: d00e ccbd da9b c43c 72db 943e 1478 283e
000003b0: 61a9 bc3e d20b 233d 2a39 323d dc41 9bbe
000003c0: e4d2 27bd af11 083d 07ff 893d 5c91 5e3c
000003d0: f181 15bd ed25 9a3e 084f 963d 5f44 87bd
000003e0: 4952 523e 3689 06bd accd ec3e 6662 a0be
000003f0: 2b5a c53e 9d9d 7fbe 5de3 e13e bca9 1fbe

transformer_encoder.layers.0.self_attn.in_proj_bias f4 [48]
-0.9868275 0.9365154 0.9786192 -1.0317181 0.6753308 -1.0058589 -1.1182877 -0.5437189
-0.65188134 -0.89679605 0.7619936 0.8351253 0.6345499 0.89583033 -0.7226464 -0.8772524
0.006233017 0.0029406424 -0.012381137 0.0013791599 -0.0019359204 0.003315405 0.0027642385 0.0005246564
0.0019691722 0.0023183879 -0.006002544 -0.0033681947 -0.0017959083 -0.0019077656 0.0020373405 0.0023678958
0.14534862 0.06377377 -0.6607829 0.19662689 0.3953712 -0.056043074 -0.6040167 0.3551564
-0.22733222 -0.42535162 -0.5177176 0.37663007 -0.026142249 -0.098309554 0.24502298 -0.38221633
00000000: baa0 7cbf 79bf 6f3f ca86 7a3f 570f 84bf
00000010: 7be2 2c3f fcbf 80bf 0d24 8fbf 2931 0bbf
00000020: b2e1 26bf 6d94 65bf 0312 433f c6ca 553f
00000030: dd71 223f 2355 653f 5bff 38bf 9d93 60bf
00000040: 563e cc3b cbb7 403b 41da 4abc edc4 b43a
00000050: b6be fdba 4447 593b 3a28 353b 1889 093a
00000060: 3a0d 013b 18f0 173b fdb0 c4bb eebc 5cbb
00000070: af64 ebba fe0d faba e784 053b b32e 1b3b
00000080: 45d6 143e d39b 823d 1129 29bf 8f58 493e
00000090: 186e ca3e 6c8d 65bd d7a0 1abf 0fd7 b53e
000000a0: c7c9 68be b0c7 d9be 2489 04bf a8d5 c03e
000000b0: 4528 d6bc 8556 c9bd 4ee7 7a3e dcb1 c3be

transformer_encoder.layers.0.self_attn.out_proj.weight f4 [16, 16]
-0.08554706 0.055932898 -0.26525158 0.14092773 0.23698819 -0.08713127 0.13103074 0.056510396
0.08116937 -0.09536045 0.14884736 -0.20230938 -0.033006545 -0.12352117 0.053008553 0.039573453
0.26158404 0.1651826 -0.13850035 0.11754648 0.0425334 0.06655527 -0.035082463 0.274542
0.12320649 -0.026197275 -0.14827845 0.13812985 -0.09074299 -0.050552543 0.0216247 0.18688425
-0.10368857 0.05903793 0.2800261 -0.015858278 -0.15575418 0.054115403 0.17629354 -0.0032057802
-0.027161364 -0.31412417 -0.34670013 0.13760737 0.0039297836 0.06834957 0.05412582 -0.033969965
-0.0010686645 -0.03403653 -0.18927722 0.22927299 -0.09660163 -0.035013538 -0.28888682 -0.13977118
0.035808887 -0.1694932 -0.020276703 0.11193123 -0.02991641 -0.057359528 -0.012974059 0.18814655
0.07041662 0.040361274 0.09535542 0.022455022 0.093084514 0.03960033 0.10566596 -0.1847134
0.13924505 0.06932142 -0.1158676 0.14049356 0.047091715 -0.12711316 -0.14927292 0.05557092
-0.01380681 0.06653823 -0.2763661 0.113366224 0.018388826 0.0047003557 -0.3709213 0.031815607
0.23353761 0.10921642 0.1606132 -0.36063215 -0.011152066 0.07146049 -0.020174665 0.09923217
0.040900886 0.030658312 -0.42350304 0.015299691 -0.05509186 0.06422518 -0.24685943 -0.015855318
-0.07589921 0.042242743 0.22723202 0.26511458 0.013980351 0.050144862 0.061925016 -0.09475681
-0.053775035 0.073953815 0.24687657 0.0036167298 -0.048568096 0.02528389 0.050521 -0.028165331
0.030427404 0.12386806 0.21183406 -0.2377764 -0.012501163 0.028988384 -0.036064807 -0.0558336
-0.02333385 0.06644142 0.093949586 0.07276141 -0.28169373 0.014297567 0.12188659 -0.16238852
-0.1301946 -0.03638077 0.17732316 -0.003513713 -0.0077308915 -0.051504217 -0.056137472 0.0005154973
-0.055997908 0.029337076 -0.2927694 0.050010566 -0.016831458 -0.033009604 -0.37650198 0.052932043
-0.10533146 -0.014233787 0.08546957 -0.09599324 -0.013551528 -0.099367745 0.00047906366 0.23761292
0.15342093 0.07785027 -0.17811847 -0.040774662 0.2790031 0.07472588 -0.3899795 -0.15730254
0.16694613 -0.028412888 -0.20486222 0.04238248 0.047601804 -0.038904697 -0.18163127 -0.17393348
-0.073605716 0.07109489 -0.06919948 0.13033938 -0.17813945 -0.008534332 -0.22769208 -0.0058222427
-0.25589806 -0.17389093 -0.27341586 -0.041545972 0.03616338 0.19583766 -0.056952246 -0.28270358
-0.023947792 -0.0013884702 0.30150384 0.08366665 -0.14492017 -0.014137193 0.13554044 0.023221504
-0.17992581 -0.27224612 -0.014756338 -0.05243068 -0.038163804 0.029960988 0.042762578 0.00055988826
-0.11937079 0.01855228 -0.051196016 0.050004233 0.1499409 -0.05224105 0.20489284 -0.1352608
-0.020360712 -0.25423792 -0.1957597 0.22896826 -0.12240788 -0.04649292 0.14796436 -0.038166564
-0.0048361127 0.052564647 -0.16287982 0.052184433 0.10859693 0.021498138 -0.053712383 -0.111889064
0.14660712 0.02857619 0.047603887 -0.09495228 -0.01585677 0.1363993 -0.013124058 0.22204751
-0.048223894 -0.081206456 0.05859857 0.051553443 0.08002081 0.071270205 -0.17136201 0.21937813
-0.015729409 -0.17553583 -0.07416128 -0.124658674 -0.037750784 0.06614984 -0.059560087 0.06680078
00000000: 4c33 afbd e519 653d 0ecf 87be 5c4f 103e
00000010: 08ad 723e e171 b2bd ec2c 063e 7277 673d
00000020: 203c a63d 574c c3bd 716b 183e 312a 4fbe
00000030: df31 07bd abf8 fcbd 7f1f 593d c617 223d
00000040: 58ee 853e a125 293e 09d3 0dbe 35bc f03d
00000050: 8137 2e3d 214e 883d a1b2 0fbd c590 8c3e
00000060: af53 fc3d ab9b d6bc 4ed6 17be e971 0d3e
00000070: 76d7 b9bd 2f10 4fbd 4826 b13c 965e 3f3e
00000080: ac5a d4bd c2d1 713d 955f 8f3e 38e9 81bc
00000090: 067e 1fbe 1da8 5d3d 4b86 343e 1118 52bb
000000a0: 8281 debc e2d4 a0be ae82 b1be f2e8 0c3e
000000b0: 6ac5 803b dcfa 8b3d 09b3 5d3d 1724 0bbd
000000c0: 6e12 8cba e369 0bbd e3d1 41be 8ac6 6a3e
000000d0: 13d7 c5bd 5b6a 0fbd f9e8 93be 2d20 0fbe
000000e0: 57ac 123d a08f 2dbe 541b a6bc 333c e53d
000000f0: 4213 f5bc d3f1 6abd 2691 54bc 7da9 403e
00000100: 9736 903d dd51 253d b449 c33d 98f3 b73c
00000110: 18a3 be3d f533 223d 6567 d83d 8225 3dbe
00000120: 4196 0e3e 63f8 8d3d fe4b edbd 8bdd 0f3e
00000130: 3ee3 403d f429 02be 00db 18be 559e 633d
00000140: f535 62bc 3245 883d dc7f 8dbe 8d2c e83d
00000150: 2aa4 963c 7105 9a3b 66e9 bdbe 1551 023d
00000160: 7c24 6f3e dcac df3d c977 243e c7a4 b8be
00000170: 28b7 36bc e159 923d 5745 a5bc 3c3a cb3d
00000180: b087 273d 2427 fb3c 64d5 d8be 8eab 7a3c
00000190: 01a8 61bd 7e88 833d b8c8 7cbe 03e3 81bc
000001a0: 0c71 9bbd ba06 2d3d 83af 683e 19bd 873e
000001b0: d80d 653c b364 4d3d 16a5 7d3d dc0f c2bd
000001c0: 3643 5cbd 1975 973d 36cd 7c3e a806 6d3b
000001d0: 57ef 46bd 2920 cf3c 1cef 4e3d fbba e6bc
000001e0: e442 f93c 8aae fd3d 07eb 583e a87b 73be
000001f0: aed1 4cbc 0c79 ed3c b1b8 13bd c6b1 64bd
00000200: a126 bfbc 7012 883d a468 c03d ef03 953d
00000210: 293a 90be 5840 6a3c ad9f f93d 2d49 26be
00000220: bc51 05be 0104 15bd 3494 353e 5246 66bb
00000230: 6b53 fdbb 16f6 52bd 68f0 65bd 7022 073a
00000240: 105e 65bd 4f54 f03c dfe5 95be e1d7 4c3d
00000250: 20e2 89bc 1435 07bd dec4 c0be 45cf 583d
00000260: 05b8 d7bd d434 69bc ab0a af3d 1b98 c4bd
00000270: 3a07 5ebc 5181 cbbd d62a fb39 cd50 733e
00000280: 601a 1d3e f66f 9f3d b064 36be 5503 27bd
00000290: 7fd9 8e3e e209 993d 65ab c7be eb13 21be
000002a0: edf3 2a3e 25c2 e8bc 67c7 51be 4099 2d3d
000002b0: 1cfa 423d 885a 1fbd 8cfd 39be 9e1b 32be
000002c0: 98be 96bd 339a 913d 75b8 8dbd b077 053e
000002d0: 306a 36be 95d3 0bbc 1d28 69be 83c8 bebb
000002e0: 1205 83be 7710 32be 2afd 8bbe 1c2c 2abd
000002f0: 0d20 143d ab89 483e c246 69bd 86be 90be
00000300: 292e c4bc 54fd b5ba b65e 9a3e 6c59 ab3d
00000310: f465 14be af9f 67bc 1dcb 0a3e 063b be3c
00000320: 793e 38be d863 8bbe 91c4 71bc 8dc1 56bd
00000330: a651 1cbd bf70 f53c d027 2f3d 77c5 123a
00000340: ac78 f4bd f3fa 973c eab2 51bd 3dd1 4c3d
00000350: 1b8a 193e b6fa 55bd 6ecf 513e cf81 0abe
00000360: 82cb a6bc 792b 82be 3b75 48be a876 6a3e
00000370: fcb0 fabd 5c6f 3ebd f883 173e 8b54 1cbd
00000380: 4178 9ebb 074e 573d f8c9 26be 58bf 553d
00000390: 1168 de3d dd1c b03c 8401 5cbd 1826 e5bd
000003a0: 2d20 163e 9d18 ea3c 4bfc 423d 5776 c2bd
000003b0: 0fe6 81bc 42ac 0b3e 4a06 57bc 6c60 633e
000003c0: 6b86 45bd 924f a6bd 0e05 703d b429 533d
000003d0: f3e1 a33d 1df6 913d 8679 2fbe a9a4 603e
000003e0: f6da 80bc aabf 33be dfe1 97bd 0c4d ffbd
000003f0: 91a0 1abd 9179 873d 47f5 73bd d9ce 883d

transformer_encoder.layers.0.self_attn.out_proj.bias f4 [16]
-0.03036719 -0.10064249 0.22653985 0.022549575 0.057583876 -0.13790345 0.014150708 0.04730143
-0.12925214 0.14598294 0.021619158 0.056699947 -0.18849981 0.17377272 -0.22550659 0.18791033
00000000: 9dc4 f8bc a61d cebd 10fa 673e e3b9 b83c
00000010: 12dd 6b3d 9036 0dbe 5fd8 673c 25bf 413d
00000020: ac5a 04be 8d7c 153e a91a b13c 343e 683d
00000030: 1806 41be 7af1 313e 33eb 66be 916b 403e
