预测论文/save_model_para/best_model_seq16.pt (torch, 474908 bytes, 25 tensors)

encoder_layer.self_attn.in_proj_weight f4 [48, 16]
-0.28024825 0.008581638 -0.06426923 -0.09192276 0.03619039 -0.12884794 -0.23450541 -0.060476378
-0.05348596 0.14324641 0.07631236 -0.10687183 0.018932283 -0.08945951 0.088582635 0.16165331
0.062959045 -0.07988359 0.046838433 0.08993462 -0.15600638 0.27603713 -0.23601845 0.12612543
-0.07663083 0.24114135 0.23910376 -0.085450396 0.029501796 -0.08666037 0.2944233 -0.25870886
-0.10746431 -0.16540848 -0.06495412 -0.17435592 0.25415358 -0.16101477 -0.26909798 -0.16113977
0.0337331 -0.2151517 -0.28866956 0.15671 -0.21809588 0.28916338 0.23424551 0.25034788
0.08500707 -0.049723655 0.059135526 0.07283926 0.2700716 0.01595363 0.05701059 0.24484
0.23655221 0.20664373 0.17721447 -0.15950023 0.10756591 -0.03532785 -0.12561369 -0.23909791
0.18498152 0.11512813 -0.075781584 -0.20035334 0.115248084 -0.28244063 0.08850458 0.24655792
-0.11611374 0.027449936 0.043933153 -0.041901976 0.13214087 0.02249524 -0.2605424 -0.18800706
0.13666296 -0.026525527 0.30496648 0.10151535 0.2249454 -0.025806427 -0.2867615 0.09097046
-0.21122107 0.04159975 0.21708229 -0.2142506 0.20910612 0.12837338 0.30085096 0.2517915
-0.08528289 -0.2386621 -0.2145105 -0.1726735 0.22071627 -0.15249301 0.12329641 -0.13720869
-0.207529 -0.017788708 0.112954915 0.19158119 0.2786775 -0.16856053 0.12208745 -0.07294756
-0.29083753 0.03623721 0.21893421 0.11756793 0.09690246 0.2072244 0.14217669 0.02776733
-0.2368311 -0.30086628 0.08288264 -0.119135946 0.12309441 -0.23779076 0.23351243 -0.033721298
0.1612589 -0.18230583 -0.29209635 -0.048091173 0.00832665 0.25510195 0.18579707 -0.30420172
-0.16256332 -0.07457529 -0.30435553 0.28170612 0.040973753 0.060950667 0.23356721 -0.26528454
0.21909896 -0.07663445 0.039285153 -0.11795682 -0.14430733 0.082604766 0.09472215 0.18329656
-0.16615845 -0.19635634 0.27410325 0.21658167 0.013350666 0.2714785 0.20925704 0.18006384
0.09072888 -0.1822192 -0.17235331 0.16431016 -0.2943972 -0.030032933 0.08969951 0.15009788
-0.2850622 0.21582916 0.17290172 0.24595055 -0.18685146 -0.24356681 -0.08814378 -0.1833716
0.009714335 0.1384007 -0.18432608 0.013658017 0.24158928 -0.16691141 0.20635483 0.024905205
-0.2938477 -0.07693003 -0.0036983788 0.010804653 0.09880185 0.30109778 0.014033675 -0.078391165
-0.24253729 -0.08908217 -0.3003711 0.21057644 0.068000644 0.031118542 -0.18798023 -0.27563494
-0.17116982 -0.14766797 -0.28552088 -0.29789716 0.16732988 0.15884385 -0.0942357 0.1860415
-0.10733622 0.12022942 0.032692403 -0.098301396 0.22363272 0.009546161 -0.24359989 -0.025911927
0.095970094 -0.06128636 0.02640739 0.16429505 -0.22136796 -0.036128074 -0.020518601 -0.030428141
-0.009661108 0.18675211 0.14692494 -0.047526598 0.17466274 0.1812514 -0.08462231 0.23154286
0.24071184 0.30359045 0.06157741 -0.17289902 0.07144806 0.12076172 0.17651364 -0.24544549
-0.031642765 -0.2014724 0.034578115 0.2768354 -0.1745277 -0.05047238 -0.019832969 -0.004383266
0.1759179 0.2682164 0.11941671 0.25438097 0.27088073 0.08279517 -0.2072547 -0.27735052
00000000: b37c 8fbe 009a 0c3c 969f 83bd 0042 bcbd
00000010: 603c 143d b7f0 03be 3022 70be 14b6 77bd
00000020: 1814 5bbd 30af 123e a849 9c3d 9edf dabd
00000030: e017 9b3c 8c36 b7bd d06a b53d 7288 253e
00000040: acf0 803d 029a a3bd a8d9 3f3d a42f b83d
00000050: 23c0 1fbe bd54 8d3e d2ae 71be 0627 013e
00000060: a0f0 9cbd c2ed 763e 9ed7 743e 9e00 afbd
00000070: c0ad f13c fe7a b1bd a7be 963e 7d75 84be
00000080: 4016 dcbd d760 29be aa06 85bd 5c8a 32be
00000090: 6b20 823e 0ee1 24be 36c7 89be d301 25be
000000a0: b82b 0a3d ba50 5cbe 7fcc 93be 9678 203e
000000b0: 8754 5fbe 390d 943e 0ede 6f3e 992d 803e
000000c0: 3018 ae3d 08ab 4bbd 1838 723d c02c 953d
000000d0: d346 8a3e 30b1 823c f083 693d 56b7 7a3e
000000e0: be3a 723e 6a9a 533e b677 353e 0754 23be
000000f0: 844b dc3d f0b3 10bd e0a0 00be 15d6 74be
00000100: cc6b 3d3e 4cc8 eb3d 6033 9bbd 6d29 4dbe
00000110: 3007 ec3d 0f9c 90be e441 b53d ae79 7c3e
00000120: 0acd edbd b0de e03c 40f3 333d 68a1 2bbd
00000130: f04f 073e f047 b83c d065 85be ec84 40be
00000140: 60f1 0b3e 104c d9bc 9124 9c3e 48e7 cf3d
00000150: 1658 663e 0068 d3bc 67d2 92be b84e ba3d
00000160: 564a 58be 8064 2a3d d24a 5e3e 8264 5bbe
00000170: ea1f 563e 5074 033e 2309 9a3e d1ea 803e
00000180: cca8 aebd d663 74be a4a8 5bbe 52d1 30be
00000190: 7203 623e 2127 1cbe d482 fc3d 6f80 0cbe
000001a0: 7b82 54be a0b9 91bc e854 e73d dc2d 443e
000001b0: d1ae 8e3e 229b 2cbe fc08 fa3d 8865 95bd
000001c0: a8e8 94be 786d 143d 4a30 603e 74c7 f03d
000001d0: cc74 c63d a232 543e c496 113e 5078 e33c
000001e0: da83 72be 250b 9abe 60be a93d 8cfd f3bd
000001f0: ec18 fc3d 6c7f 73be e21d 6f3e 581f 0abd
00000200: 0e21 253e 61ae 3abe a78d 95be 40fb 44bd
00000210: 806c 083c b99c 823e 9641 3e3e 54c0 9bbe
00000220: 0077 26be eeba 98bd 7dd4 9bbe c93b 903e
00000230: 18d4 273d 68a7 793d 3e2c 6f3e 60d3 87be
00000240: 7a5b 603e 86f2 9cbd 78e9 203d 5893 f1bd
00000250: 4dc5 13be b02c a93d b0fd c13d 18b2 3b3e
00000260: 7125 2abe a311 49be 4357 8c3e 96c7 5d3e
00000270: c0bc 5a3c 3bff 8a3e 7a47 563e a862 383e
00000280: 10d0 b93d ac97 3abe 637d 30be ec40 283e
00000290: 3bbb 96be a007 f6bc 60b4 b73d 42b3 193e
000002a0: acf3 91be 5202 5d3e 260d 313e 76da 7b3e
000002b0: fd55 3fbe 9469 79be ba84 b4bd c4c5 3bbe
000002c0: e028 1f3c eab8 0d3e fabf 3cbe e0c5 5f3c
000002d0: 2e63 773e d3ea 2abe ae4e 533e 0006 cc3c
000002e0: 3573 96be 7e8d 9dbd 8060 72bb 0006 313c
000002f0: a058 ca3d 7d29 9a3e 80ed 653c 8c8b a0bd
00000300: b25b 78be b670 b6bd 3eca 99be 5aa1 573e
00000310: ec43 8b3d 50ec fe3c e47d 40be 0620 8dbe
00000320: 2447 2fbe 4636 17be cb2f 92be fa85 98be
00000330: 8658 2b3e f6a7 223e a6fe c0bd aa81 3e3e
00000340: 18d3 dbbd d83a f63d 78e8 053d 3e52 c9bd
00000350: faff 643e 8067 1c3c 4072 79be 4045 d4bc
00000360: f88b c43d 6807 7bbd 5054 d83c f63c 283e
00000370: 48ae 62be 08fb 13bd a016 a8bc 7044 f9bc
00000380: a049 1ebc f23b 3f3e 7e73 163e 40ab 42bd
00000390: cada 323e f899 393e 764e adbd 9219 6d3e
000003a0: 2a7d 763e 3570 9b3e 9838 7c3d 710c 31be
000003b0: 5c53 923d ec51 f73d febf 343e 1056 7bbe
000003c0: d89b 01bd c84e 4ebe c8a1 0d3d 5fbd 8d3e
000003d0: 64b7 32be 20bc 4ebd c078 a2bc 80a1 8fbb
000003e0: d223 343e a953 893e c090 f43d 393e 823e
000003f0: e1b0 8a3e 8490 a93d 933a 54be e300 8ebe

encoder_layer.self_attn.in_proj_bias f4 [48]
0.0 0.0 0.0 0.0 0.0 0.0 0.0 0.0
0.0 0.0 0.0 0.0 0.0 0.0 0.0 0.0
0.0 0.0 0.0 0.0 0.0 0.0 0.0 0.0
0.0 0.0 0.0 0.0 0.0 0.0 0.0 0.0
0.0 0.0 0.0 0.0 0.0 0.0 0.0 0.0
0.0 0.0 0.0 0.0 0.0 0.0 0.0 0.0
00000000: 0000 0000 0000 0000 0000 0000 0000 0000
00000010: 0000 0000 0000 0000 0000 0000 0000 0000
00000020: 0000 0000 0000 0000 0000 0000 0000 0000
00000030: 0000 0000 0000 0000 0000 0000 0000 0000
00000040: 0000 0000 0000 0000 0000 0000 0000 0000
00000050: 0000 0000 0000 0000 0000 0000 0000 0000
00000060: 0000 0000 0000 0000 0000 0000 0000 0000
00000070: 0000 0000 0000 0000 0000 0000 0000 0000
00000080: 0000 0000 0000 0000 0000 0000 0000 0000
00000090: 0000 0000 0000 0000 0000 0000 0000 0000
000000a0: 0000 0000 0000 0000 0000 0000 0000 0000
000000b0: 0000 0000 0000 0000 0000 0000 0000 0000

encoder_layer.self_attn.out_proj.weight f4 [16, 16]
-0.18878445 -0.15935448 -0.12037158 0.14038557 -0.13244212 0.19027111 0.14004871 0.15319735
-0.0179272 0.013520658 0.23293057 -0.090928644 -0.08288556 -0.1525492 0.045487136 0.10939714
0.149468 -0.12539819 0.18212548 -0.026256382 -0.08321208 -0.13336235 -0.24821219 -0.16751036
-0.05905223 0.09049082 -0.14254385 0.04759541 -0.22274289 -0.03894332 -0.24586937 0.13970509
-0.06674731 -0.15070048 0.11594701 -0.08518231 0.021179289 -0.22486669 0.038692445 0.0737811
-0.014717102 -0.23823056 -0.020967782 -0.01741606 0.04258731 -0.13526395 -0.1065633 0.19036132
-0.24662513 0.024835706 0.18233961 0.061892897 0.06741318 0.009835035 0.1288034 0.07548958
-0.19620225 0.16957217 0.10128763 -0.2482534 -0.10884774 -0.17770052 0.081270725 -0.0499731
-0.14941058 0.08429235 -0.1206187 -0.060257137 0.034498453 -0.027688473 0.09539369 0.06130001
-0.13686708 0.21507284 -0.20437807 -0.049143314 0.16679373 0.06113243 -0.02665016 0.19767165
0.18673536 0.058918 0.09289029 0.23556721 -0.05438617 -0.007893205 -0.12285009 -0.18629146
0.22443375 0.029560924 -0.09644988 0.1315014 -0.021017015 -0.0345245 -0.19244638 0.1427854
0.22254616 -0.20840356 0.18907389 0.006840974 -0.088309705 0.19673216 0.053467333 0.21733537
-0.07266581 -0.04962212 0.1993685 -0.065917194 -0.064647466 -0.01868844 -0.07025939 0.04028541
0.052694142 -0.08289704 0.11473921 -0.17616668 0.002025783 -0.055303544 -0.0077658594 0.14633596
0.17485577 0.21266529 0.14808542 0.15234798 -0.15875211 0.113277584 -0.22152266 0.23941916
-0.23847607 0.10952309 -0.03561306 -0.19300675 0.022346556 -0.20683917 0.008771092 0.035093665
0.06574488 -0.17679498 -0.24620923 -0.22306278 0.09444487 -0.039150774 -0.094150305 0.068635166
0.05092469 -0.17290294 0.04416603 0.049751192 -0.103328645 0.09731689 0.11478537 -0.012458444
0.13761231 -0.2176108 0.19372839 0.10346612 -0.20225939 -0.1312738 0.20369321 0.1683828
-0.058303952 -0.13789138 -0.0857009 -0.24493611 -0.092345715 0.1987217 0.14164412 -0.07502109
0.14732224 0.13868019 -0.02924347 -0.0077675283 -0.10165146 0.23341876 0.08276346 -0.22243178
-0.24152166 0.2485573 -0.1478697 0.14562422 -0.17610359 -0.13682276 0.12294924 -0.10481331
-0.18425426 -0.055832297 -0.16897598 -0.07623783 -0.15529099 0.22714141 0.017439932 -0.23594698
-0.12936953 -0.07276362 0.07852119 0.19148555 -0.14860108 0.0585683 0.05262372 0.15240869
0.1667718 -0.05329573 0.008756161 0.008700073 -0.019758373 -0.111175895 0.073771864 -0.08145785
0.01575473 0.19742131 0.19170722 0.08557838 0.14610603 -0.1653237 -0.11981088 -0.20298424
0.09145704 -0.0053525567 -0.037704945 -0.014518708 0.14597544 -0.22496074 -0.1514493 0.20786807
-0.0038291216 -0.22260734 -0.14148036 0.0033997297 0.15405121 -0.032685578 -0.15123793 -0.14071417
0.22353911 -0.18463522 -0.091385186 0.0116580725 0.15491116 -0.152432 0.0074450076 -0.13191071
0.048124403 -0.12682575 0.23823655 0.16451237 -0.038738996 0.14028236 0.1404593 -0.22763109
-0.21255979 0.010473788 0.034345895 0.14666033 -0.19147411 -0.1957368 -0.078419864 0.10857272
00000000: b650 41be d22d 23be 6085 f6bd 3cc1 0f3e
00000010: e89e 07be 6ed6 423e ee68 0f3e c4df 1c3e
00000020: 10dc 92bc c085 5d3c 5a85 6e3e cc38 babd
00000030: e8bf a9bd dc35 1cbe b850 3a3d 9c0b e03d
00000040: 240e 193e 6268 00be 1a7f 3a3e a017 d7bc
00000050: 186b aabd 2490 08be 562b 7ebe d687 2bbe
00000060: c0e0 71bd 4053 b93d 04f7 11be 68f3 423d
00000070: b616 64be 0883 1fbd 2ec5 7bbe da0e 0f3e
00000080: d0b2 88bd 3a51 1abe a075 ed3d 1074 aebd
00000090: 3080 ad3c 7443 66be f87b 1e3d 8c1a 973d
000000a0: 0020 71bc b6f2 73be a0c4 abbc 20ac 8ebc
000000b0: 0870 2e3d a282 0abe dc3d dabd 14ee 423e
000000c0: 4c8b 7cbe 4074 cb3c 3cb7 3a3e 6883 7d3d
000000d0: ec0f 8a3d 2023 213c 0ae5 033e 489a 9a3d
000000e0: 3ee9 48be 54a4 2d3e e46f cf3d 2436 7ebe
000000f0: 90eb debd 20f7 35be 4471 a63d 98b0 4cbd
00000100: 16ff 18be 78a1 ac3d f006 f7bd 30d0 76bd
00000110: 404e 0d3d f0d2 e2bc c45d c33d b815 7b3d
00000120: e226 0cbe 0e3c 5c3e 7c48 51be 804a 49bd
00000130: facb 2a3e 0066 7a3d 7051 dabc 706a 4a3e
00000140: 8e37 3f3e 0054 713d 443d be3d 8838 713e
00000150: 08c4 5ebd 8052 01bc d498 fbbd 30c3 3ebe
00000160: f6d1 653e c029 f23c 8487 c5bd 4ea8 063e
00000170: e02b acbc 9069 0dbd aa10 45be 5636 123e
00000180: 24e3 633e be67 55be 969c 413e 402a e03b
00000190: b8db b4bd 2874 493e 9000 5b3d 2a8d 5e3e
000001a0: d0d1 94bd 9040 4bbd 4227 4c3e 98ff 86bd
000001b0: e465 84bd 8018 99bc 28e4 8fbd 5002 253d
000001c0: d0d5 573d ecc5 a9bd 64fc ea3d 0a65 34be
000001d0: 00c3 043b f885 62bd c078 febb 18d9 153e
000001e0: 640d 333e eec4 593e b4a3 173e 1c01 1c3e
000001f0: ea8f 22be 14fe e73d d6d6 62be 4c2a 753e
00000200: 1233 74be a44d e03d 00df 11bd 90a3 45be
00000210: 2010 b73c a6cd 53be a0b4 0f3c 60be 0f3d
00000220: 40a5 863d be09 35be 461e 7cbe 926a 64be
00000230: 506c c13d 905c 20bd e0d1 c0bd 9890 8c3d
00000240: 6896 503d 780d 31be 70e7 343d e8c7 4b3d
00000250: f89d d3bd 144e c73d 9814 eb3d 801e 4cbc
00000260: 3eea 0c3e 5ed5 5ebe bc60 463e 0ce6 d33d
00000270: 161d 4fbe a46c 06be f494 503e 8a6c 2c3e
00000280: 20d0 6ebd 6633 0dbe f483 afbd 88d0 7abe
00000290: c01f bdbd b47d 4b3e 280b 113e a8a4 99bd
000002a0: a4db 163e 2e02 0e3e 0090 efbc c086 febb
000002b0: a42e d0bd 5405 6f3e e47f a93d 28c5 63be
000002c0: 7451 77be ce85 7e3e 286b 17be 841e 153e
000002d0: 8054 34be 441b 0cbe d0cc fb3d 5ca8 d6bd
000002e0: 26ad 3cbe 68b0 64bd 0a08 2dbe 9422 9cbd
000002f0: 9a04 1fbe c297 683e 30de 8e3c 169c 71be
00000300: 7279 04be 1805 95bd b8cf a03d ca14 443e
00000310: e22a 18be 50e5 6f3d f88b 573d 0611 1c3e
00000320: 3ac6 2a3e a04c 5abd 0076 0f3c c08a 0e3c
00000330: 50dc a1bc 30b0 e3bd b415 973d 60d3 a6bd
00000340: 1010 813c d028 4a3e e64e 443e b843 af3d
00000350: d29c 153e 9e4a 29be 685f f5bd 1adb 4fbe
00000360: d44d bb3d 8064 afbb 8070 1abd e0df 6dbc
00000370: 967a 153e 1c5c 66be 8615 1bbe 5edb 543e
00000380: 00f2 7abb 2ef3 63be 3ae0 10be 00ce 5e3b
00000390: 9abf 1d3e 50e1 05bd 1ede 1abe 6017 10be
000003a0: 70e7 643e 0411 3dbe 2828 bbbd 8001 3f3c
000003b0: 08a1 1e3e 2217 1cbe 40f5 f33b 9a13 07be
000003c0: 181e 453d 9cde 01be 48f4 733e ee75 283e
000003d0: c8ac 1ebd 2ea6 0f3e 90d4 0f3e 2018 69be
000003e0: 46a9 59be 409a 2b3c 48ae 0c3d 202e 163e
000003f0: ca11 44be 3a6f 48be 989a a0bd 605b de3d

encoder_layer.self_attn.out_proj.bias f4 [16]
0.0 0.0 0.0 0.0 0.0 0.0 0.0 0.0
0.0 0.0 0.0 0.0 0.0 0.0 0.0 0.0
00000000: 0000 0000 0000 0000 0000 0000 0000 0000
00000010: 0000 0000 0000 0000 0000 0000 0000 0000
00000020: 0000 0000 0000 0000 0000 0000 0000 0000
00000030: 0000 0000 0000 0000 0000 0000 0000 0000

encoder_layer.linear1.weight f4 [512, 16]
-0.013839394 0.062271267 0.17017448 -0.15504631 -0.23306689 0.16344312 -0.09402004 0.1825495
-0.15842956 0.04630214 0.020505816 -0.07951301 0.09979552 -0.09807101 -0.08972448 -0.18285522
-0.19718713 -0.2051943 -0.24105331 0.13152143 0.017162412 -0.12807605 -0.017256647 0.24495444
-0.042775124 -0.027958095 0.24518123 -0.20785648 0.24464554 -0.11321497 0.20673376 0.06767121
0.0014602542 -0.2071329 -0.011461616 -0.1815635 -0.1778267 -0.0024172068 -0.03055039 0.07797545
0.16132611 -0.16079125 0.018622011 -0.2262733 0.010669023 0.043950677 -0.0009422004 0.2293891
0.012985408 -0.066770405 -0.18589577 -0.010337263 0.033338875 -0.1464954 0.18304479 -0.07332295
-0.14619261 0.24150577 -0.110278875 0.019775629 0.11246601 -0.175535 0.23591483 0.18544775
-0.18506318 -0.23831844 0.20408967 -0.23016384 0.09755233 -0.05708289 0.030267358 -0.0113526285
0.14737365 -0.23004955 0.102030575 0.0035505593 -0.18082374 0.035425425 -0.1238195 -0.19681194
-0.098145545 -0.24700144 -0.21305618 0.2382471 -0.07822928 0.19660133 -0.18872887 0.1486888
0.018810242 -0.18998736 0.064728916 0.13199839 0.05566746 -0.11509305 0.13511285 -0.22207895
-0.103719145 -0.06732643 -0.08716434 -0.21383408 0.07918641 -0.11560896 0.19436824 -0.18483889
-0.166091 -0.063332796 -0.1917054 -0.03856513 0.22885135 0.16721538 0.040941715 -0.16738582
0.15790468 -0.17208633 0.1361886 0.022354603 -0.0018354952 -0.2312063 0.18946072 0.23511305
0.24305516 -0.23906517 -0.053474784 0.20351526 0.06889406 0.08976358 0.05512157 -0.15316796
-0.07406038 0.05137813 -0.21006903 0.16466951 0.012302786 -0.12332103 -0.061612576 -0.002623409
0.10686162 -0.002843827 -0.08253458 -0.0401721 -0.036836833 0.08545646 0.06286669 0.09909731
0.101979285 -0.09292492 -0.16260749 -0.06977573 -0.022080898 -0.20822206 0.2282789 -0.09104985
0.06703898 -0.18088743 0.20917225 0.11527631 -0.24156618 -0.014218777 0.12888554 -0.062369317
-0.20507467 0.1931198 0.24612978 -0.24427551 0.04660964 0.21418616 -0.01946655 -0.051919997
0.16990596 -0.12227899 0.05917573 0.078409135 0.09130135 -0.039054036 -0.13165551 -0.1117422
-0.21903494 -0.016530573 -0.1627473 -0.1550642 -0.13978478 -0.14426476 0.020197392 0.020863146
-0.12551543 0.18324044 0.0788002 0.11413661 0.112767875 -0.0016057193 -0.023449719 -0.07306674
-0.017091423 -0.21073058 -0.23959327 -0.219405 -0.07881716 -0.052836716 -0.075675845 0.0866099
0.1734933 -0.009025276 0.1828439 -0.1883252 -0.08245224 0.12290195 0.20440927 0.058288425
0.13870233 -0.023895234 -0.029091626 -0.24467072 -0.040884614 0.07381931 0.07956356 -0.16306093
0.087625325 -0.08908549 0.04024622 0.021089077 0.11954734 0.06533581 -0.084834844 0.12338206
0.090780854 0.076063186 -0.12160668 0.02800408 0.22221398 -0.20108628 -0.070325315 -0.16932407
-0.02379468 -0.24405122 -0.2394743 -0.24528873 0.12533212 -0.10330996 -0.06129703 0.1893419
0.06757715 0.24982098 0.2223593 0.11482018 0.053394377 -0.16060257 0.24817473 -0.023554385
-0.13226905 -0.20177227 -0.21124992 0.10804117 -0.06479707 0.10837197 0.004854381 0.098490596
00000000: a0be 62bc 2810 7f3d 3842 2e3e 76c4 1ebe
00000010: 16a9 6ebe a25d 273e 948d c0bd 42ee 3a3e
00000020: 5c3b 22be 50a7 3d3d d0fb a73c b8d7 a2bd
00000030: 9861 cc3d 74d9 c8bd 78c1 b7bd 663e 3bbe
00000040: 6ceb 49be 741e 52be aed6 76be 8ead 063e
00000050: 3098 8c3c 5e26 03be d05d 8dbc 56d5 7a3e
00000060: f834 2fbd 6008 e5bc ca10 7b3e 54d8 54be
00000070: 5c84 7a3e 40dd e7bd 04b2 533e 3497 8a3d
00000080: 0066 bf3a a61a 54be 80c9 3bbc c8eb 39be
00000090: 3418 36be 006a 1ebb d044 fabc 98b1 9f3d
000000a0: ac32 253e 76a6 24be 308d 983c 30b4 67be
000000b0: 20cd 2e3c a005 343d 00fe 76ba fae4 6a3e
000000c0: c0c0 543c ecbe 88bd 765b 3ebe a05d 29bc
000000d0: 588e 083d e402 16be 1870 3b3e 582a 96bd
000000e0: 84b3 15be 4a4d 773e e4d9 e1bd 8000 a23c
000000f0: 9454 e63d 72bf 33be a893 713e 04e6 3d3e
00000100: 3481 3dbe c009 74be e2fc 503e 12b0 6bbe
00000110: 84c9 c73d c0cf 69bd 40f3 f73c 6000 3abc
00000120: 1ee9 163e 1c92 6bbe 68f5 d03d 80b0 683b
00000130: dc29 39be 401a 113d 1495 fdbd 1289 49be
00000140: 8800 c9bd f2ed 7cbe 662b 5abe 0cf7 733e
00000150: ac36 a0bd dc51 493e 2442 41be e041 183e
00000160: f017 9a3c 0c8c 42be 9890 843d 962a 073e
00000170: 9003 643d e8b5 ebbd 065b 0a3e aa68 63be
00000180: b46a d4bd 70e2 89bd 3883 b2bd 52f7 5abe
00000190: 7c2c a23d 64c4 ecbd 7808 473e 6846 3dbe
000001a0: c213 2abe a0b4 81bd 6c4e 44be 78f6 1dbd
000001b0: 0258 6a3e 823a 2b3e 80b2 273d 3067 2bbe
000001c0: c4b1 213e 6637 30be 0675 0b3e 0021 b73c
000001d0: 0095 f0ba 58c1 6cbe fe01 423e 7ac1 703e
000001e0: 74e3 783e 80cd 74be 6008 5bbd 4e66 503e
000001f0: 5418 8d3d f8d5 b73d 28c7 613d 10d8 1cbe
00000200: f8ac 97bd e071 523d 561c 57be 209f 283e
00000210: a091 493c bc8f fcbd 785d 7cbd 80ed 2bbb
00000220: 44da da3d 805f 3abb e407 a9bd 808b 24bd
00000230: 38e2 16bd cc03 af3d 40c0 803d 88f3 ca3d
00000240: 84da d03d 6c4f bebd 9482 26be 94e6 8ebd
00000250: 00e3 b4bc 2a38 55be f2c1 693e 5878 babd
00000260: bc4b 893d 8e3a 39be 4031 563e fc15 ec3d
00000270: 205d 77be e0f5 68bc 92fa 033e f876 7fbd
00000280: 18ff 51be 32c1 453e 7209 7c3e 5c23 7abe
00000290: c0e9 3e3d 9e53 5b3e 5078 9fbc 10aa 54bd
000002a0: d4fb 2d3e 686d fabd 4062 723d f894 a03d
000002b0: 34fc ba3d 20f7 1fbd b4d0 06be 18d9 e4bd
000002c0: b24a 60be 206b 87bc 3aa7 26be 26c9 1ebe
000002d0: be23 0fbe 24ba 13be 0075 a53c 30e9 aa3c
000002e0: 1e87 00be 62a3 3b3e 0062 a13d 74c0 e93d
000002f0: d8f2 e63d 0077 d2ba a019 c0bc 04a4 95bd
00000300: 5003 8cbc c2c9 57be f057 75be b4ab 60be
00000310: e46a a1bd 506b 58bd f0fb 9abd 8860 b13d
00000320: 3aa8 313e c0de 13bc 6e3b 3b3e 52d8 40be
00000330: b8dc a8bd 04b4 fb3d aa50 513e d8bf 6e3d
00000340: fc07 0e3e f0bf c3bc 9051 eebc f68a 7abe
00000350: a076 27bd 942e 973d 38f2 a23d 72f9 26be
00000360: e874 b33d 7472 b6bd 38d9 243d 00c3 ac3c
00000370: 3cd5 f43d c8ce 853d e4bd adbd bcaf fc3d
00000380: 50eb b93d 04c7 9b3d ec0c f9bd d068 e53c
00000390: 108c 633e 90e9 4dbe b806 90bd 4a63 2dbe
000003a0: 10ed c2bc 90e8 79be c038 75be f82c 7bbe
000003b0: 1057 003e 2c94 d3bd 9812 7bbd d8e2 413e
000003c0: e465 8a3d 12d1 7f3e 28b2 633e d826 eb3d
000003d0: 10b4 5a3d 0075 24be 8421 7e3e 20f5 c0bc
000003e0: 8a71 07be 649d 4ebe e651 58be b044 dd3d
000003f0: 54b4 84bd 20f2 dd3d 8011 9f3b 70b5 c93d

encoder_layer.linear1.bias f4 [512]
-0.14401498 -0.088707924 -0.1939412 -0.1774289 -0.14209935 0.08738628 -0.091804534 0.07971656
-0.12746885 -0.17383227 -0.029973894 0.24707094 0.18539107 0.14746687 -0.22881186 -0.21931687
-0.08106074 -0.14828038 0.24023485 0.06471673 -0.14235273 -0.17154384 0.21287823 -0.06780714
-0.249789 0.10065755 -0.06021771 -0.03574893 -0.104471385 0.14783433 0.21079624 -0.08110124
-0.17819223 0.2122455 -0.22807568 0.1717678 -0.19231248 0.04641232 0.18870574 0.11137232
-0.08975437 0.099861056 -0.10346845 -0.0022247732 -0.21902439 0.09235221 -0.018235266 -0.16085544
0.097611785 0.03090784 0.03286743 0.1555022 -0.24225801 -0.0965915 0.12535194 0.011676133
0.042183697 0.05758196 -0.15919602 -0.23041657 -0.014997423 0.09620094 -0.24160638 -0.18745929
-0.23604941 0.13754782 0.1569106 -0.021363646 0.17922667 0.023402363 -0.16012979 -0.2162394
0.22583312 0.24009314 -0.003327936 -0.1757687 0.095246196 0.007974565 0.15468612 0.11979246
-0.058992505 -0.080229044 -0.15071863 -0.21851832 0.0070744455 -0.20794567 0.23238704 -0.04956177
-0.0923374 0.06321883 -0.20440504 -0.1201925 -0.13285825 0.11409682 -0.023861498 -0.121842295
0.1693547 0.06476414 -0.03116703 -0.025574923 0.15983212 0.23636365 -0.026847184 0.21498004
0.15258408 0.23474476 -0.10028085 -0.025926203 0.014379412 0.1921596 0.11143714 -0.18480408
-0.04915014 -0.19133991 0.16968298 -0.06462419 0.0049675107 0.18033579 0.054941922 0.0063895285
0.1457682 0.047433108 -0.044621766 -0.10345325 0.20249799 -0.12623283 0.15444759 0.18078586
-0.10849336 0.03155607 -0.15886584 0.18651217 -0.14099365 0.18501195 0.032089084 -0.17339131
0.06753093 -0.032287776 -0.04354754 -0.16007853 0.24932727 0.1941294 0.0025847554 -0.18445939
0.19111285 -0.047462493 0.1926041 0.03663814 -0.12276524 0.040274084 -0.13753176 -0.16483244
0.01792121 -0.233459 0.10406521 -0.055594087 0.092356145 0.22780567 -0.022403628 -0.18539989
-0.10523224 0.10502553 -0.063509524 -0.11320293 -0.012506425 -0.2098453 0.022875398 0.19246295
-0.24559373 0.17731184 -0.21514985 0.047126383 -0.09266049 -0.0053875744 0.06720057 -0.12136641
0.04880476 0.18787691 -0.0023133755 0.026829839 -0.17832398 0.1187959 -0.24943292 0.07012901
0.17085928 -0.086268336 -0.07660538 -0.17168081 0.1634419 0.13907355 -0.119926244 0.16768062
0.10726771 -0.07998106 -0.06276089 0.04016775 -0.027336776 0.16691846 0.03935212 0.19267437
0.064056486 -0.0070875287 0.048915207 -0.2416682 0.062039703 -0.17988658 -0.13316184 -0.20320642
-0.059517324 0.22893855 -0.08323002 -0.14412916 0.20490524 -0.04283011 -0.1446665 0.19350845
0.06976962 0.09786543 0.03491023 -0.14319086 0.22728458 -0.0899308 -0.15064037 0.15235656
-0.23418093 -0.02880323 0.15492389 -0.1696018 0.12543663 -0.24463642 -0.2335077 -0.19593883
0.1979849 -0.17667398 -0.22656256 0.22159347 -0.004586309 -0.15100014 -0.10295451 0.00014147162
0.0130003095 0.15112123 -0.0028297007 -0.014961332 0.07255742 -0.09728417 0.18469334 -0.16365111
-0.10253048 -0.22065148 0.04362753 -0.091100276 -0.17910838 0.120882034 -0.24659228 -0.24902281
00000000: aa78 13be 80ac b5bd 8698 46be ecaf 35be
00000010: 7e82 11be 94f7 b23d 0404 bcbd 7042 a33d
00000020: 3287 02be 1601 32be d08b f5bc 2a00 7d3e
00000030: 28d7 3d3e 8e01 173e a84d 6abe 9a94 60be
00000040: 2c03 a6bd d0d6 17be 2000 763e 348a 843d
00000050: eac4 11be 30a9 2fbe c0fc 593e 78de 8abd
00000060: b0c8 7fbe 8c25 ce3d d8a6 76bd 786d 12bd
00000070: 18f5 d5bd e261 173e f8da 573e 6818 a6bd
00000080: 0678 36be e256 593e ac8c 69be e6e3 2f3e
00000090: 90ed 44be d81a 3e3d 143c 413e 2c17 e43d
000000a0: 24d1 b7bd f483 cc3d 44e7 d3bd 80cd 11bb
000000b0: ee47 60be 2823 bd3d 2062 95bc 4ab7 24be
000000c0: b0e8 c73d 7032 fd3c 00a0 063d f83b 1f3e
000000d0: 7c12 78be c4d1 c5bd 425c 003e 404d 3f3c
000000e0: d0c8 2c3d 10db 6b3d 4804 23be 52f2 6bbe
000000f0: c0b7 75bc 0005 c53d aa67 77be 54f5 3fbe
00000100: f0b6 71be 56d9 0c3e 2cad 203e d002 afbc
00000110: 3287 373e 50b6 bf3c 10f9 23be dc6d 5dbe
00000120: cc40 673e fada 753e 8019 5abb b6fc 33be
00000130: 7010 c33d c0a7 023c 0a66 1e3e c055 f53d
00000140: 20a2 71bd 204f a4bd fc55 1abe 44c3 5fbe
00000150: c0d0 e73b b6ef 54be def6 6d3e 4801 4bbd
00000160: 641b bdbd e078 813d 8e4f 51be 7c27 f6bd
00000170: fe0b 08be 98ab e93d 3079 c3bc 7488 f9bd
00000180: 526b 2d3e 10a3 843d 0052 ffbc 8082 d1bc
00000190: 08ab 233e 5009 723e a0ee dbbc ba23 5c3e
000001a0: 003f 1c3e ee60 703e 0c60 cdbd 3063 d4bc
000001b0: a097 6b3c 7cc5 443e 2839 e43d 483d 3dbe
000001c0: a851 49bd 9cee 43be 60c1 2d3e b059 84bd
000001d0: 80c6 a23b f2a9 383e c80a 613d 405f d13b
000001e0: 4244 153e 3849 423d 50c5 36bd 4cdf d3bd
000001f0: a25b 4f3e 2e43 01be 8227 1e3e ee1f 393e
00000200: c431 debd f040 013d baad 22be 0cfd 3e3e
00000210: a460 10be c673 3d3e d86f 033d 7e8d 31be
00000220: a84d 8a3d 3040 04bd e85e 32bd a0eb 23be
00000230: a64f 7f3e dcc9 463e 0065 293b ece2 3cbe
00000240: 16b3 433e 0868 42bd 023a 453e e011 163d
00000250: 586c fbbd 70f6 243d 20d5 0cbe d6c9 28be
00000260: 80cf 923c e00f 6fbe 2420 d53d a0b6 63bd
00000270: 3825 bd3d e445 693e d087 b7bc 78d9 3dbe
00000280: 0084 d7bd a017 d73d 4811 82bd f0d6 e7bd
00000290: c0e7 4cbc b0e1 56be 3065 bb3c 0215 453e
000002a0: ec7c 7bbe 3c91 353e 3e50 5cbe 9807 413d
000002b0: c8c4 bdbd 408a b0bb 74a0 893d f48e f8bd
000002c0: 80e7 473d ce62 403e 009c 17bb 40ca db3c
000002d0: 909a 36be 444b f33d 586b 7fbe cc9f 8f3d
000002e0: bcf5 2e3e 74ad b0bd 48e3 9cbd 18cd 2fbe
000002f0: 505d 273e 4c69 0e3e e49b f5bd 78b4 2b3e
00000300: 2caf db3d 1ccd a3bd c888 80bd f086 243d
00000310: 60f1 dfbc acec 2a3e b02f 213d 6e4c 453e
00000320: 0c30 833d 803e e8bb 505b 483d de77 77be
00000330: 581d 7e3d 3034 38be 945b 08be 5815 50be
00000340: 70c8 73bd de6e 6a3e 8074 aabd 9896 13be
00000350: aed2 513e a06e 2fbd 7423 14be 1427 463e
00000360: 60e3 8e3d ac6d c83d 08fe 0e3d a0a0 12be
00000370: 4abd 683e a42d b8bd 7841 1abe 5c03 1c3e
00000380: 20cd 6fbe c0f4 ebbc 5ea4 1e3e 18ac 2dbe
00000390: 7672 003e f881 7abe a41c 6fbe 30a4 48be
000003a0: 8ebc 4a3e 06ea 34be 0400 68be 66e9 623e
000003b0: c048 96bb c89f 1abe d0d9 d2bd 0058 1439
000003c0: 40ff 543c 86bf 1a3e 8072 39bb 6020 75bc
000003d0: fc98 943d ec3c c7bd 4020 3d3e 2894 27be
000003e0: 80fb d1bd 76f2 61be c8b2 323d c892 babd
000003f0: 3068 37be 0091 f73d b082 7cbe d6ff 7ebe

encoder_layer.linear2.weight f4 [16, 512]
0.017411284 0.023104925 0.03446382 0.0055464767 0.005186755 -0.013150938 -0.038501468 -0.0044915415
-0.035781674 -0.016394798 0.012350254 -0.019838879 0.001020696 -0.0410774 -0.018154033 -0.029637959
-0.03522629 -0.014084933 -0.02913886 -0.026102075 -0.020851769 -0.04411116 -0.03286241 0.025583576
-0.033911787 -0.0423745 0.031085905 0.0019097216 -0.025226427 -0.0145851225 0.007284902 0.011904165
-0.004984118 0.029670399 -0.034982786 0.009691589 0.018737596 0.040437218 -0.01520123 -0.019257896
-0.011175368 -0.040830854 0.034598935 -0.03232738 -0.0012515448 0.016823366 -0.038708813 0.029114608
0.034740057 -0.0053796805 0.03980944 0.026603092 0.030983824 -0.03495595 0.010957953 0.013734274
0.040009838 -0.0058746077 -0.03493152 0.035686497 -0.004339006 0.006136276 0.023227397 0.04175872
-0.023557374 0.036397543 -0.02174505 0.007882439 0.029359978 0.030178752 -0.0033420175 -0.018970575
0.003407456 0.00508745 0.03124598 -0.0077193417 -0.0169365 0.038176734 0.032936696 -0.018113287
-0.01283025 0.029679019 -0.015839892 -0.023307998 0.02772173 -0.010857295 -0.034471706 0.0115823485
-0.03410719 0.011078883 -0.027383823 0.025509883 0.027093995 -0.03507204 -0.011495642 -0.015595425
0.014424823 0.011214048 0.03976616 0.041158002 0.014857717 -0.028169557 0.025741663 -0.011176981
0.0049672313 0.02771635 -0.03779234 0.027122993 -0.025448566 -0.008887295 -0.037548997 -0.021043826
-0.0034571849 -0.030164594 -0.014148729 0.0063521713 0.021431189 -0.034786373 -0.025212713 0.034143213
-0.042357672 0.01826948 -0.035793353 0.026977573 -0.038349774 -0.00478635 0.035024855 0.010922097
-0.02083994 0.021384891 -0.01901681 -0.03705474 0.002101399 -0.018553864 -0.03429663 -0.015436135
-0.019763647 0.04390874 -0.022506079 0.041293334 0.040905934 -0.019281102 0.032171603 -0.039773848
0.02254926 -0.008630194 0.023449998 0.009392109 -0.009902064 -0.003770195 0.015606452 -0.040309094
-0.027479697 -0.004689239 -0.04214698 0.01377568 -0.027680943 0.008427467 0.03382631 0.03362218
0.016423877 -0.018800756 -0.023174902 0.031344574 0.027918864 0.0155816 -0.003981866 -0.018326087
-0.04092229 -0.016039541 -0.005482115 0.015528917 -0.0069491155 0.004394293 -0.0014964826 -0.01110509
0.011291608 0.017756429 0.043199737 0.02573413 0.0098818615 -0.027091393 0.015113417 0.037595417
0.017352432 0.022011545 0.034673717 -0.044083565 -0.034174338 -0.035501886 0.0011177361 -0.0060371943
-0.015120519 -0.013231086 -0.01616202 -0.004729882 0.024044577 0.018032108 -0.01786598 0.036795396
0.014758013 0.033524174 -0.024575774 -0.035971027 0.0075413734 0.031372946 0.0026385821 0.011474494
0.017945342 -0.025364121 -0.011304211 0.010483328 -0.020875892 0.020860273 0.035452377 -0.0036760569
-0.008985687 0.013442401 0.007377621 0.0404155 0.02977829 0.0072923526 0.03306454 0.010975461
0.00069415197 0.0031484962 0.018122919 0.012919232 0.027663913 0.033424634 -0.009487573 -0.03175093
-0.040740713 -0.04416227 0.015726466 0.025448594 0.010501973 -0.03109076 0.015588682 0.0015488714
0.021806281 -0.017161628 -0.0061739646 -0.011002824 -0.040448397 0.007900294 0.013686571 0.029386405
0.0056357905 0.01118933 -0.028820558 -0.012201339 0.012365162 -0.011373147 0.027414214 0.019258816
00000000: 1ca2 8e3c 8a46 bd3c ef29 0d3d 38bf b53b
00000010: a8f5 a93b 0877 57bc b7b3 1dbd c82d 93bb
00000020: ce8f 12bd 624e 86bc b858 4a3c 2585 a2bc
00000030: e0c8 853a c740 28bd c4b7 94bc 4ecb f2bc
00000040: 7149 10bd 7ec4 66bc 9eb4 eebc 05d4 d5bc
00000050: 54d1 aabc e7ad 34bd bc9a 06bd a694 d13c
00000060: 16e7 0abd e290 2dbd dea7 fe3c a04f fa3a
00000070: a7a7 cebc 70f6 6ebc 30b6 ee3b b009 433c
00000080: d051 a3bb 560f f33c 1c4a 0fbd 78c9 1e3c
00000090: 967f 993c 7fa1 253d 940e 79bc bcc2 9dbc
000000a0: e418 37bc 413e 27bd 9db7 0d3d b769 04bd
000000b0: e00a a4ba 28d1 893c 228d 1ebd c281 ee3c
000000c0: 974b 0e3d 0848 b0bb 390f 233d baee d93c
000000d0: cad1 fd3c f82d 0fbd fc88 333c b805 613c
000000e0: 5be1 233d c87f c0bb 5a14 0fbd 012c 123d
000000f0: 382e 8ebb d012 c93b 6247 be3c 310b 2b3d
00000100: 65fb c0bc 9715 153d ad22 b2bc 5825 013c
00000110: 5684 f03c 6e39 f73c c005 5bbb 2e68 9bbc
00000120: a04f 5f3b a0b4 a63b 92f7 ff3c 88f2 fcbb
00000130: 6abe 8abc 355f 1c3d a1e8 063d 5162 94bc
00000140: f835 52bc 6a21 f33c a9c2 81bc 6af0 bebc
00000150: ae18 e33c cce2 31bc 3432 0dbd e4c3 3d3c
00000160: fbb3 0bbd 3484 353c 0a54 e0bc 1afa d03c
00000170: 3af4 dd3c b3a7 0fbd 3858 3cbc f483 7fbc
00000180: 1856 6c3c 20bb 373c d7e1 223d 4b95 283d
00000190: c86d 733c d8c3 e6bc 2ee0 d23c a81f 37bc
000001a0: 28c4 a23b 660d e33c 24cc 1abd 0a31 de3c
000001b0: 8379 d0bc 049c 11bc facc 19bd 1a64 acbc
000001c0: f091 62bb bd1b f7bc 12d0 67bc e025 d03b
000001d0: 7690 af3c 287c 0ebd e48a cebc c1d9 0b3d
000001e0: 3d7f 2dbd e0a9 953c 0d9c 12bd 1200 dd3c
000001f0: a714 1dbd d0d6 9cbb 3976 0f3d 98f2 323c
00000200: 86b8 aabc 5e2f af3c 24c9 9bbc b6c6 17bd
00000210: a0b7 093b 46fe 97bc a07a 0cbd d8e7 7cbc
00000220: 5fe7 a1bc a7d9 333d ab5e b8bc 3323 293d
00000230: fb8c 273d 67f3 9dbc 5fc6 033d e7e9 22bd
00000240: 3ab9 b83c a865 0dbc 361a c03c 5ce1 193c
00000250: 443c 22bc 6015 77bb 34b2 7f3c 261b 25bd
00000260: 1a1d e1bc 30a8 99bb 50a2 2cbd 64b3 613c
00000270: 25c3 e2bc 5c13 0a3c 758d 0a3d 69b7 093d
00000280: 5e8b 863c 0b04 9abc 4bd9 bdbc 2b63 003d
00000290: 1ab6 e43c f849 7f3c 507a 82bb 9720 96bc
000002a0: 229e 27bd 5b65 83bc 50a3 b3bb 006d 7e3c
000002b0: 68b5 e3bb 00fe 8f3b a025 c4ba 20f2 35bc
000002c0: 7000 393c ee75 913c 35f2 303d 62d0 d23c
000002d0: 88e7 213c c5ee ddbc 449e 773c a7fd 193d
000002e0: b026 8e3c 8e51 b43c 0706 0e3d f890 34bd
000002f0: 64fa 0bbd 6d6a 11bd 0081 923a a8d3 c5bb
00000300: 0ebc 77bc 32c7 58bc 3666 84bc 20fd 9abb
00000310: 22f9 c43c 12b8 933c ad5b 92bc c5b6 163d
00000320: 98cb 713c a550 093d 2253 c9bc 5b56 13bd
00000330: a01d f73b eb80 003d 10ec 2c3b 84ff 3b3c
00000340: 1c02 933c 6bc8 cfbc 4c35 39bc 44c2 2b3c
00000350: eb03 abbc 2ae3 aa3c 8336 113d 00ea 70bb
00000360: b438 13bc 843d 5c3c f8bf f13b b98a 253d
00000370: 9af1 f33c b0f4 ee3b af6e 073d 6cd2 333c
00000380: c0f7 353a 0057 4e3b 8476 943c 30ab 533c
00000390: 6e9f e23c 45e8 083d c471 1bbc 430d 02bd
000003a0: bcdf 26bd 7fe3 34bd cad4 803c 9279 d03c
000003b0: 7810 2c3c 0db2 febc ac67 7f3c 8003 cb3a
000003c0: 16a3 b23c 8b96 8cbc f84e cabb 3045 34bc
000003d0: 38ad 25bd 3c70 013c a43d 603c c2bb f03c
000003e0: 70ac b83b 7453 373c 1719 ecbc 20e8 47bc
000003f0: 4097 4a3c 7056 3abc c693 e03c aac4 9d3c

encoder_layer.linear2.bias f4 [16]
0.026483256 -0.042531934 -0.022730786 -0.013258956 -0.004406389 -0.00911738 0.024694499 0.02608965
0.040830646 0.04220322 -0.042402554 -0.010147538 -0.019968243 0.03588077 0.043843415 0.03721446
00000000: 6af3 d83c f735 2ebd ea35 babc 183c 59bc
00000010: 7863 90bb 1061 15bc 1e4c ca3c f6b9 d53c
00000020: 093e 273d 49dd 2c3d 4dae 2dbd dc41 26bc
00000030: 7194 a3bc b7f7 123d 2795 333d 316e 183d

encoder_layer.norm1.weight f4 [16]
1.0 1.0 1.0 1.0 1.0 1.0 1.0 1.0
1.0 1.0 1.0 1.0 1.0 1.0 1.0 1.0
00000000: 0000 803f 0000 803f 0000 803f 0000 803f
00000010: 0000 803f 0000 803f 0000 803f 0000 803f
00000020: 0000 803f 0000 803f 0000 803f 0000 803f
00000030: 0000 803f 0000 803f 0000 803f 0000 803f

encoder_layer.norm1.bias f4 [16]
0.0 0.0 0.0 0.0 0.0 0.0 0.0 0.0
0.0 0.0 0.0 0.0 0.0 0.0 0.0 0.0
00000000: 0000 0000 0000 0000 0000 0000 0000 0000
00000010: 0000 0000 0000 0000 0000 0000 0000 0000
00000020: 0000 0000 0000 0000 0000 0000 0000 0000
00000030: 0000 0000 0000 0000 0000 0000 0000 0000

encoder_layer.norm2.weight f4 [16]
1.0 1.0 1.0 1.0 1.0 1.0 1.0 1.0
1.0 1.0 1.0 1.0 1.0 1.0 1.0 1.0
00000000: 0000 803f 0000 803f 0000 803f 0000 803f
00000010: 0000 803f 0000 803f 0000 803f 0000 803f
00000020: 0000 803f 0000 803f 0000 803f 0000 803f
00000030: 0000 803f 0000 803f 0000 803f 0000 803f

encoder_layer.norm2.bias f4 [16]
0.0 0.0 0.0 0.0 0.0 0.0 0.0 0.0
0.0 0.0 0.0 0.0 0.0 0.0 0.0 0.0
00000000: 0000 0000 0000 0000 0000 0000 0000 0000
00000010: 0000 0000 0000 0000 0000 0000 0000 0000
00000020: 0000 0000 0000 0000 0000 0000 0000 0000
00000030: 0000 0000 0000 0000 0000 0000 0000 0000

transformer_encoder.layers.0.self_attn.in_proj_weight f4 [48, 16]
-0.17014392 0.053302668 -0.06329687 -0.2065539 0.120168604 -0.11979164 -0.05857382 -0.14412588
0.20980418 0.05730819 0.37703857 -0.1929822 0.33263543 -0.17558497 0.40650427 0.07552602
0.11676636 -0.0853748 0.01576493 -0.070080265 -0.12949957 0.2599356 -0.1129142 0.0052724387
0.13067122 0.11867637 0.48262072 -0.20798972 0.2856207 -0.2092072 0.55464834 -0.3812553
-0.19710638 -0.18757938 -0.010617062 -0.059115678 0.21631028 -0.15159352 -0.39417812 -0.008249071
-0.19641678 -0.05546015 -0.56561136 0.316982 -0.5114537 0.4494916 -0.064468734 0.41068247
0.1460205 -0.05266637 -0.0067771645 -0.070096776 0.2853954 -0.018188816 0.16018263 0.08402402
0.43691528 0.04068185 0.42046797 -0.32588962 0.36582765 -0.20175633 0.13754268 -0.4055301
0.07703722 0.0767249 -0.030207982 -0.11165369 0.061041933 -0.29366758 -0.051404122 0.395212
-0.36673087 0.18344977 -0.25697657 0.11470697 -0.18655415 0.17916387 -0.5850604 -0.031332217
0.16861346 -0.05919775 0.21450333 -0.07493425 0.20969878 -0.08694359 -0.21014939 -0.097742364
-0.03722272 -0.1517708 0.4339913 -0.4079942 0.44102696 -0.06540669 0.5376681 0.058006532
-0.119070925 -0.25419584 -0.21082373 -0.12177446 0.26595354 -0.21489646 0.1114963 -0.052180678
-0.27993318 0.076817356 0.014147743 0.28705603 0.17067277 -0.072998 0.011087219 0.022623003
-0.16398156 0.095005974 0.18855117 0.052132357 0.16303381 0.23714483 0.28991583 -0.10317409
0.020812053 -0.44050756 0.39016107 -0.25953385 0.44786415 -0.3782653 0.56399536 -0.17420068
0.2639065 -0.11363146 -0.24889968 0.0662167 0.17971559 0.31331852 0.37144342 -0.40980038
0.12788323 -0.19678546 0.03452224 0.1578958 0.39686662 -0.06302035 0.5950158 -0.389271
0.12103603 -0.1360012 -0.044603564 -0.25437272 -0.32764333 -0.060093507 -0.09567154 0.20292445
-0.4427039 -0.16035391 -0.042266738 0.25417244 -0.3170148 0.30922917 -0.1256774 0.21782891
0.09649663 -0.14757727 -0.15805691 0.12393805 -0.37211865 -0.07689413 0.0053625163 0.27446875
-0.45596343 0.3569413 -0.038162887 0.38867348 -0.41204923 -0.10068482 -0.31795537 -0.040473264
0.058079053 0.15201788 -0.19159772 0.07320831 0.3502584 -0.14778765 0.331692 -0.12628034
-0.0654316 -0.24492192 0.2723115 -0.15880224 0.39153674 0.13133049 0.3122249 -0.24817434
-0.10262828 0.023535224 -0.2047364 0.35075685 0.25873607 0.15118508 0.022826316 -0.2903404
0.12419164 -0.1762595 0.04810922 -0.3278397 0.5143102 0.128766 0.25709668 0.15594956
-0.04404122 0.15255879 0.055327713 -0.01925213 0.35229218 0.061449435 -0.09924581 -0.12992729
0.33329877 -0.18101236 0.30632702 0.043050077 0.07347283 -0.15752442 0.27918792 -0.15183848
0.0152630145 0.18991427 0.13180493 -0.016143048 0.24719785 0.18780343 0.0069370177 0.09210519
0.4196892 0.15010613 0.28074032 -0.3277277 0.30471197 -0.03420099 0.41437823 -0.40042225
0.00012947919 -0.20534192 0.014681718 0.32353684 -0.07680003 -0.036169842 0.094133474 -0.16693878
0.3938546 0.08843044 0.38537577 0.0729425 0.55371743 -0.098808244 0.08108566 -0.45896727
00000000: 353a 2ebe e653 5a3d caa1 81bd de82 53be
00000010: f51a f63d 5255 f5bd 1aeb 6fbd bc95 13be
00000020: e8d6 563e febb 6a3d 330b c13e 209d 45be
00000030: 314f aa3e 8ccc 33be 5421 d03e 63ad 9a3d
00000040: 3423 ef3d fcd8 aebd 7425 813c 3e86 8fbd
00000050: 899b 04be 4716 853e 8f3f e7bd 6cc4 ac3b
00000060: adce 053e 990c f33d 101a f73e 42fb 54be
00000070: e03c 923e 6a3a 56be 6ffd 0d3f e533 c3be
00000080: 41d6 49be cf14 40be 30f3 2dbc 4823 72bd
00000090: 7180 5d3e 553b 1bbe b7d1 c9be 1d27 07bc
000000a0: 7b21 49be 2f2a 63bd e8cb 10bf 774b a23e
000000b0: a1ee 02bf c323 e63e 2f08 84bd f944 d23e
000000c0: 6686 153e b1b8 57bd fa12 debb e68e 8fbd
000000d0: 591f 923e b600 95bc ea06 243e c914 ac3d
000000e0: 5cb3 df3e 03a2 263d 9447 d73e 01db a6be
000000f0: c34d bb3e 3699 4ebe fdd7 0c3e a4a1 cfbe
00000100: b1c5 9d3d f221 9d3d bb76 f7bc b1aa e4bd
00000110: 1b07 7a3d 995b 96be 218d 52bd 3a59 ca3e
00000120: 26c4 bbbe 42da 3b3e 6f92 83be 7deb ea3d
00000130: 0d08 3fbe bc76 373e 85c6 15bf 3656 00bd
00000140: 02a9 2c3e 5779 72bd c3a6 5b3e 2177 99bd
00000150: 47bb 563e 7b0f b2bd 6731 57be 262d c8bd
00000160: da76 18bd ce69 1bbe 1c34 de3e 9ee4 d0be
00000170: 49ce e13e f1f3 85bd 9ea4 093f 4298 6d3d
00000180: 75db f3bd f525 82be 2de2 57be e364 f9bd
00000190: 102b 883e d10d 5cbe 2c58 e43d 68bb 55bd
000001a0: 6753 8fbe 6b52 9d3d efcb 673c 02f9 923e
000001b0: d8c4 2e3e fa7f 95bd 2ba7 353c e053 b93c
000001c0: c8ea 27be 7e92 c23d 8f13 413e bd88 553d
000001d0: 56f2 263e 18d6 723e d96f 943e f04c d3bd
000001e0: 0a7e aa3c 358a e1be 31c3 c73e 9fe1 84be
000001f0: 734e e53e fdab c1be 0062 103f aa61 32be
00000200: c11e 873e 9cb7 e8bd 8fdf 7ebe 9f9c 873d
00000210: 5d07 383e 496b a03e d52d be3e 5bd1 d1be
00000220: d2f3 023e 2182 49be 3167 0d3d 70af 213e
00000230: 1a32 cb3e d010 81bd f552 183f 874e c7be
00000240: bde1 f73d e643 0bbe 3ab2 36bd 243d 82be
00000250: dec0 a7be 9c24 76bd 71ef c3bd 6dcb 4f3e
00000260: 16aa e2be d133 24be e31f 2dbd e422 823e
00000270: c44f a2be 4953 9e3e 94b1 00be 8b0e 5f3e
00000280: 06a0 c53d 7f1e 17be acd9 21be 3bd3 fd3d
00000290: 5686 bebe ab7a 9dbd 0cb8 af3b 2b87 8c3e
000002a0: 0a74 e9be 03c1 b63e b050 1cbd 3600 c73e
000002b0: 1ef8 d2be d833 cebd 0ccb a2be 4bc7 25bd
000002c0: 4de4 6d3d 93aa 1b3e 3132 44be 3dee 953d
000002d0: 1255 b33e a555 17be 89d3 a93e a24f 01be
000002e0: 0101 86bd d0cc 7abe 6a6c 8b3e 0e9d 22be
000002f0: 8177 c83e 807b 063e f1db 9f3e 6a21 7ebe
00000300: c72e d2bd f1cc c03c 6ba6 51be 6796 b33e
00000310: 0e79 843e 43d0 1a3e 41fe ba3c 7fa7 94be
00000320: 3058 fe3d 5f7d 34be 2c0e 453d 9bda a7be
00000330: d5a9 033f 3cdb 033e 2da2 833e 3eb1 1f3e
00000340: 9164 34bd 5f38 1c3e 509f 623d a5b6 9dbc
00000350: a45f b43e 67b2 7b3d 6341 cbbd a90b 05be
00000360: 23a6 aa3e 4e5b 39be e5d6 9c3e 4755 303d
00000370: ec78 963d 154e 21be b8f1 8e3e 8c7b 1bbe
00000380: b911 7a3c e378 423e dff7 063e 6d3e 84bc
00000390: 6f21 7d3e 8b4f 403e ec4f e33b a5a1 bc3d
000003a0: 81e1 d63e 6cb5 193e 32bd 8f3e edcb a7be
000003b0: 3503 9c3e 5616 0cbd 6229 d43e 2504 cdbe
000003c0: cec4 0739 2745 52be 978b 703c 9fa6 a53e
000003d0: 5649 9dbd d426 14bd 0dc9 c03d 00f2 2abe
000003e0: 4fa7 c93e 051b b53d f94f c53e e162 953d
000003f0: 6dc0 0d3f fa5b cabd 3d10 a63d c2fd eabe

transformer_encoder.layers.0.self_attn.in_proj_bias f4 [48]
-0.86649185 -0.86081254 0.9746726 -0.9321657 1.0001925 -0.9576357 0.43471956 -0.9617588
-0.97833717 0.7391598 0.81199455 -0.9692818 -0.7439045 -0.882175 -0.82107145 -0.9908375
0.0008039581 0.001303277 -0.0020440898 0.0037607139 -0.0010221029 0.004304517 -0.00027752362 0.001191411
0.0020984593 -0.0014403687 -0.00025829911 0.001944717 0.0024967294 0.0012037023 0.004578035 0.0013745014
0.6170598 -0.5109013 0.5857919 0.15672523 0.30960438 0.15517633 0.14086993 0.41806576
-0.54543173 -0.39327303 0.21031198 0.13161545 -0.34416476 -0.5802662 0.2729852 0.2750448
00000000: 69d2 5dbf 365e 5cbf 2584 793f 69a2 6ebf
00000010: 4f06 803f 9d27 75bf 9093 de3e d335 76bf
00000020: 4e74 7abf 9439 3d3f e0de 4f3f da22 78bf
00000030: 8670 3ebf 39d6 61bf bd31 52bf 87a7 7dbf
00000040: b7c0 523a b8d2 aa3a 23f6 05bb 4f76 763b
00000050: 15f8 85ba e80c 8d3b 9780 91b9 1f29 9c3a
00000060: 4e86 093b c1ca bcba 526c 87b9 e0e5 fe3a
00000070: 2ba0 233b 8cc5 9d3a 5703 963b 9d28 b43a
00000080: a2f7 1d3f 6dca 02bf 75f6 153f 947c 203e
00000090: 7784 9e3e 8be6 1e3e 3540 103e b70c d63e
000000a0: 6aa1 0bbf 155b c9be 065c 573e 33c6 063e
000000b0: 5d36 b0be 538c 14bf b7c4 8b3e acd2 8c3e

transformer_encoder.layers.0.self_attn.out_proj.weight f4 [16, 16]
-0.0047112745 -0.12674986 0.009629006 0.1266984 -0.10944547 0.10479633 0.14272428 0.12404522
-0.06663346 -0.12488535 0.13438982 -0.028314441 -0.0024003652 -0.19644783 0.08311781 0.09623701
-0.03706295 -0.090939365 -0.015690852 -0.107762516 0.055154663 -0.052538015 -0.20629321 -0.14688186
-0.2449622 -0.16451176 -0.090444855 0.12098376 -0.2076321 -0.23500161 -0.34771788 0.14149976
0.114042856 -0.20897882 -0.031529933 -0.0061068865 -0.13124073 -0.06703123 -0.021870796 0.15689297
0.06619309 -0.113052726 -0.05370601 0.08168459 0.16495936 -0.054108422 -0.050348327 0.013927356
0.325167 0.005415102 0.39881974 0.0047207535 -0.026314884 0.079502456 0.05985053 0.20404787
-0.16372445 -0.0814905 -0.04516247 -0.17025664 0.021215906 -0.1739792 0.12448322 -0.02705425
0.116977446 -0.021437304 0.18331471 0.09419631 0.039392848 0.020304663 0.049826697 0.004593627
-0.019029578 0.2932302 -0.043154214 -0.0030926575 0.098662995 0.20451505 -0.08672928 -0.02836647
-0.081331186 -0.019494362 -0.0018188489 0.13880536 0.038672406 0.0028601475 0.013886289 -0.13155134
0.07230137 -0.025957212 -0.042372007 -0.01873392 -0.1446465 -0.182934 -0.009082844 0.0452023
0.58365476 -0.28211835 0.21084046 0.05063118 -0.011301495 0.14216061 -0.04593168 0.19694422
0.05024282 -0.12315329 0.0310451 -0.10677976 0.09202611 0.03703112 -0.0662222 0.023379924
0.43704197 -0.23738968 0.39634347 -0.060478143 0.00678069 0.032089148 0.03669036 0.19213945
0.17302005 0.22741109 -0.028434357 0.062089827 -0.13954689 0.10083959 -0.09418158 0.024541939
-0.3066308 0.18098606 0.060244016 -0.089955024 -0.05480906 -0.1407607 0.12689859 0.03080708
0.17012668 -0.089010656 -0.09853843 -0.17710957 0.035184104 0.020664437 -0.042522933 0.13824397
0.36759093 -0.24519649 0.01827821 0.03376628 -0.14055695 0.070966996 0.080464534 0.107635766
0.15607208 -0.13987537 0.039565556 0.005636406 -0.092909195 -0.13216619 0.11729975 -0.0038664772
-0.18269123 -0.10854372 -0.0030289926 -0.13518602 0.02407277 0.16041596 0.11598274 0.04549747
0.1633934 0.13890335 -0.009293109 0.036878876 -0.17363444 0.28037614 0.01188584 -0.0679525
-0.30469665 0.365486 -0.12873332 -0.060259737 -0.017900525 0.033044185 0.04561936 0.024878869
-0.31083047 -0.17503253 -0.0792311 -0.028347919 -0.190168 0.015517817 0.04074651 -0.066513546
-0.41717684 -0.02563387 -0.07130272 0.037864547 -0.1286272 0.041480098 0.05933352 0.026330575
0.13435169 -0.03919664 0.033644922 0.064432055 -0.07012489 -0.101434715 0.045882814 0.009776616
-0.12574962 0.22636233 -0.028157173 0.07327266 -0.049310304 -0.013320671 -0.11889778 0.049896706
0.32155722 0.10040744 -0.051891595 -0.13422056 0.18619502 -0.09491492 -0.08909241 0.10394478
0.22751595 -0.32974538 -0.040560663 -0.011145889 0.1287763 0.020229172 -0.066808335 -0.17258838
0.08158831 -0.2510701 -0.25854826 -0.014799573 0.12663142 -0.26844725 0.017971663 -0.027920729
-0.03835118 0.054823454 0.058818117 -0.01883814 -0.12680481 0.020517038 0.10772136 -0.101810485
-0.30417162 -0.031874485 -0.048302636 0.1128988 -0.11545232 -0.22028616 -0.04245889 0.052573357
00000000: 0961 9abb b7ca 01be fac2 1d3c 3abd 013e
00000010: f224 e0bd 759f d63d 5026 123e 6c0b fe3d
00000020: 2077 88bd e4c3 ffbd 7c9d 093e b0f3 e7bc
00000030: 724f 1dbb 9f29 49be ac39 aa3d e917 c53d
00000040: 52cf 17bd 6b3e babd 1a8a 80bc 98b2 dcbd
00000050: dbe9 613d 1a32 57bd 873e 53be 3368 16be
00000060: 5fd7 7abe c575 28be 273b b9bd 55c6 f73d
00000070: 829d 54be 43a4 70be 1408 b2be 50e5 103e
00000080: 4d8f e93d 8bfe 55be 8825 01bd 471c c8bb
00000090: f863 06be ab47 89bd 622a b3bc 8da8 203e
000000a0: 3e90 873d 3088 e7bd d5fa 5bbd 404a a73d
000000b0: 1beb 283e cba0 5dbd 0c3a 4ebd 912f 643c
000000c0: 4a7c a63e 2b71 b13b 1a32 cc3e 8db0 9a3b
000000d0: 5092 d7bc 2fd2 a23d d425 753d edf1 503e
000000e0: 62a7 27be 7ee4 a6bd 48fc 38bd c257 2ebe
000000f0: fbcc ad3c 9a27 32be 0ff1 fe3d e0a0 ddbc
00000100: df91 ef3d 499d afbc dab6 3b3e ffe9 c03d
00000110: 655a 213d f755 a63c 1417 4c3d 2386 963b
00000120: ebe3 9bbc 4522 963e 79c2 30bd 2fae 4abb
00000130: d30f ca3d 656c 513e 1f9f b1bd cd60 e8bc
00000140: f790 a6bd a4b2 9fbc 7166 eeba fe22 0e3e
00000150: f566 1e3d 5071 3b3b 5183 633c 65b5 06be
00000160: be12 943d 38a4 d4bc 458e 2dbd e177 99bc
00000170: 361e 14be 0d53 3bbe 35d0 14bc 0c26 393d
00000180: 666a 153f d171 90be 90e6 573e a462 4f3d
00000190: e829 39bc 8d92 113e db22 3cbd bfab 493e
000001a0: 6acb 4d3d cb37 fcbd 4b52 fe3c 59af dabd
000001b0: 2f78 bc3d f2ad 173d 819f 87bd 4187 bf3c
000001c0: f7c3 df3e 4816 73be 88ed ca3e eeb7 77bd
000001d0: 8d30 de3b e96f 033d a248 163d 34c0 443e
000001e0: 2b2c 313e 74de 683e 2bef e8bc e751 7e3d
000001f0: 61e5 0ebe fd84 ce3d 46e2 c0bd 2d0c c93c
00000200: b6fe 9cbe 6954 393e 6ec2 763d 573a b8bd
00000210: 777f 60bd 9323 10be b4f1 013e 215f fc3c
00000220: b035 2e3e 384b b6bd 84ce c9bd 365c 35be
00000230: 351d 103d 7748 a93c 872c 2ebd d48f 0d3e
00000240: e134 bc3e ca14 7bbe 2fbc 953c 834e 0a3d
00000250: 29ee 0fbe 2557 913d 97ca a43d 2470 dc3d
00000260: 5cd1 1f3e 7d3b 0fbe 7e0f 223d 9ab1 b83b
00000270: 2d47 bebd 9356 07be da3a f03d b964 7dbb
00000280: 6913 3bbe 2b4c debd 1082 46bb 346e 0abe
00000290: 4234 c53c 1544 243e 5c88 ed3d 8e5b 3a3d
000002a0: 9950 273e ae3c 0e3e 2042 18bc 4e0e 173d
000002b0: 3acd 31be 768d 8f3e d4bc 423c ae2a 8bbd
000002c0: 3301 9cbe fb20 bb3e abd2 03be ead2 76bd
000002d0: 1fa4 92bc 5759 073d 5edb 3a3d c5ce cb3c
000002e0: 2c25 9fbe ba3b 33be ea43 a2bd e539 e8bc
000002f0: 66bb 42be 713e 7e3c d0e5 263d 4138 88bd
00000300: 3498 d5be 1ffe d1bc 2907 92bd db17 1b3d
00000310: d9b6 03be 09e7 293d b407 733d 38b3 d73c
00000320: 7d93 093e a88c 20bd 42cf 093d f4f4 833d
00000330: a39d 8fbd 01bd cfbd 9eef 3b3d 192e 203c
00000340: 82c4 00be 87cb 673e dfa9 e6bc fa0f 963d
00000350: 9af9 49bd f23e 5abc ae80 f3bd 7d60 4c3d
00000360: 26a3 a43e 6aa2 cd3d 488c 54bd 1d71 09be
00000370: e8a9 3e3e c162 c2bd 1576 b6bd 00e1 d43d
00000380: f1f9 683e 63d4 a8be f022 26bd 3f9d 36bc
00000390: efdd 033e a6b7 a53c cfd2 88bd 02bb 30be
000003a0: c617 a73d 438c 80be 7060 84be e979 72bc
000003b0: abab 013e eb71 89be 4f39 933c 03ba e4bc
000003c0: 2016 1dbd 8f8e 603d 44eb 703d 7152 9abc
000003d0: 1fd9 01be 5913 a83c 049d dc3d 0482 d0bd
000003e0: 62bc 9bbe d28e 02bd fcd8 45bd 7c37 e73d
000003f0: 4472 ecbd b292 61be 5fe9 2dbd 2957 573d

transformer_encoder.layers.0.self_attn.out_proj.bias f4 [16]
0.14853738 0.024298806 0.09273179 0.10079235 0.05149519 -0.15514995 0.06260545 0.09159881
-0.14797468 0.23564288 -0.15616274 0.28744635 -0.26989803 -0.07410236 -0.036361687 0.25199404
00000000: 2f1a 183e 4a0e c73c 2aea bd3d 386c ce3d
00000010: 9fec 523d a1df 1ebe 4937 803d 2898 bb3d
00000020: ad86 17be 5e4c 713e 20e9 1fbe 2b2c 933e
00000030: 1330 8abe fac2 97bd feef 14bd 5d05 813e
