预测论文/save_model_para/best_model_seq96.pt (torch, 204435 bytes, 9 tensors)

lstm.weight_ih_l0 f4 [256, 1]
00000000: 8db7 a53d 6a6e 1a3d dd54 193e 027a a6bc
00000010: 6e0a a9bd 690d a33d da14 053e b1cf 3e3e
00000020: 9807 1b3d 742b 0c3e 3ddf 6cbd 9051 123d
00000030: aef7 fc3d 147e 3d3d f917 be3c 2378 1cbd
00000040: 8c01 cb3d 8ad6 b33d 13aa 6dbc aa0f e8bd
00000050: be91 083d a3e0 093e a797 afbc 3f88 163d
00000060: 6921 763c 37fa 493e 224f 653d bdad 823d
00000070: 9f47 ddbd ebfd 81bd da3f 763d 915b eb3d
00000080: fafc 233e e25a a13c d8d7 5d3c 329e a93d
00000090: 8a65 a53d cd87 ea3a ac47 d73c 40b1 a03d
000000a0: 3314 023e dff8 ad3d caea ae3d 2007 3c3e
000000b0: 4cbb ce3c f0da f53d 73cb 9dbd b673 3cbd
000000c0: 23b3 8b3d f4cd a73d 83a3 90bd eb11 95bd
000000d0: 27cf 753d 9e4c eb3d 3793 00be 4f57 8ebd
000000e0: 6f07 c93d 7cea 863d a42d c43d a88c 1f3e
000000f0: 4187 2a3c fe2d 893d 3196 df3c a74a 83bd
00000100: 5c9c bf3d 69c4 ed3c 8bc1 ee3d 0fbd b8bd
00000110: bfda d93c 4b49 843d 35f9 c23d a1ee 1d3e
00000120: ea48 013d f933 1cbd d9f1 c7bd 3714 2b3e
00000130: c7e4 063d db2c 363d ecbe c43c 2c9f d13d
00000140: cc54 123d ac41 3c3d 96b5 643c 086d 78bd
00000150: 4940 f4bc c345 e13d 5a7d 253e 015a 593d
00000160: ed96 82bd 3701 6b3d 9861 0f3e 7333 4e3d
00000170: bb18 b3bc ed56 2cbd ae8f e33d 93d5 933d
00000180: aae5 213e cae0 4abd fe80 103e fad6 663c
00000190: ed5c 323d 6393 84bd 8038 e63c 84ec b0bb
000001a0: a69d bcbc 4d5a 2b3e 80a5 0b3e 78ba 253b
000001b0: 9059 fabd 4cd7 083e 3aa3 a9bd 4143 e6bb
000001c0: 6287 bc3d ca71 813b ebea 303d 553b 1c3d
000001d0: ee72 e4bc 8eb2 a03d 556d 4bbd f4b4 913d
000001e0: f80a 823b e12b cf3c f13a 11bd e9dd c33c
000001f0: 8b5b ca3d 41e2 80bd e7ed bd3d d178 9cbd
00000200: 4d9a e0bc 89a3 593d b1f7 ecbd 0949 7d3d
00000210: 1e03 debb 2c1a fdbd d57e 8f3d 6624 0bbe
00000220: d0e7 21be a608 bdbd 0ca7 acbd 833e a8bd
00000230: cec2 e7bd 8be0 2b3e 2d36 393e 22e0 e63c
00000240: 9cba 0abe 6102 003e 9b78 413c 11f2 97bd
00000250: 1c7e e73d 54bc 3f3d 9314 9d3d a2a7 4dbc
00000260: c597 b53d e96d 043e 54cd 2a3d 7aab 1e3e
00000270: 9dea 23bd 2a6b b43b b5f7 163e fc2b a4bd
00000280: be09 e63d f75f 98bd 293f efbd 8f71 c1bd
00000290: 75c1 fdbd 72ee 703d f991 a63d 7f69 0dbe
000002a0: 220d 683d c581 21be db77 1cbe 1b3f 2fbe
000002b0: 3031 eabd 6bdb 523d 41b4 c2bc 25f9 e73d
000002c0: a713 0a3e 2fe1 a83d 681a 073e 8baa a3bc
000002d0: ff32 783c 6a09 41bd 31d0 03be 27b8 223e
000002e0: b7d9 c3bd 8b84 2abd b718 5cbd 7f59 f83d
000002f0: 46f7 143e 7324 dabc 6d44 223e 1161 de3d
00000300: 648d 0bbd 1ed0 80bd 8bdc fd3d 5a28 d43d
00000310: b28f df3d bc3e 08be 017b 243e 7e46 e23d
00000320: 583c 733b 24d3 a83d 2b9c d1bd 674c 37bb
00000330: 69b9 8bbd 8386 3e3d a185 423d 8161 4b3b
00000340: 6d91 573d ac8f 1d3e d169 07bd 3f13 a13d
00000350: 5011 a13d 9b4b 83bd 3aef 953d e7f6 c43d
00000360: 5916 0f3e bfc1 2e3e fbfc bdbc 7dcc f33c
00000370: 10d4 8cbd 977b d43c d601 493d a16b d73c
00000380: c45e dd3d 4eae ef3d 1a6d 6abd 8482 193c
00000390: fd5a b4bb e710 0a3e 0845 ca3b f827 8abd
000003a0: 0c7a af3d 79a7 e13d 5f72 4e3e 334a 323d
000003b0: d0a9 7fbc 6207 3c3a 2310 bb3d 6555 88bd
000003c0: 4155 f33d 23d9 eabc 2f0a a73d 6be6 9ebd
000003d0: 073d 043e c43f e1bc 395f bdbd 3a4f fc3d
000003e0: 25a1 7d3d 0736 fe3d d2ad 8e3d c4b1 51bc
000003f0: 04fe 40bd 1fdb e4bd 17eb da3c c1d8 12ba
0.0809165 0.037702955 0.14973779 -0.02032185 -0.082539424 0.07961542 0.12996235 0.18633915
0.03784904 0.13688451 -0.057830084 0.035722315 0.12351929 0.046262816 0.02320479 -0.03820051
0.099124044 0.087811545 -0.014505881 -0.11331113 0.033342116 0.13464598 -0.021434618 0.03675103
0.015022614 0.19724356 0.05598367 0.06380794 -0.10804676 -0.06347259 0.060119487 0.11492074
0.16014472 0.019696657 0.013540231 0.082821265 0.08076008 0.0017893255 0.026279293 0.07846308
0.12703018 0.08494734 0.08540876 0.18362093 0.025235794 0.1200465 -0.077048205 -0.046008788
0.06821277 0.08193579 -0.070624374 -0.07278808 0.06001201 0.11489223 -0.12556158 -0.069502465
0.09815871 0.06587693 0.09579018 0.15581 0.010408224 0.066982254 0.027293297 -0.06410723
0.09355995 0.02902432 0.11658009 -0.09020435 0.026593564 0.06459292 0.09520189 0.15423061
0.031563677 -0.038135502 -0.09762926 0.1670693 0.032933023 0.04447637 0.02401682 0.10235438
0.0357254 0.045961067 0.013959309 -0.060650855 -0.02981581 0.10999634 0.16161099 0.05306435
-0.06376443 0.057374205 0.14002073 0.050342035 -0.021862378 -0.042075086 0.11111389 0.072184704
0.15810266 -0.04953078 0.14111707 0.01408934 0.043545652 -0.06473424 0.028103113 -0.0053992886
-0.023024391 0.16733666 0.13637352 0.0025288146 -0.12224114 0.13363379 -0.08283086 -0.0070270603
0.0920551 0.0039503323 0.043192785 0.03814252 -0.027886834 0.078465566 -0.049664814 0.07114592
0.0039685927 0.025289478 -0.0354566 0.023909526 0.09880742 -0.062931545 0.09273892 -0.076402314
-0.027417326 0.053134475 -0.11570681 0.06183723 -0.006775274 -0.123585075 0.07006613 -0.13588104
-0.15811086 -0.09230165 -0.08430299 -0.08215048 -0.11316453 0.16784875 0.18087073 0.028183047
-0.13547748 0.12500907 0.01180854 -0.074192174 0.1130335 0.046810463 0.0766994 -0.012552174
0.08866838 0.12932552 0.041699722 0.154951 -0.040018667 0.005505939 0.1474293 -0.08016202
0.11232327 -0.07440179 -0.11681969 -0.09445488 -0.123904146 0.05882115 0.08133311 -0.13809775
0.05665315 -0.1577216 -0.15280096 -0.17113917 -0.11435163 0.051478785 -0.023767592 0.113268174
0.1348406 0.08246075 0.13193667 -0.019978782 0.015148877 -0.04712812 -0.12872387 0.15890561
-0.0956301 -0.04163031 -0.053734507 0.12126445 0.14547452 -0.026628708 0.15846415 0.10858358
-0.034070387 -0.06289695 0.12395581 0.10359259 0.109160796 -0.13305181 0.16062547 0.110486016
0.0037114825 0.08243397 -0.10234865 -0.0027969123 -0.068224736 0.046515 0.04749072 0.0031033459
0.052628923 0.15386838 -0.0330599 0.07864999 0.0786463 -0.06410905 0.073210195 0.096174054
0.13973369 0.17066096 -0.02319192 0.029760594 -0.06876385 0.025937838 0.049074017 0.026296439
0.10809091 0.11703168 -0.057232954 0.009369496 -0.0055040107 0.1348301 0.00617278 -0.06745905
0.085682005 0.11018271 0.20160817 0.043527793 -0.015604451 0.0007172731 0.09133937 -0.06656913
0.11881495 -0.028667992 0.08156239 -0.077587925 0.12913905 -0.027496226 -0.09246678 0.12319799
0.061921258 0.12412649 0.06966747 -0.01279873 -0.04711725 -0.111746065 0.026723428 -0.0005601757

lstm.weight_hh_l0 f4 [256, 64]
00000000: 8a7a 05bd 325d 1a3d 3a0b 023e 0b6f a7bd
00000010: d7f0 97bc f80d 493c ad79 ecbd f6d9 323c
00000020: d0eb 04bd 1353 e33d 6a7d 7dbd 6985 363d
00000030: 046f 76bd 57d1 debd 5c5a 28bd 1a7b 75bd
00000040: c98e b2bb 3b6b 0bbe 8516 1b3d 8bd6 a3bd
00000050: 59b3 653d 7781 4c3b 8761 f03c 65f0 90bd
00000060: e16b fcbc ccaa 053e a7f2 a13c cdde 20bd
00000070: 4a86 50bd cbf6 d03c e47e 8abd 38da 1abd
00000080: b107 47bd a628 aa3d f4a1 003e a0db a23c
00000090: 968b 463b e6c1 0a3d edbd 33bd 6590 d23c
000000a0: 602f 193d 06ad 0c3e 39a2 59bd 8c05 be3c
000000b0: 46d1 05be 4d03 93bd 4df3 e63d 7d97 a7bc
000000c0: d983 fe3c a532 a43d 4841 fa3d ab9d c0bd
000000d0: 1179 b43d 6276 073e 1f41 2fbc f4f1 643d
000000e0: 3aa6 a7bd 5e7c 98bd ef0e ff3d 33c4 b8bd
000000f0: a05a 923d 08bd fb3d 59ee 5fbd 847c 8cbc
00000100: 0843 e03c 8028 76bc 226c 243d 1250 3abc
00000110: b12e cd3d 57e6 d1bd bf2d 473d 186d 19bc
00000120: 6c3a 5d3c 28ad c8bd f0d6 a33d 0234 d73d
00000130: 15ce debb 8404 053e b54f 623d 212c a33d
00000140: 5570 713d d586 87bd f26e 983d 4608 ccbc
00000150: 9125 e7bd 735b bbbd a060 b53d 7ada 6e3c
00000160: 97f9 95bd 7db8 86bd 137c 893d c556 a2bd
00000170: 506b 8abc 4fcd d4bd c71d d33c c482 9ebd
00000180: 244b 4c3d c760 bfbd 0cd8 57bd 2f39 563d
00000190: e4d1 98bd ba1f 79bc a826 b6bd 6845 85bd
000001a0: 381e dcbc bd68 e6bd 0edb 923d f2da 313d
000001b0: 2aad c63d f695 b43d 734d b0bd 7f04 b93c
000001c0: 6375 fabd 8966 cd3d 503f ae3d 9112 64bc
000001d0: 66ba 51bd db8e cf3c cffc 04bc 8e6b ea3d
000001e0: a9c2 d7bc 3b3e 99bd eac0 80bd f0d1 a4ba
000001f0: 225e acbd 3c84 2cbd ff89 c43c 44f4 6bbd
00000200: 68ec e2bd 0a7b d1bc 14bb f2bd 31a3 ff3b
00000210: d680 46bd b17e 08bd 18e1 cd3d 13d2 4abd
00000220: 14bc 1e3d afee b13d 02bf 733d b4d2 09be
00000230: c5ca 7a3d 67f0 9d3c 3fae b1bd f13b b2bd
00000240: 97c3 a6bd bedf ff3d 34da 073e 9057 afbc
00000250: 0e28 103d 018e 4eba ab65 1a3d d030 03bc
00000260: be89 d3bb a25c 1a3e fa24 8dbd 835c 2b3e
00000270: 0d03 67bd ba35 a2bd 49e1 9dbd fb29 403d
00000280: eae8 083e fa51 bebc f96b 253d 55bf 32bc
00000290: 2a4b b43d 9863 3b3d 5aa2 5c3d d6df d83d
000002a0: a906 e43c dfb1 d03d 6b6c 3a3d cd76 27be
000002b0: 2023 f0bc d5a7 edbd 2bd8 09be d9ab 273d
000002c0: 2c4d bc3c ee3e 5e3d b067 95bd 1a78 ccbd
000002d0: 0271 c9bc cd21 c0bd f219 aebd b803 d23c
000002e0: f791 b5bc 97f7 e93c 9a48 d33d 9eb3 913d
000002f0: 5afb d7bc cb47 9cbc ece1 aebc a470 16bd
00000300: db22 56bd fa30 ca3d 6a09 e83c 98b4 e2bc
00000310: fdbd 4dbd 5884 cc3c 82b7 0abc ebda 8a3c
00000320: 8440 e6bd 713c ebbd cf19 fa3d 917c 43bd
00000330: 541b 82bd cd8b a5bd f0dc 08bd 1118 eb3c
00000340: 8589 36bd 6f08 233a bf5c c93d 4ead aebc
00000350: 2ba0 92bd 6e89 4fbc 483e ce3c 9f81 87bc
00000360: 92a0 ad3d 465f 0c3e e2fa cd3d 0f91 a8bd
00000370: 823b 233d d6b6 6e3d d763 c43d 2e1e 60bd
00000380: ee17 87bd f6bd ac3d e080 5dbd 15cf 6c3d
00000390: e13d 873c 2c26 9bbc 1a59 adbc ff26 51bd
000003a0: d28f 3e3d 962d d03d 7a42 b13c 78ec acbd
000003b0: 328c 703d 8e4e ccbc cdd4 143d 3e26 873c
000003c0: 08fd 573d ea08 673d db8a be3d 827c edbd
000003d0: cada b23c 1150 8bbd a330 e5bc 10d6 3f3c
000003e0: 6f69 cdbd e917 02bd 4726 9fbd ee82 743b
000003f0: 98fa 6b3d 4f3b 87bd 9cf8 b33d 2df9 55bb
-0.032587565 0.037686534 0.12699595 -0.08175477 -0.018547459 0.012271397 -0.11546645 0.010916224
-0.03245145 0.110998295 -0.061887182 0.044560824 -0.060164467 -0.10879772 -0.0411018 -0.059931852
-0.00544915 -0.13615124 0.037863273 -0.07999905 0.056079242 0.0031205097 0.02934338 -0.070771016
-0.03081316 0.13053435 0.019769026 -0.03927498 -0.050909318 0.025508305 -0.06762484 -0.037805766
-0.04859132 0.08308534 0.1256178 0.019880116 0.0030295602 0.033876322 -0.0438823 0.025703618
0.037398696 0.13737878 -0.053133223 0.023196004 -0.13068113 -0.07178364 0.11276875 -0.020457977
0.03106873 0.08017472 0.12219483 -0.09405073 0.08812154 0.13228753 -0.010696678 0.055894807
-0.08186002 -0.07445596 0.1245402 -0.09021797 0.071461916 0.12291914 -0.054670665 -0.017149217
0.027375713 -0.015024304 0.040142186 -0.011371629 0.10018671 -0.10249012 0.04862761 -0.009364389
0.013502698 -0.09798652 0.079999804 0.105079666 -0.0067994692 0.12990004 0.055251796 0.07967401
0.05894502 -0.06617514 0.07443036 -0.024906289 -0.11286462 -0.09148302 0.088563204 0.014578456
-0.07322996 -0.06578157 0.067131184 -0.07926706 -0.016896874 -0.10390722 0.025771035 -0.07739785
0.049876347 -0.09344631 -0.052696273 0.05230063 -0.074619085 -0.015205318 -0.08894092 -0.06507379
-0.026869878 -0.11250446 0.071706876 0.043421693 0.09700997 0.08817665 -0.08608522 0.022585152
-0.12229421 0.10029323 0.0850817 -0.013920442 -0.051203154 0.025336673 -0.008116915 0.11446296
-0.026337938 -0.07482573 -0.062867954 -0.0012574773 -0.08416392 -0.042118296 0.023991583 -0.057605997
-0.11080247 -0.025571365 -0.118520886 0.0078014364 -0.04846271 -0.033323947 0.10052699 -0.04951675
0.038753584 0.086881034 0.05950833 -0.13459283 0.061228532 0.019279672 -0.08675813 -0.08702839
-0.081427746 0.12493847 0.13266832 -0.021404058 0.03519445 -0.00078794366 0.037694614 -0.008007243
-0.006455629 0.15074399 -0.06891818 0.16734509 -0.056399394 -0.07920404 -0.07708985 0.046915036
0.133701 -0.023232449 0.040386174 -0.010909875 0.08803399 0.045749277 0.053865768 0.10589568
0.027835207 0.10190176 0.04551355 -0.16353913 -0.029313624 -0.11604277 -0.13461368 0.04093537
0.022986017 0.054259233 -0.072951674 -0.09983845 -0.02459002 -0.09381447 -0.085010424 0.025636539
-0.022164328 0.028560443 0.10316582 0.071143374 -0.026364971 -0.019077202 -0.021347962 -0.036728516
-0.052279335 0.09872623 0.028324801 -0.027674004 -0.050230015 0.02496545 -0.008466603 0.016950091
-0.11242774 -0.11486138 0.12211954 -0.047726218 -0.06352869 -0.080833055 -0.033413827 0.028698
-0.044564743 0.0006219213 0.09832143 -0.021322872 -0.07159456 -0.012667043 0.025176182 -0.0165413
0.08477892 0.13708219 0.10057618 -0.08230793 0.039851673 0.058279835 0.095893554 -0.05471628
-0.06596361 0.0843467 -0.054077983 0.057814676 0.016508998 -0.0189391 -0.021160651 -0.05106258
0.046523876 0.10164945 0.021638144 -0.0844354 0.05872745 -0.024939802 0.036335755 0.016497727
0.052731544 0.056404985 0.09303828 -0.115960136 0.021832842 -0.06802381 -0.027977293 0.011708751
-0.100298755 -0.031761084 -0.07770973 0.0037309485 0.05761203 -0.06603109 0.08787653 -0.003264974

lstm.bias_ih_l0 f4 [256]
00000000: e61e 493d 0fa3 983d 1b12 023e a590 b73d
00000010: 2762 823d 7c43 9c3c d29f 2c3b 415b 9c3d
00000020: 3e49 de3d a75b da3d 4020 b43d 713c 04bd
00000030: ab9c 92ba a925 a13b fabe a4bd c804 9d3d
00000040: 264c d7bd f9b2 afbd 8908 fdbc 8fda da3c
00000050: b4f2 03bd f3c4 463d 2687 8d3d 2f7a a5bd
00000060: 0b4f 713c 923a a73d 1785 ebbd 9515 2d3e
00000070: 0055 3d3d 5bc6 c3bd cf63 ba3c 4ef6 b9bd
00000080: 3f3d 9a3d 4507 d7bd b5c1 63bc ca1c bc3d
00000090: 8427 09bd ccaf dfbc d7a7 d0bd 5dad a7bd
000000a0: d212 d7bd d8f1 59bd 5b02 8fbd 974a a53d
000000b0: df5f ca3d 43d3 5bbd 269d 143d d72b 7f3d
000000c0: fedd b13c 35c6 a53d 4957 9abc 7082 ee3d
000000d0: 3831 f93d 0781 08bc c6b6 dcbd f3ee afbd
000000e0: 1f59 673d 870f 0ebd 659d a43d ca2d 0bba
000000f0: e0ff a93d 972c 483c 01ea 033e aa70 1dbd
00000100: 7b2e eebc aec6 2dbd 33b1 6e3d cfb5 babc
00000110: 4cf4 f23d 5a06 71bc 4cf9 843d ba28 57bd
00000120: 6bd1 583d 1c76 843b 89f6 e83d 5d49 ed3d
00000130: 8a57 5b3d ed9d 233d 1450 253d 85b8 84bd
00000140: 8d7d b0bd de36 2d3c c8d3 d43b fca3 b6bd
00000150: 335a 323d 9d83 c0bc 1804 893c 0571 9e3c
00000160: d678 9039 1fe9 53bd d779 283d cf0a dd3d
00000170: 5fd2 cd3d f773 c83d 438c 023c 3080 6cbd
00000180: 0262 58bd 1188 f93d 6ba8 023e 8e7d 60bd
00000190: 812a 00bd be57 c2bb ac18 eebc 7c50 603d
000001a0: 3d78 2fbd 3aa6 543d 7444 333c 0d46 183e
000001b0: 7bf5 853d 79c2 76bd 2fe0 a6bd 65f6 d6bd
000001c0: 000b 7cbc 9f14 adbd 7ca1 d23d bc09 f53b
000001d0: 00b7 a23d 69ca c43d 9a3a c1bc 9791 323d
000001e0: 7018 833d 5f0e c83d a514 c23d 2717 a5bd
000001f0: 8bc9 5d3d 6967 eabd 1403 9dbd 93d3 21bd
00000200: 3dfe b33d a14b 77bc b4ae 92bc 9f02 1d3d
00000210: 4162 66bd 7131 9c3d c38a 353c a691 39bd
00000220: b895 9b3c 70e4 adbd 6ba9 7e3d 097b b0bd
00000230: 1e1f 8dbd 829c 8fbc c0a7 723d edc9 d2bd
00000240: 0fc2 2abc 0109 253d 7719 393d 74df d5bc
00000250: cedf a63d 930b 99bd 73b0 fd3d e7dd ad3d
00000260: 92ad 583d c23d c7bd c645 1cbb 714b 4a3b
00000270: b484 813c 4565 3d3d 4b1f f9bd 4dbf babd
00000280: c588 e63d 8f81 4abc f381 c9bd 91a1 b03c
00000290: 8839 58bd 765b cbbd 0e16 e13d 0ac2 e1bd
000002a0: 6829 8d3d 2d30 d6bc a084 4abd 2680 713d
000002b0: 9bfc b73c 279b 49bd 3960 31bd 2dc3 0bbe
000002c0: 34d9 f33d bd50 3e3d c81b 27bd fd09 053d
000002d0: a381 13bd b208 09bd ca9b d7bc 61f5 1e3d
000002e0: 023f 5f3d c8e2 c03d 36b9 89bd 4983 633d
000002f0: 587a 37bd f27a 03bd cb7c ffbd 6172 1b3d
00000300: 2605 cbbc 2805 e6bc 918f fabc dc1f c93d
00000310: 0ff4 bdbd eeef bc3d 7d80 b43d a35a bb3d
00000320: 4d09 03bd 93bd cfbd 23d9 c53d ddd1 4dbc
00000330: b796 e63d 87c1 723d 92ea a13d b29c 3b3d
00000340: a537 ea3d 62b3 413c f098 983d 9648 9ebd
00000350: 568d 50bd b2fe e03c b4ad 10bd 833f cd3b
00000360: ae73 e83d 5dd9 7cbd 33da 78bd 878f 22bd
00000370: a0a4 46bd 869c e8bc 942d 263e 0c5b e4bd
00000380: 54f6 69bd 46db b3bd c3fa 0a3a a7c4 e5bd
00000390: 6de3 7e3d d60b c5bd 6153 2d3d 2292 c8bd
000003a0: 3574 2abc 431e 063e 04a0 b33c e1b2 2e3e
000003b0: c729 30bd f351 60bd c740 e7bd e5de a6bd
000003c0: 50e7 9abd 4751 14be 8184 9fbd ba9e 9b3c
000003d0: d58a f23d 42f3 d33d d90e 923d d085 af3d
000003e0: 208e a43d 0784 893d 7c8c a23d acd6 1a3d
000003f0: 4810 14bd 25ae 07bc cdc8 12bd c538 e9bd
0.049101733 0.07452976 0.12702219 0.08963136 0.06366377 0.019075148 0.0026340378 0.07634593
0.108538136 0.106620125 0.08795214 -0.032284204 -0.0011185607 0.0049178195 -0.080442384 0.076669276
-0.10512571 -0.08579058 -0.030887859 0.026715545 -0.03221388 0.04852767 0.06910543 -0.08079945
0.014728318 0.08165468 -0.11499994 0.16902764 0.04622364 -0.09559318 0.02275267 -0.09080182
0.07531213 -0.104994334 -0.013901164 0.091851786 -0.03348495 -0.027305506 -0.10188263 -0.08187363
-0.105016366 -0.053209156 -0.06982871 0.080708675 0.09881567 -0.05366827 0.03628268 0.06229767
0.0217123 0.080944456 -0.018840449 0.11645973 0.12167591 -0.008331544 -0.10777049 -0.08590498
0.056481477 -0.034682777 0.08037833 -0.00053092523 0.083007574 0.012217662 0.12882234 -0.038437523
-0.029074898 -0.042425804 0.05827446 -0.022791771 0.11863002 -0.014710987 0.06492862 -0.052529074
0.05293409 0.0040424 0.11375148 0.115862586 0.05355028 0.03994553 0.04035957 -0.06480507
-0.08617697 0.010572163 0.006494973 -0.08917996 0.043543052 -0.023500258 0.016725585 0.019341001
0.0002755585 -0.051735993 0.04113182 0.10793077 0.10049891 0.097877435 0.007968011 -0.057739437
-0.052827843 0.12184156 0.12759559 -0.05480724 -0.031290535 -0.00593087 -0.029064499 0.054764256
-0.042839278 0.05191634 0.010941613 0.14870472 0.06540962 -0.060244057 -0.081482284 -0.10496215
-0.015383482 -0.08451199 0.10284707 0.007477967 0.07945061 0.09608919 -0.023587514 0.043595877
0.064011455 0.09768366 0.09476594 -0.080610566 0.054147284 -0.11445505 -0.07666603 -0.039508414
0.087887265 -0.015093715 -0.01790557 0.038332578 -0.056246046 0.07626618 0.011080447 -0.045304917
0.01899229 -0.084908366 0.06217329 -0.08617217 -0.06890701 -0.017530683 0.05924201 -0.102924205
-0.010422244 0.04029179 0.0451903 -0.026107527 0.08148156 -0.07472911 0.12387171 0.0848959
0.052899905 -0.09728576 -0.00238453 0.003086772 0.015810348 0.046239156 -0.12164172 -0.09118519
0.112565555 -0.012359991 -0.09839239 0.021561416 -0.05278924 -0.09929554 0.10990535 -0.11023338
0.06892663 -0.026146019 -0.049442887 0.058960102 0.022459319 -0.04922023 -0.043304656 -0.13648672
0.119066626 0.046463717 -0.04079798 0.03248023 -0.036012303 -0.033455558 -0.026319403 0.03880823
0.05450345 0.09418255 -0.06724779 0.055545125 -0.04479441 -0.03209967 -0.12474974 0.037950877
-0.024782728 -0.02807863 -0.030586036 0.0982053 -0.09275066 0.092254505 0.0881357 0.09148147
-0.03199129 -0.1014358 0.09660556 -0.012562242 0.11259215 0.059266593 0.07906069 0.045803733
0.114363946 0.011822553 0.074510455 -0.077286884 -0.05091604 0.027465198 -0.035321906 0.0062636747
0.11350189 -0.06173073 -0.060754966 -0.03968766 -0.048496842 -0.028394949 0.16228324 -0.11150178
-0.057119682 -0.087820575 0.00053016486 -0.11219149 0.06222861 -0.09621398 0.042315844 -0.097934976
-0.0104036825 0.13097481 0.021926887 0.17060424 -0.043008592 -0.054765653 -0.11291652 -0.081479825
-0.075636506 -0.1448413 -0.07788945 0.018996585 0.11842886 0.10349132 0.07131738 0.085704446
0.08034921 0.06714635 0.079369515 0.037802383 -0.03614834 -0.008281265 -0.03583603 -0.11387781

lstm.bias_hh_l0 f4 [256]
00000000: ea84 92bd 39a7 f93c ed82 a5bd 27c2 003d
00000010: 81e1 4c3d 7b73 bd3d 6af3 023e 4c99 0cbd
00000020: 0ee0 a63d 3a79 fd3c 52d7 dabd 5193 92bd
00000030: b63b a3bd e8dd 113e 0431 df3d c413 0a3d
00000040: e982 053e ef34 e53d 33cd a73d bdd5 09bd
00000050: c3f4 6d3d d715 96bd c1d8 c2bd 55e0 48bd
00000060: f6dd 5c3d c012 973d 9f4d d43d 4c3b 113e
00000070: 7a01 cd3d 525a 573d 830c 6abd 7c93 ac3d
00000080: 941f 063e 4316 b3ba b61c 0cbd 6eed d9bd
00000090: 5681 283d c6e4 b4bb f5af d3bc 8a42 603d
000000a0: 2623 863d 88f6 59bd c198 96bd 1f3e 413e
000000b0: 7733 aebd 2e98 623d 7bc6 01be c0c2 d2bd
000000c0: 5a9a c23d dd04 12be a094 053c 005e d6bd
000000d0: a793 023c 8c89 dc3d ad7e 97bb f847 d23c
000000e0: 6182 bcbc d776 e9bd b9d9 b83c 3c8a d5bd
000000f0: 8e54 c4bc b1c8 673d c9d4 af3c 26aa 143d
00000100: 22fc 3f3d 2652 debd da4e ca3d 5073 96bd
00000110: c8d6 e23d 8f63 86bb 42f5 edbd 5184 a83d
00000120: 6bed 6dbd 573a 83bd c993 d43c 11fc e23d
00000130: 0ac8 ebbd d7f9 dd3d 35a5 c3bd b68c f53d
00000140: 017a 80bd a6cc 95bd 4c3e 91bd d0af eabd
00000150: 7532 033e 92ee f73d 6803 e0bc effe 2cbd
00000160: 69a7 183d e346 1cbd f799 d63d 6180 243e
00000170: 2355 1ebd bdee 743c 76b9 133d a518 173d
00000180: f704 adbd fb05 c13c b920 ad3d f6ac 013d
00000190: 3682 163d caab 70bd 0673 303d fec1 e83d
000001a0: 8b47 b7bd 7798 cb3d 08e6 bfbd fd39 85bc
000001b0: 96bb 84bd ec48 c5bd 8288 9b3d e209 7c3d
000001c0: ade5 0a3d d931 0cbd 6201 b1bd bb06 d4bc
000001d0: 1c5a 99bd 5b42 08bd 9559 04bd 0ff5 843c
000001e0: 575b d8bd 5ce9 02be f5bc cb3d 1ff4 993d
000001f0: 0f19 b2bd c1e9 6dbd ad8a 173e 7b7e 34bd
00000200: 08f1 343d 9232 05be 2c57 4f3d e7b9 ccbd
00000210: 2bcb 6cbd 7782 d53d 1922 b83d 7687 2b3d
00000220: 1cdc 3cbd aafd 83bd adcc a9bd 2d65 9d3d
00000230: 7310 973d 64b0 563d 4437 2dbc 4641 87bd
00000240: dda6 e7bd 5e3a 54ba e564 4ebd 039e 853d
00000250: 7640 74bd 617b da3d 70c4 98bd 1291 3a3d
00000260: 3ae5 143d 29e6 07bc 555f f3bd 6845 f63c
00000270: 849d c2bc 2244 773b a9ff a53d 19af afbd
00000280: 2a51 f73d fe02 4ebd 916b c7bd 1db5 483d
00000290: 0490 f3bd 9c07 00bc 88a6 aebb ec8d 89bd
000002a0: 31aa ea3d c268 2f3d 0cc8 5e3d 0e5b fc3c
000002b0: 8c18 d13c e2dd fbbd ae53 c13b 15c0 a33d
000002c0: 6872 643d 489d b8bd b013 223d eb0b acbd
000002d0: 6cbe 753c 94e2 dcbc afcf eb3d f802 8b3d
000002e0: 3b7c ea3c 80f3 4cbd 5c8f 90bd ee46 87bd
000002f0: e07b c23d 7ff5 b4bd 350a f13c 3d6f 763d
00000300: b0f5 09be 5d97 a43c 52d4 04bd a21b 2d3c
00000310: 13f2 893d 6059 6fbc 5226 793c ba1d 92bd
00000320: ebd4 fcbb 5ebe 3ebd 9171 903d d6c1 ba3c
00000330: f58a a73b 9cd8 dc3d 3506 963d 044f 683d
00000340: a7e8 20bd 2fce 1bbd 16ff 69bd bd54 4d3d
00000350: 0dd8 9abd 6315 dfbd 28fb 663d 40c9 2d3d
00000360: 4012 b2bd 3c5e 913c 0450 b8bd fe30 b8bc
00000370: eb0b 023c 437d a4bd a448 123c 696d 333d
00000380: 37b3 ccbd daba ac3d d2de 8f3d f57e b23d
00000390: 9df5 f53c 1d83 5cbd 3018 79bd d2f3 bb3d
000003a0: e7bd 35bc 402d f5bc ffa4 83bd 45dc 423d
000003b0: 947c 0d3e 6ad1 d53c 14f3 fbbc d912 3abd
000003c0: 3cd2 9c3b b333 05be 8b97 8bbd 8d9b c33d
000003d0: f035 dbbd 8202 903d 9b02 a2bd 669a a63d
000003e0: 8155 573d 3d89 c33d fcff 44bd 73ad 4d3d
000003f0: 1dc5 f2bd eacf 393d f501 8dbd 3a5f a93c
-0.071542576 0.030475246 -0.08081613 0.031435158 0.050019745 0.09250542 0.12788168 -0.034325883
0.08148204 0.030941594 -0.106856 -0.071570046 -0.07970373 0.14244807 0.10898021 0.033710256
0.1303822 0.11191737 0.081934355 -0.033651102 0.05809475 -0.07328384 -0.09513999 -0.049042065
0.053922616 0.07376623 0.103663675 0.14182776 0.10010047 0.05257637 -0.05714084 0.08426568
0.13097984 -0.0013663251 -0.03420707 -0.10640989 0.04113897 -0.005520436 -0.025840739 0.054750957
0.06549673 -0.053213626 -0.07353354 0.18871354 -0.0850591 0.05532091 -0.1267337 -0.10291052
0.095020965 -0.14259668 0.008153111 -0.10467148 0.007969773 0.107684225 -0.004623255 0.025669083
-0.023011388 -0.1139962 0.022564756 -0.10426757 -0.0239661 0.05658788 0.021463769 0.03629508
0.046871312 -0.10855512 0.09878321 -0.07346213 0.110761225 -0.004101224 -0.11619045 0.08228362
-0.058087748 -0.06407612 0.025949376 0.11083234 -0.11512764 0.10838669 -0.09552995 0.11989729
-0.062732704 -0.07314424 -0.0709196 -0.11459315 0.12812217 0.121060506 -0.027345374 -0.04223531
0.03726903 -0.03815354 0.10478585 0.16064598 -0.03865541 0.014949498 0.03606554 0.036888737
-0.084482126 0.023562422 0.08453507 0.03165909 0.036745273 -0.05875758 0.043078445 0.11365126
-0.089491926 0.0994119 -0.09370047 -0.016263003 -0.06481092 -0.09633049 0.07594396 0.061532862
0.033910442 -0.034227226 -0.08642842 -0.025882116 -0.0748789 -0.033266407 -0.032311995 0.016230134
-0.10564297 -0.12784332 0.0994815 0.075172655 -0.08696186 -0.058084253 0.14798994 -0.044065934
0.044175178 -0.13007572 0.050620243 -0.099963956 -0.057810944 0.10425275 0.089908786 0.041877232
-0.04610835 -0.06444867 -0.08290992 0.076853134 0.07376184 0.052414313 -0.010572258 -0.06604247
-0.113111235 -0.00080958556 -0.05038919 0.06524279 -0.059631787 0.10668064 -0.074593425 0.045548506
0.03635142 -0.008294621 -0.118834175 0.030062392 -0.02375675 0.003772982 0.08105404 -0.08578319
0.12076028 -0.050295822 -0.097373135 0.049000848 -0.11892703 -0.007814314 -0.0053299107 -0.067165226
0.11458243 0.042824514 0.05439 0.030805137 0.0255244 -0.1229818 0.005899868 0.07995621
0.05577317 -0.09014374 0.039569557 -0.08400711 0.014999013 -0.02696351 0.11514222 0.067876756
0.02862369 -0.050036907 -0.07058594 -0.06605326 0.094962835 -0.08835887 0.029423812 0.06016468
-0.13472629 0.020091707 -0.032429047 0.01056567 0.06735625 -0.014608711 0.01520689 -0.07134576
-0.0077158115 -0.046568267 0.07052911 0.022797506 0.0051130005 0.107835025 0.07325403 0.05671598
-0.039284375 -0.03803843 -0.057128035 0.05012964 -0.0756074 -0.10892751 0.056391865 0.042428255
-0.08694887 0.01774513 -0.08999637 -0.022484299 0.007937412 -0.08031704 0.008928452 0.043805514
-0.0999512 0.084340766 0.070249215 0.087156214 0.030024344 -0.053835977 -0.060814083 0.091773644
-0.0110926395 -0.029928803 -0.06427955 0.047573347 0.13817054 0.026100833 -0.030755557 -0.04542813
0.004785804 -0.13008003 -0.06816014 0.09551153 -0.10703647 0.07031728 -0.07910653 0.08134918
0.052571777 0.095476605 -0.04809569 0.050214242 -0.118540026 0.045364298 -0.06885139 0.02067529

lstm.weight_ih_l1 f4 [256, 64]
00000000: 5fe7 fabc 842c 933c 1c23 8a3d b00e 86bd
00000010: 80e4 d2bd c8d5 bebd b042 e43d ebfe f1bd
00000020: ecef afbc 22e4 473d acd3 c53d c9f1 a7ba
00000030: 79ba 403c f847 c93d a6be 803d 21ec 063d
00000040: 281c 41bd b79f 6b3d 1cca b2bc 7f2e ebbd
00000050: 5937 e5bd 62b9 3e3c 4f71 d3bd 1678 aa3d
00000060: 9f0f 633d 256f fb3c 6132 a7bd 8429 e13c
00000070: bffd bc3d 63d8 ce3d 701a c83c f342 c53d
00000080: 919a f3bc 3682 8f3d 1890 ce3c 2bc9 7bbd
00000090: 0b14 f63b f3c3 073e 98eb cc3d 0550 b43c
000000a0: b6cf b9bd d8f1 e7bd e7e3 c5bd 22c8 42be
000000b0: a1fb 01bb 98bf 40bd 0455 7bbb fb6a d53d
000000c0: 3a67 d23d 20ce 48bb c701 e23d ae8a 883d
000000d0: b234 cd3d cb4d 373d 1086 4f3d 74d2 d7bd
000000e0: 0882 89bc 6e0d e63c 4ea2 c03d 00fb 1abc
000000f0: caa9 85bd 9fe3 3abd 13c1 5b3d 9e0b 943d
00000100: e84b 373d a92c f13b 2986 7b3d fdc8 b8bd
00000110: c8c7 6abd 0a0a e7bd ab6b 8b3b 0303 0bbe
00000120: 925b 633d fddf f53c 276d 2b3d 1b70 d73d
00000130: fbc2 16bd 3df2 99bc 110d b93d baa3 ce3d
00000140: d2d3 7bbb f6c1 1c3b e776 3e3d 3aa6 713c
00000150: c5b8 c9bd 2ef5 2cbb 2add b9bd 75b4 41bd
00000160: 57fb f4bd 2b44 193d b11c bfbd dd7c 40bd
00000170: 4ea4 273d f6b7 84bc df2b 94bc 0590 f83d
00000180: bd3a 02be 4f0a a2bd e80c fb3c f1f7 483d
00000190: e741 2b3d 0f35 f3bd 110e a5bd 6086 b6bd
000001a0: 44e3 01be feea 933d 6db1 dabd 9fc0 dc3c
000001b0: 20f5 c7bd cc75 843d 9496 153d b995 bf3d
000001c0: 6d11 cc3d 5193 c13d fd4f 6a3d 059b d33d
000001d0: 5c82 00bc 7268 703d d986 643c 2e5f 06be
000001e0: 1013 eb3d c9c5 57bd fa64 5c3d e128 003e
000001f0: 350f 653d 3c91 103c 50f0 073e 1986 693d
00000200: ef92 0fbd db3c 9d3d bf9d a4bd b436 edbd
00000210: 422a 8a3d b058 393d 7a9c be3d 08f2 0bbe
00000220: 49bf 8b3b 9b3b f9bd 6c60 09be 56e6 ba3c
00000230: 6224 3c3c 5443 22bd f7f4 f0bc fe27 9dbc
00000240: 5e33 dfbc 2531 ea3d 5cb8 c43d 9cbf c93d
00000250: 9fc2 c1bd 0625 7eba 29ee 3b3d 1da6 98bd
00000260: c3b6 8e3d 871a 103e d035 ca3d 6dd8 bb3b
00000270: b319 a2bd 2470 1cbd 05ea 63bd 354a cf3d
00000280: 43b1 7ebd 8e6c dcbd c2b6 b0bc 7b51 dc3c
00000290: c4c5 cfbb 95cd febd b9ae ba3d f6b1 953d
000002a0: dce5 f43d b785 2e3d aaa7 4d3d 826d ed3c
000002b0: 2aee a63c 0815 803d 584c 0ebe 3cf2 a3bd
000002c0: b14a 793d 94c2 1e3d 7962 123e 9780 20bd
000002d0: efee babd be67 353d 7727 a3bd e616 223d
000002e0: 09e7 d3bd 85e9 3dbd 2c3e 30bd e686 853d
000002f0: df9d e33d c7d0 833d 660c 6d3c 3aeb 22bd
00000300: 6bfb a33d b287 de3c a95e 843d f51b e53d
00000310: 9ad7 47ba 567f 1a3d f844 3d3c 8da0 81bd
00000320: f101 ba3d ca36 f1bd 4292 3a3b adf7 223d
00000330: c0e2 e5bc 85a6 133e e152 4a3d 511c cb3d
00000340: 03be ffbd a045 ba3d 7c1d 123e d61e c33c
00000350: da2e 123d cf5f 493d a7ef dbbc 735e 003d
00000360: 3bd7 98bd 0cdc c63c 1294 4dbd 1b60 c93d
00000370: 9b81 0d3c 6978 b83d 1a24 e83d d0b6 bd3d
00000380: dd5b a73c 2d25 b2bd ab79 8fbd 9e5c 753d
00000390: a13c f3bd 0a5a 95bd d0ae f6bb f0f7 50bc
000003a0: b59c 5bbd 07b4 84bd c7ff a3bd 1921 b43b
000003b0: df57 4b3d fe5e 6a3d 512b babd 0a44 a3bc
000003c0: 2f57 3ebd 7198 e43d 4e46 3d3e 77de f9bd
000003d0: 8941 7dbc f31a ebba 1ad5 ae3c 61d0 df3c
000003e0: efe3 d9bd fc89 acbc 0dd0 683d fa8f 193e
000003f0: 5a4a 2e3c e905 54bd 1624 1ebd 4556 85bd
-0.030627904 0.017965563 0.06744978 -0.0654577 -0.10297489 -0.09318119 0.11145532 -0.118162
-0.021476708 0.04880155 0.09659514 -0.0012813146 0.011763209 0.0982818 0.06286363 0.032940034
-0.047145993 0.057525363 -0.021824889 -0.11483478 -0.11192197 0.011640878 -0.10324346 0.08323686
0.05543482 0.030692646 -0.08163906 0.027485617 0.09228086 0.10099866 0.024426669 0.0963191
-0.029736789 0.07007258 0.025215194 -0.061471146 0.0075097135 0.13258342 0.100058734 0.022010813
-0.09072821 -0.11325425 -0.096626095 -0.19021657 -0.001983382 -0.047057718 -0.0038350234 0.104207955
0.10273595 -0.0030640438 0.11035495 0.06667076 0.100198165 0.044751924 0.05066496 -0.105381876
-0.016785637 0.028082576 0.09405957 -0.009459257 -0.06526525 -0.045627233 0.053650927 0.07228778
0.044750124 0.0073600602 0.061407242 -0.090227105 -0.057319432 -0.11281212 0.0042547784 -0.13575368
0.05550725 0.030014032 0.041852143 0.10519429 -0.03680704 -0.018792266 0.09035695 0.10089822
-0.0038425815 0.002391932 0.046500113 0.014749104 -0.09849695 -0.0026391256 -0.09075387 -0.047291238
-0.11962002 0.037418526 -0.09331644 -0.04699408 0.040928178 -0.016201 -0.018087326 0.121368445
-0.1271772 -0.079121225 0.030645803 0.04906458 0.041810896 -0.118753545 -0.080593236 -0.08912349
-0.12684351 0.072225556 -0.106783725 0.026947318 -0.09763551 0.064677805 0.036520556 0.09354729
0.09964261 0.094519265 0.05720519 0.10332302 -0.00784358 0.058693357 0.013948166 -0.13122246
0.11478245 -0.052678857 0.053807236 0.12515594 0.055922706 0.008823689 0.13275266 0.05701265
-0.035052236 0.07677623 -0.080379 -0.115826994 0.06746341 0.045250595 0.09307189 -0.13666546
0.0042647463 -0.12169572 -0.13415688 0.02281491 0.011483284 -0.03961499 -0.029413683 -0.019184109
-0.027246173 0.11435155 0.09605476 0.09851 -0.09460949 -0.0009694848 0.045881424 -0.074535586
0.06968453 0.1407262 0.09873545 0.005732587 -0.07915058 -0.038192883 -0.0556431 0.10121576
-0.06218077 -0.10762893 -0.02157152 0.026894322 -0.006340714 -0.124415554 0.09115357 0.07309334
0.11957905 0.04260799 0.050208725 0.028982881 0.020377237 0.062540114 -0.1389631 -0.08005187
0.060862247 0.038759783 0.14295377 -0.039185133 -0.09127604 0.04428839 -0.07966512 0.03957262
-0.10346801 -0.04636528 -0.04302804 0.065198705 0.11114096 0.064363055 0.014468288 -0.03977511
0.080069385 0.027164314 0.064633675 0.11186973 -0.00076233747 0.037719093 0.011552088 -0.06329451
0.090824015 -0.11778028 0.0028468524 0.039786983 -0.028062224 0.14418991 0.049395446 0.0991751
-0.12487414 0.09095311 0.1426906 0.023818415 0.035689212 0.049163636 -0.026847674 0.031340074
-0.07462927 0.024274848 -0.05019004 0.09832784 0.008636857 0.090073414 0.11335011 0.09263384
0.020429546 -0.08698497 -0.07005628 0.05990278 -0.118767984 -0.07292564 -0.0075281635 -0.012754425
-0.053616244 -0.0647965 -0.0800777 0.0054971096 0.049644347 0.057219498 -0.09090293 -0.019929904
-0.046469864 0.111618884 0.1848385 -0.12200635 -0.015457519 -0.0017937109 0.02134185 0.027321042
-0.10639178 -0.02106189 0.056839038 0.14996329 0.010637844 -0.05176345 -0.038608633 -0.06510595

lstm.weight_hh_l1 f4 [256, 64]
00000000: 8f7c dc3d a59c 043d 6983 8d3d 656c b4bd
00000010: 5cb9 7a3d f5f5 8fbc b969 363c c49c d23d
00000020: a586 6c3c b952 313d 3bdd 003e 5e4c ddbd
00000030: a592 103d 8bb0 c7bc ae15 9b3d 1cf1 d83c
00000040: e39f c33d f732 963d f920 e13c 9016 163d
00000050: 7aa9 b23d e00a 89bd 7a97 e5bd c77e b5bc
00000060: 52bf 07be f435 90bd ea52 dd3d e31d f2bd
00000070: 6a4d 833d cf85 c53d 97bc cebc 4882 2a3d
00000080: 6c13 b03d 7c13 09be 395f b93d 1480 073e
00000090: ab4d 71bd e0b1 b13d d952 9e3d 6948 083c
000000a0: 9e36 2f3c de9c 9e3c 9377 f13d fcdc a6bd
000000b0: b279 943c 84ee d3bd c098 a63d 0870 503d
000000c0: d0c8 8d3d eb92 bebd 4f09 e73d fc0a e33d
000000d0: 0c7a d2bd 5ad6 c8bc 5c49 e33d 13a2 cb3d
000000e0: 00db debc 4918 1cbd f473 e8b9 a496 a3bd
000000f0: 5d69 92bd a5be 83bd 1fc0 a1bc d416 e03c
00000100: 9f74 3ebd c600 34bb 6088 073d 1ec9 3f3d
00000110: 02fb f43d 15cf 96bd 0f76 d1bd aed4 d13c
00000120: 376c 03be 8605 643d 7709 f53c 5252 c83d
00000130: 908e 84bd 39b7 39bc 6d51 f33d f552 3f3d
00000140: 137c a43d e793 f43d 4587 a83b dba3 b0bd
00000150: 4602 3bbd 0682 a43c af89 c6bd 639e c6bd
00000160: 5f3f eb3d d43c 9dbd 6918 d7bc 905d bb3c
00000170: 0f40 763d b626 0fbc f731 ff3d 730c 31bd
00000180: 0cc0 f63d 2b4f dfbd ed86 dbbd e9df 053c
00000190: e4ac 063e 898c e53d 3387 ea3d eadf b73d
000001a0: de98 3f3d 8469 5fbd 226b 0dbd 7647 62bd
000001b0: 1fcc 4b3a be39 98bd becb e7bd c4c9 85bd
000001c0: b483 be3c 47a0 133d 4a85 00bd 94d9 d8bc
000001d0: 0c97 083e 9c23 eb3b 3293 cdbd 5926 0ebe
000001e0: 8f09 e8bd 7417 1dbd 0f1a 3fbd a3b1 f1bd
000001f0: ac7c d53d 5544 7d3d e8d8 48bd 9997 a53b
00000200: 6635 973d 3f72 7cbd 9c0f f1bd 4e0d 093d
00000210: b5bc a6bd 7ec6 03be 1772 94bd bbf7 40bc
00000220: 530d c8b9 188e 913d 3f29 0bbd 2c52 01bd
00000230: 8e4d 10bd 24bc 5fbd 42bd a8bd c750 573d
00000240: 8422 433d bf2c e0bd 21f8 e73c 8e6f e7bd
00000250: ae38 6b3d f932 ee3d ca5e b93d 2b70 1d3c
00000260: b14f ab3c a549 793d 7545 ca3d f5c0 913d
00000270: fa5e 87bc 910b 80bd 9251 57bd 3f5f d33d
00000280: a4ee b3bb 3464 4a3d d7af 56bd aba4 523c
00000290: cd2b afbd 21f0 b4bd cee9 353d 3489 1ebd
000002a0: c683 fabd 033d 513d dfeb 953d bb98 40bc
000002b0: b5d6 82bd 21ad 9abb b0a3 c33d 73e6 4cbd
000002c0: 262a 573d 6f39 063d 7192 abbc 0109 c2bd
000002d0: c387 16be 292e f4bc 3b05 f73c 639c c53c
000002e0: 9f9c e43d 1e74 b4bd 8ee8 8fbd d7dd 733d
000002f0: d028 8f3d 446e a6bd ad04 a23d 3e11 0f3d
00000300: 87ec 21bd dc75 a0bd de03 743d f7ae 0abd
00000310: db22 86bd 67c4 c0bd 5aa5 a4bc 0348 8fbd
00000320: 13d6 be3d e1be 8abd ea8a eebd 204f 71bd
00000330: 2adf 3b3d 6ed8 b63d 79e3 3a3b 4727 3f3d
00000340: 04c5 eabd 7a99 00be 8ac7 fabc 8ea2 3ebd
00000350: b8f2 f1bd 6204 aabc c936 823c 2038 623d
00000360: d7f5 3b3d d24c 22bd 7d18 6bbd f3b5 b5bd
00000370: fc80 96bd 3afe 87bd b380 083c f5be f63c
00000380: 3e92 67bb 2cba 573d 9f60 ac3d eade aebb
00000390: 7cdb b9ba cec7 bb3d 01b4 dbbc a8ad 053e
000003a0: 98b0 933d c9b1 ed3d 93ae cdbd 338e e4bd
000003b0: db6f 70bd 3e98 64bd 4d20 1fbd 55e8 eebc
000003c0: e219 0bb9 b828 bd3d 28df 83bd 4120 a3bd
000003d0: 45cd 52bc 835d 803b ccd3 06be f389 d63c
000003e0: 9e6e c9bc 0fe3 6a3d 4efe 77bd 16eb 2fbd
000003f0: 42c7 393c a0fd 513d ebe5 6abd ea71 debd
0.10765945 0.03237595 0.0690983 -0.08809737 0.06121193 -0.017573336 0.011133605 0.10283807
0.014436399 0.04329178 0.12584393 -0.108055815 0.0352961 -0.024376174 0.075724944 0.026482157
0.0955198 0.073339395 0.027481543 0.03664261 0.08723731 -0.06691527 -0.112105325 -0.022155179
-0.13256577 -0.07041541 0.1080683 -0.11822107 0.0641125 0.096446626 -0.025236411 0.041628152
0.085974544 -0.13386339 0.090513654 0.13232452 -0.05891196 0.08676505 0.07730646 0.008318045
0.010694174 0.01936191 0.11790385 -0.08147618 0.018124435 -0.103482276 0.081346035 0.05088809
0.069230676 -0.09305366 0.11281072 0.110860795 -0.10277185 -0.024516273 0.110979766 0.099430226
-0.027204037 -0.038109098 -0.0004433688 -0.07987717 -0.07149003 -0.06432847 -0.01974493 0.027354635
-0.046497937 -0.0027466281 0.03308904 0.04682266 0.119619384 -0.073637165 -0.10227596 0.025614109
-0.1283425 0.05566933 0.02991174 0.09781326 -0.06472504 -0.011335188 0.11880765 0.046709973
0.08031478 0.11942273 0.0051430785 -0.08625003 -0.045656465 0.020081531 -0.0969423 -0.096981786
0.114866965 -0.07677618 -0.026256757 0.022871763 0.060119685 -0.008737257 0.12460702 -0.043224763
0.12048349 -0.10903772 -0.107190944 0.00817106 0.1315189 0.112084456 0.114515685 0.08978255
0.046776645 -0.054543987 -0.034525998 -0.05524393 0.0007774252 -0.074328884 -0.113181576 -0.06532624
0.02325616 0.036041524 -0.031377114 -0.026470937 0.1333887 0.007175876 -0.10037841 -0.13881816
-0.11329948 -0.038352445 -0.04665571 -0.1180146 0.1042417 0.061832745 -0.049034983 0.0050534722
0.07383232 -0.06163239 -0.117705554 0.033459954 -0.08141462 -0.12868688 -0.072483234 -0.011777814
-0.000381569 0.0710718 -0.033974882 -0.031572506 -0.035230212 -0.054622784 -0.08239223 0.05256727
0.04764034 -0.10946035 0.02831656 -0.11300574 0.0574271 0.11630816 0.09051283 0.009609262
0.020912023 0.06086125 0.09876529 0.07116882 -0.01652478 -0.06252206 -0.052568026 0.10320901
-0.0054910947 0.049411967 -0.052413788 0.012856643 -0.08553276 -0.088348635 0.044412427 -0.038705066
-0.12232165 0.051083576 0.073203795 -0.011755164 -0.06388608 -0.0047203456 0.09552705 -0.05002446
0.05253043 0.032769617 -0.020943852 -0.094743736 -0.14700226 -0.029807167 0.030153861 0.024122423
0.111626856 -0.0881121 -0.07026778 0.059537735 0.06990206 -0.081265 0.07911048 0.034928553
-0.03953221 -0.0783498 0.059574 -0.033858266 -0.06549617 -0.09412461 -0.020098377 -0.06996157
0.09318175 -0.067746885 -0.116475895 -0.05891335 0.045867123 0.089279994 0.0028516932 0.046668317
-0.11463359 -0.12558547 -0.030612726 -0.046541743 -0.11813873 -0.020754043 0.015895264 0.055229306
0.045888748 -0.039624043 -0.0573964 -0.08872595 -0.073488206 -0.06640287 0.008331466 0.030120352
-0.003533497 0.05266778 0.084168665 -0.005336632 -0.0014179791 0.09168969 -0.026819231 0.13054526
0.07211417 0.116061755 -0.10043063 -0.11159935 -0.058700424 -0.055809252 -0.038849164 -0.029163519
-0.00013265715 0.09236282 -0.06439048 -0.07965136 -0.012866323 0.0039173975 -0.13166732 0.026188826
-0.02458888 0.057345446 -0.06054526 -0.042948805 0.011339011 0.051267266 -0.057348173 -0.10861571

lstm.bias_ih_l1 f4 [256]
00000000: 68ae ab3d 8607 d7bd b33a 8f3c 2532 8cbd
00000010: d205 a63d 2ac1 1ebd 8e34 57bd 8ed2 a2bd
00000020: 207a ddbd 3edd 913d 89c7 53bb 6895 e13b
00000030: cd4e f13b 9127 30bd 7353 a63b 626e c23d
00000040: c80a 1c3d f852 c73a a6a6 933c 02df fe3a
00000050: 67ae 88bc bb3b cf3c bc4a c43b 5ddf 3cbd
00000060: 9997 9cba 78fa b1bd 30a4 8b3d ba55 a0bd
00000070: 3ae8 e5bc 3ad9 c3bd f130 06bd 569a 483d
00000080: f36a ddbd 1c8f 493c 3c43 dc3d dcb3 43bd
00000090: 9999 873d aef4 953d 19a0 0a3e ad05 e03c
000000a0: 3bf2 9f3a 18bf d83d 0b94 d0bc 8948 563c
000000b0: 45e7 023e 5d6b 6d3d 48b5 25bd e96e 2dbd
000000c0: 7734 89bd 74ba 0a3e 3962 0abc 4598 8a3d
000000d0: 7059 febd 810b 4c3d 6489 2bbd 03c4 b73a
000000e0: 46f8 023e 8d8e dfbd 0889 7e3d f469 78bd
000000f0: 3129 5bbd 5d98 abbc 9954 3e3d 81c0 963d
00000100: ba32 ce3d 354a 7abd 9356 973b 6d49 983d
00000110: 3e6b 763d 023e 87bd 3943 a4bd da3b f73d
00000120: 7e1d b7bd 92fd d43d a8d7 883d b2a6 ef3c
00000130: b1ce 1ebd 2512 803d 47a5 4ebd 9a26 ec3c
00000140: 2945 a23c 935d 15bd 4ef4 5b3d d2cd fcbd
00000150: 7659 b3bd c39f b4bd 4527 e6bd 2273 94bd
00000160: 6177 3b3c 22e7 96bc 8794 153d 5a4c e8ba
00000170: ba23 b2bb bd33 b03d 04cc c23d db46 07be
00000180: 1812 f9bd bf16 94bd b889 1abd 1f00 9b3d
00000190: 163f 393d b8bd cd3c 0e79 36bd c13c e63d
000001a0: 1ae4 d4bd b2fb f2bd bd9c da3d ac3f babc
000001b0: 93fd b93d 4e22 1ebc 741e bc3d 663b 083e
000001c0: bf1b cd3d 4255 2a3d d8a3 483d ecf0 923c
000001d0: 8860 f3bd a6bc 8b3d 39bb a7bd d97e aa3d
000001e0: 0855 acbc 9ed9 db3d db0c b03d 03c0 e2bc
000001f0: e0b1 a0bc 321a b13d b2de 993d 71e8 b63d
00000200: 7219 53bd 543e 0f3d b516 86bd bc2f 35bd
00000210: 1d24 fa3d 30ec 033d 47ae 3e3d 00b7 b23d
00000220: 01c9 9e3d a954 a6bd 10b9 b3bd cb25 dfbd
00000230: 2d1d 69bc 538a bc3c 93e5 c4bd 3dee 3ebd
00000240: a771 a93d 04bc fcbc 3915 28bd 2aa8 b33d
00000250: 2fe1 d3bd 5db1 ba3d fd07 c6bd 3add 8cbd
00000260: 4654 943d b14c 853c d92b bb3b 5431 663c
00000270: 2eac 073e 4aed e83a dbad d73b e311 df3d
00000280: a2f3 bebd 4ff2 3e3c 186e 973a 42c8 33bc
00000290: 9301 39bd 4961 053d 98c4 2b3d 4898 5b3d
000002a0: a037 aa3c a1f3 1abd fa8a 08bd 34dc 5d3d
000002b0: d219 743d e957 1fbd bfd4 99bc 277a 08be
000002c0: 3f83 1dbd 03ac 6b3d 17f6 0a3e d42a ffbd
000002d0: e6d5 14bc 4435 e6bc 22ec 45bd 50d2 9d3c
000002e0: 4e44 e63d 8efe 9e3d cbd2 9e3d 4aa4 1ebb
000002f0: c404 10bd 975e 73bd 510f 99bd 5ba3 843d
00000300: 77b7 ac3d 8cad 9fbd 0720 ee3d 1c7c b8bd
00000310: 331a 873d f9c4 603d 7944 d7bb 5119 3d3d
00000320: e1f7 a0bd 13dd c43d 9fb3 d53c 7dfe a1bd
00000330: 1949 9d3d 06a8 8dbd 0994 5fbd 336e f7ba
00000340: 807e 9f3c c824 c93d 91c0 a7bc 7fdd 343d
00000350: 3590 943d bdb7 7cbd e127 7f3d 6b13 033e
00000360: 31e6 2c3d 1006 a7bb e328 593d a713 dbbd
00000370: 2cc0 493d 63dc cb3d 9e72 ecbc c028 863c
00000380: d867 a43d edb9 d5bd 77dd 41bc ff63 3a3d
00000390: 1e40 d7bd 1b93 bb3d 17a4 ad3c e1b3 053e
000003a0: afe0 82bd 311e 1b3d b227 a4bd 9ed4 d23b
000003b0: 3a15 8f3d 0007 bdbd 080d 233d 1f4d 913d
000003c0: cfa2 babd 1ff8 f63b 0179 a03d 4414 023e
000003d0: 20f6 00bd c202 0fbe 8f16 c2bc c9fc fb3c
000003e0: 3618 0e3e d788 273c 7747 b83d 6eef 2ebd
000003f0: abdd eabd 1bf5 453d 7e6e 353d e54d 93bd
0.08382875 -0.10499482 0.017484045 -0.06845502 0.08106579 -0.038758434 -0.052540354 -0.07950316
-0.10814309 0.07122277 -0.0032314977 0.0068842657 0.00736413 -0.043006483 0.005075866 0.0949371
0.03809622 0.0015207222 0.0180238 0.0019445124 -0.016684724 0.025297036 0.0059903543 -0.046111453
-0.0011947035 -0.08690351 0.06818426 -0.07828851 -0.028064836 -0.09562917 -0.032761518 0.04897531
-0.108114146 0.012302186 0.107550114 -0.04777895 0.06621093 0.073220596 0.13537635 0.027346456
0.0012202928 0.10583323 -0.025461217 0.013078817 0.12783535 0.057963718 -0.040456086 -0.0423421
-0.0669946 0.13547689 -0.00844627 0.06767324 -0.124194026 0.04981566 -0.041879073 0.0014020208
0.12790021 -0.10915861 0.062142402 -0.06064792 -0.05350608 -0.020946676 0.046467397 0.07360936
0.10068269 -0.061105926 0.0046184747 0.0743588 0.060160868 -0.06603624 -0.08020634 0.12071963
-0.08941172 0.10399927 0.06681758 0.029254291 -0.038771335 0.06253461 -0.05045059 0.028827
0.019808369 -0.036466192 0.053699784 -0.123439446 -0.08757298 -0.08819535 -0.11237959 -0.07248522
0.011442036 -0.01842076 0.0365186 -0.001772295 -0.005436388 0.08603618 0.09511569 -0.13210623
-0.12161654 -0.07230901 -0.037728995 0.075683825 0.04522618 0.025114879 -0.04454904 0.11242057
-0.103950694 -0.11864413 0.10674427 -0.02273544 0.090815686 -0.009651734 0.09185496 0.13303909
0.10015058 0.041585214 0.04898438 0.017937146 -0.11883646 0.06823091 -0.08190007 0.083249755
-0.02103664 0.107348666 0.08596202 -0.027679449 -0.019616067 0.086475745 0.07513179 0.089310534
-0.05153794 0.03497155 -0.065473 -0.044234976 0.12213919 0.032207668 0.046552923 0.08726311
0.07753182 -0.081216164 -0.08775532 -0.1089588 -0.014228147 0.023015177 -0.096141 -0.04661392
0.082736306 -0.030851372 -0.041035865 0.08772309 -0.10345685 0.091158606 -0.096694924 -0.06878133
0.072426364 0.01627192 0.005712014 0.014049847 0.13249275 0.0017770913 0.0065820045 0.108920835
-0.09323813 0.011654451 0.0011553196 -0.010973038 -0.045167517 0.03256348 0.041935533 0.053612024
0.020778477 -0.03783 -0.033335663 0.05416508 0.059594937 -0.038902197 -0.018778203 -0.13327847
-0.038455244 0.05753709 0.13570438 -0.12459341 -0.0090842005 -0.02810157 -0.048320897 0.019265324
0.11243497 0.07763396 0.07755049 -0.002420681 -0.035160795 -0.05941638 -0.074736245 0.0647647
0.08433431 -0.07796773 0.116272025 -0.09008047 0.06596794 0.054875348 -0.006569442 0.04616672
-0.07859779 0.09612479 0.026086627 -0.07909868 0.07679958 -0.069168136 -0.054584537 -0.0018877446
0.0194695 0.098214686 -0.020477565 0.044156548 0.07254068 -0.061698664 0.06229389 0.12800376
0.042211715 -0.0050971583 0.05301751 -0.10697108 0.049255535 0.09954145 -0.028863247 0.016376853
0.08027619 -0.10435853 -0.0118325865 0.04550552 -0.10510276 0.091589175 0.021196408 0.130569
-0.06390511 0.03787059 -0.08015384 0.0064340374 0.069864705 -0.09229851 0.03980735 0.07094788
-0.091130845 0.0075369026 0.0783558 0.12703043 -0.031484723 -0.13965896 -0.023692397 0.030760186
0.13876423 0.010225496 0.08998006 -0.042708807 -0.11468061 0.048329454 0.044294827 -0.071925916
