预测论文/save_model_para/best_model_seq40.pt (torch, 474908 bytes, 25 tensors)

encoder_layer.self_attn.in_proj_weight f4 [48, 16]
0	0x3da2e7ac	0.07954344
1	0x3de39240	0.11111879
2	0x3dbd4960	0.09242511
3	0xbe0ffd63	-0.14061503
4	0xbe66ed36	-0.22551426
5	0xbe8c257b	-0.27372345
6	0xbdc1b39c	-0.09458086
7	0xbe16f012	-0.14740017
8	0xbe4bb639	-0.19893731
9	0x3e9cbad5	0.30611292
10	0xbe65509c	-0.22394031
11	0x3e88572d	0.2662901
12	0xbe7faa66	-0.24967346
13	0x3de9e30c	0.11420259
14	0xbda04306	-0.07825284
15	0x3c80fa00	0.01574421
16	0x3dee278c	0.11628637
17	0x3e004690	0.12526917
18	0x3ca07090	0.019584924
19	0xbd83f82a	-0.06443818
20	0xbd3c4750	-0.045966446
21	0x3d755d30	0.059903324
22	0xbe8864e1	-0.26639464
23	0x3e9030a7	0.2816212
24	0xbe15c99b	-0.14627688
25	0xbe40ab80	-0.18815422
26	0xbe560978	-0.2090205
27	0x3e0c4de2	0.13701585
28	0xbd850d0e	-0.064966306
29	0xbbb8b440	-0.005636722
30	0x3e84a4cd	0.25906983
31	0x3e83e78f	0.25762603
32	0xbe964bb4	-0.29354632
33	0x3e4a73fa	0.19770804
34	0xbe035268	-0.12824404
35	0xbb9da480	-0.0048108697
36	0xbddfcefc	-0.10928151
37	0xbe88c922	-0.26715952
38	0xbe320729	-0.17385544
39	0xbe94a094	-0.2902876
40	0x3e2358f0	0.15951896
41	0xbd9a7a1e	-0.07542823
42	0xbe163525	-0.1466871
43	0x3e8f2281	0.27956012
44	0xbe4ddb92	-0.2010329
45	0xbe5ac67a	-0.21364775
46	0xbe90fc09	-0.28317288
47	0xbd1e86b0	-0.038702667
48	0xbd6511c0	-0.05592513
49	0xbe427d3e	-0.18993089
50	0x3e44fde2	0.19237474
51	0x3e8082c7	0.25099775
52	0xbe06de6e	-0.13170788
53	0xbe5fe962	-0.21866372
54	0xbde3ec04	-0.11129001
55	0x3d42fe08	0.047605544
56	0x3e8a3939	0.26996782
57	0xbe7ce68b	-0.2469732
58	0xbd8f4bec	-0.06996903
59	0xbe8c8a44	-0.27449238
60	0xbe747cb6	-0.23875698
61	0x3dc8b6e4	0.098005086
62	0x3e534852	0.20633057
63	0xbe799094	-0.24371558
64	0xbd68d404	-0.05684282
65	0xbd87521e	-0.066074595
66	0xbd5c42e8	-0.053774744
67	0x3d5ea070	0.054352224
68	0xbe844fe6	-0.25842208
69	0x3e8f8eb1	0.28038552
70	0xbe16acc7	-0.14714347
71	0x3e5a5162	0.21320108
72	0xbe6b8741	-0.23000814
73	0x3d6aa0b8	0.05728218
74	0xbe5fed8e	-0.21867964
75	0xbe25393c	-0.16135114
76	0xbe02792b	-0.12741534
77	0x3dbfe6d4	0.09370199
78	0xbc0ada40	-0.008474886
79	0x3d9bac74	0.07601252
80	0xbdf81646	-0.12113623
81	0x3dedb064	0.116059095
82	0xbe371a2a	-0.17881075
83	0xbd90feb0	-0.07079828
84	0xbd5f3b10	-0.054499686
85	0x3de80a40	0.1133008
86	0x3e4c036a	0.19923177
87	0x3c680d60	0.014163345
88	0x3dd374c4	0.10325006
89	0x3e5d4d42	0.21611503
90	0xbe410878	-0.18850887
91	0xbe065bff	-0.13121031
92	0x3e88a877	0.26691028
93	0xbd349b60	-0.04409349
94	0x3ce21180	0.027596235
95	0xbe9208a6	-0.28522223
96	0x3e8f1781	0.2794762
97	0xbe038258	-0.12842691
98	0x3e67fa8a	0.22654167
99	0xbe939e9b	-0.28831944
100	0xbd7e4434	-0.062076762
101	0xbdf70b52	-0.12062706
102	0x3e8ba0df	0.27271172
103	0x3e7b0bfe	0.24516293
104	0x3dfb29c8	0.122638285
105	0xbe2fd905	-0.1717263
106	0xbe37959b	-0.17928164
107	0x3dac3dc0	0.084102154
108	0x3da4d188	0.080477774
109	0x3e7e0c0a	0.2480928
110	0x3e82d39f	0.2555208
111	0xbe568a87	-0.20951281
112	0xbdfea576	-0.12433903
113	0xbe54c353	-0.20777635
114	0x3c212520	0.009835511
115	0x3e920115	0.2851645
116	0xbe0d27c8	-0.13784707
117	0x3e86b34d	0.2630867
118	0x3e36d4bc	0.17854589
119	0x3e575362	0.21027902
120	0xbe8e7032	-0.27819973
121	0x3da78ecc	0.08181533
122	0x3e89f38b	0.2694362
123	0xbe7a5b92	-0.24448994
124	0xbcd5f6f0	-0.026118726
125	0xbcd24c10	-0.025671035
126	0x3e8cabf7	0.2747495
127	0x3e1b2634	0.15151292
128	0x3dd8f03c	0.10592696
129	0xbdac5b1e	-0.08415817
130	0x3e7cbc76	0.24681267
131	0xbe3fc160	-0.1872611
132	0x3dba43f8	0.09094995
133	0x3cba1d40	0.022719026
134	0xbd160900	-0.036629677
135	0xbd8808fe	-0.0664234
136	0xbdfa9626	-0.1223567
137	0xbe671d66	-0.22569808
138	0xbddeb7c2	-0.10874893
139	0x3e482eda	0.19549122
140	0x3e243206	0.16034707
141	0x3e4f2a32	0.2023094
142	0x3e41d1ac	0.1892764
143	0x3e4c6a5a	0.19962445
144	0xbe238b8f	-0.15971206
145	0x3dd184d4	0.10230413
146	0xbe982d7d	-0.29722205
147	0x3e86a64d	0.26298752
148	0x3dcfd878	0.1014871
149	0xbcd41130	-0.025887102
150	0x3db5a1a8	0.08868724
151	0x3e025f48	0.1273166
152	0x3e1949cc	0.14969558
153	0x3d8e6034	0.06951943
154	0x3b505f00	0.0031794906
155	0x3a9c2200	0.0011911988
156	0x3e7a396e	0.2443597
157	0x3e62f67e	0.22164342
158	0x3e6b6e46	0.22991285
159	0xbe1bf086	-0.15228471
160	0xbdc34c1e	-0.095360026
161	0xbe29ff63	-0.16601329
162	0xbe6bbee2	-0.23022035
163	0x3ddeb334	0.10874024
164	0x3d3e4128	0.046448857
165	0xbe8e049d	-0.27737895
166	0x3e89d1ab	0.26917776
167	0x3dbb4ed8	0.091458976
168	0x3e8ac079	0.2709997
169	0xbc0b38e0	-0.008497447
170	0x3c33fcc0	0.010985553
171	0x3dd2a8d8	0.10286111
172	0x3d41b500	0.047291756
173	0xbe613a5c	-0.21994919
174	0xbe43de40	-0.1912775
175	0x3d2ab5b0	0.041677177
176	0xbbbcf180	-0.0057660937
177	0x3ccdef10	0.025138408
178	0x3e534a5e	0.20633838
179	0x3e878185	0.26466003
180	0x3e882539	0.265909
181	0x3d748c30	0.059704006
182	0xbe4d6046	-0.20056257
183	0x3e05c28e	0.13062498
184	0xbe6fad68	-0.23405993
185	0xbe3018ba	-0.17196932
186	0x3cf75b00	0.03019476
187	0x3db2cea0	0.08730817
188	0x3dac2824	0.08406094
189	0x3dc35974	0.09538546
190	0x3d6313c0	0.055438757
191	0xbe7888d4	-0.24270946
192	0xbe58a54d	-0.21156807
193	0x3e92db3d	0.2868289
194	0xbe9be170	-0.30445433
195	0x3e1b5ba4	0.15171677
196	0x3db5daf4	0.088796526
197	0x3e971825	0.29510608
198	0xbe642f3c	-0.22283643
199	0xbe6f609e	-0.233767
200	0x3e7148aa	0.23562875
201	0x3e8299b5	0.25507894
202	0xbe41456b	-0.18874137
203	0xbe271a15	-0.16318543
204	0xbe383802	-0.17990115
205	0xbe03e5dd	-0.12880655
206	0xbe5023e0	-0.20326185
207	0xbc09d7a0	-0.008413225
208	0x3d47e5c8	0.04880312
209	0x3e871279	0.2638128
210	0xbd68a788	-0.056800395
211	0x3ca6ef30	0.020377725
212	0xbc3aeea0	-0.011409432
213	0x3e3df5a2	0.18550733
214	0x3e9b07a3	0.30279264
215	0x3e5cadb2	0.21550635
216	0xbe32cc7a	-0.17460814
217	0xbe82a79a	-0.25518495
218	0x3c677c40	0.014128745
219	0x3e0b46be	0.13601205
220	0xbe7824a4	-0.24232727
221	0x3e751162	0.23932412
222	0x3e89c055	0.2690455
223	0x3c9652e0	0.018350065
224	0xbd12c8a8	-0.035835892
225	0x3d77a248	0.060457498
226	0x3e9911c9	0.29896381
227	0xbad11100	-0.0015950501
228	0x3e9b3f51	0.30321744
229	0xbe39f604	-0.18160254
230	0xbdd513fa	-0.10404201
231	0xbe47ff3f	-0.19530962
232	0xbe9a6a52	-0.3015924
233	0xbe49fc6f	-0.19725202
234	0xbe3dd00d	-0.18536396
235	0x3e23a894	0.15982276
236	0xbd83f370	-0.064429164
237	0xbe46b293	-0.19404058
238	0x3e4fcb96	0.20292506
239	0xbe87674c	-0.26445997
240	0xbdb9a88a	-0.090653494
241	0x3db690e4	0.089143544
242	0xbe8b1736	-0.27166146
243	0xbd057c18	-0.03258905
244	0x3da7a9fc	0.08186719
245	0xbdde2b16	-0.10848062
246	0xbd752c8c	-0.059856936
247	0xbe2afbbe	-0.16697595
248	0xbe814988	-0.25251412
249	0x3dc036d0	0.09385455
250	0xbe8d6ffa	-0.27624494
251	0xbe2713a2	-0.16316083
252	0x3e70da1e	0.23520705
253	0x3e6107ce	0.21975634
254	0x3e29f22e	0.1659629
255	0x3e07dc00	0.13267517

encoder_layer.self_attn.in_proj_bias f4 [48]
0	0x00000000	0.0
1	0x00000000	0.0
2	0x00000000	0.0
3	0x00000000	0.0
4	0x00000000	0.0
5	0x00000000	0.0
6	0x00000000	0.0
7	0x00000000	0.0
8	0x00000000	0.0
9	0x00000000	0.0
10	0x00000000	0.0
11	0x00000000	0.0
12	0x00000000	0.0
13	0x00000000	0.0
14	0x00000000	0.0
15	0x00000000	0.0
16	0x00000000	0.0
17	0x00000000	0.0
18	0x00000000	0.0
19	0x00000000	0.0
20	0x00000000	0.0
21	0x00000000	0.0
22	0x00000000	0.0
23	0x00000000	0.0
24	0x00000000	0.0
25	0x00000000	0.0
26	0x00000000	0.0
27	0x00000000	0.0
28	0x00000000	0.0
29	0x00000000	0.0
30	0x00000000	0.0
31	0x00000000	0.0
32	0x00000000	0.0
33	0x00000000	0.0
34	0x00000000	0.0
35	0x00000000	0.0
36	0x00000000	0.0
37	0x00000000	0.0
38	0x00000000	0.0
39	0x00000000	0.0
40	0x00000000	0.0
41	0x00000000	0.0
42	0x00000000	0.0
43	0x00000000	0.0
44	0x00000000	0.0
45	0x00000000	0.0
46	0x00000000	0.0
47	0x00000000	0.0

encoder_layer.self_attn.out_proj.weight f4 [16, 16]
0	0x3e5b5834	0.21420366
1	0x3e375550	0.17903638
2	0x3e73ece2	0.23820832
3	0xbe486fe0	-0.19573927
4	0x3e319b34	0.17344362
5	0xbdab1a08	-0.083545744
6	0x3e0cfe16	0.13768801
7	0x3daed1d4	0.08536115
8	0xbd27dc50	-0.04098159
9	0x3e600e02	0.21880344
10	0x3e38b3da	0.18037358
11	0x3e19ce50	0.15020108
12	0xbcb53880	-0.022121668
13	0xbdf976f0	-0.12180889
14	0xbd699718	-0.05702886
15	0xbe0cd1f2	-0.13751963
16	0xbe6ab23e	-0.22919556
17	0xbe7662d6	-0.2406114
18	0xbd9d87fc	-0.076919526
19	0x3d418380	0.04724455
20	0xbe2ec97c	-0.17069048
21	0x3e39ca3a	0.1814355
22	0x3e3bd99c	0.1834473
23	0xbc259580	-0.010106444
24	0x3dbc9178	0.092074335
25	0x3e3cc05a	0.18432751
26	0xbe689d70	-0.22716308
27	0xbd851e30	-0.064998984
28	0xbd7130f0	-0.05888456
29	0xbce80780	-0.028323889
30	0xbe41bf86	-0.18920717
31	0xbd723b50	-0.059138596
32	0x3e012bfc	0.12614435
33	0xbd8cdebc	-0.06878421
34	0xbe0be65c	-0.13662094
35	0xbddb2dfc	-0.1070213
36	0xbe4f13fc	-0.20222467
37	0x3e7fad88	0.2496854
38	0xbdc6fc38	-0.09716076
39	0x3e072fe0	0.13201857
40	0x3d341690	0.04396683
41	0x3e51e056	0.20495734
42	0xbd7392c0	-0.059466124
43	0xbe50008e	-0.20312712
44	0x3e677870	0.22604537
45	0x3e01af78	0.12664592
46	0xbd6e26c0	-0.058142424
47	0xbe6b1660	-0.22957754
48	0xbe5848fa	-0.21121588
49	0x3e41ac76	0.18913445
50	0xbe31408c	-0.17309779
51	0x3e759be6	0.23985252
52	0xbe479830	-0.19491649
53	0xbe1e05e0	-0.15431929
54	0xbe0a754a	-0.13521305
55	0xbe102004	-0.14074713
56	0x3e4ab164	0.19794232
57	0x3b282f80	0.0025663078
58	0xbdd03f10	-0.10168278
59	0x3d4fe1b0	0.05075234
60	0x3bb1e7c0	0.005429238
61	0xbe6e5e06	-0.23278055
62	0x3ceb2880	0.028705835
63	0x3b0ba280	0.0021306574
64	0xbe6d8612	-0.23195675
65	0xbda29c18	-0.07939929
66	0xbca54b90	-0.020177633
67	0x3c8b8a20	0.017033637
68	0xbe5b7be6	-0.21433982
69	0xbe2be36c	-0.16785973
70	0xbe21e5e6	-0.15810356
71	0x3d3c7df0	0.04601854
72	0x3d23ebd0	0.04001981
73	0xbdf0f66c	-0.11765751
74	0x3e06c65e	0.13161609
75	0xbe71125e	-0.23542163
76	0x3e70af32	0.23504332
77	0xbc3d8880	-0.011568189
78	0xbe474942	-0.1946154
79	0x3b1cd500	0.0023930669
80	0x3ddbf340	0.10739756
81	0x3dffc858	0.124893844
82	0xbd065190	-0.032792628
83	0xbe441d3e	-0.1915178
84	0x3bfeed00	0.0077797174
85	0xbe1a6f00	-0.15081406
86	0xbe7c8e28	-0.24663603
87	0x3b95bf80	0.0045699477
88	0x3de3546c	0.111000866
89	0xbe24665a	-0.16054669
90	0x3dcc9710	0.099897504
91	0xbe64f7da	-0.22360173
92	0xbe4eabe4	-0.20182759
93	0x3d9b79b8	0.075915754
94	0x3e65d304	0.22443777
95	0x3cca3e00	0.024687767
96	0x3df30104	0.11865428
97	0x3c61fea0	0.0137936175
98	0xbe60f1b2	-0.219672
99	0x3d5c42f8	0.053774804
100	0xbe1e4c1c	-0.15458721
101	0xbdc421fc	-0.095767945
102	0xbc918410	-0.017763168
103	0xbe79a1d0	-0.24378133
104	0x3da638a0	0.08116269
105	0x3e11f4ca	0.14253536
106	0xbbedf980	-0.0072624087
107	0xbddb88d8	-0.1071946
108	0x3c2aeb00	0.010432005
109	0xbe0b4264	-0.13599545
110	0xbda8281c	-0.08210775
111	0x3d9045a8	0.07044536
112	0xbe2d80ae	-0.16943619
113	0x3e56136a	0.20905843
114	0xbda0875c	-0.07838318
115	0x3e78c634	0.24294358
116	0x3d4e8938	0.05042383
117	0x3d8fd884	0.07023719
118	0x3dd71e54	0.105038315
119	0xbca60b50	-0.020269066
120	0xbe1e578e	-0.15463087
121	0xbd957394	-0.072974354
122	0xbe4d08ee	-0.20022938
123	0xbe646696	-0.22304758
124	0x3e7e54ac	0.24836987
125	0x3dce6454	0.1007773
126	0xbe64bc82	-0.22337535
127	0xbe290bce	-0.1650841
128	0xbe318bec	-0.17338532
129	0x3e313dde	0.17308757
130	0x3e68e272	0.22742632
131	0x3d6e4ea8	0.05818048
132	0x3e5b1bcc	0.21397322
133	0xbe7c22d0	-0.24622655
134	0x3e7d4d36	0.24736485
135	0xbe0fbed2	-0.14037636
136	0x3e608c0c	0.21928424
137	0x3be93c40	0.007117778
138	0xbdb46a48	-0.08809334
139	0xbdf7b534	-0.12095109
140	0x3d4ba238	0.04971525
141	0x3e494a34	0.19657212
142	0xbe36b8c2	-0.17843917
143	0xbe327c16	-0.17430148
144	0x3dec3a88	0.115346014
145	0xbe475b9a	-0.19468537
146	0xbe48cb9e	-0.19608924
147	0x3d5b4bc8	0.053539068
148	0xbe067820	-0.13131762
149	0xbd63cb28	-0.055613667
150	0xbd56f9d0	-0.052484334
151	0x3dbb1390	0.091345906
152	0x3de28390	0.1106025
153	0xbe1a52fc	-0.15070719
154	0x3dfccf14	0.123441845
155	0x3e027582	0.12740138
156	0x3d8126f0	0.06306255
157	0x3e3578d4	0.17721874
158	0x3e24c274	0.16089803
159	0x3e3d449c	0.18483204
160	0xbc9e3270	-0.01931116
161	0x3e582f16	0.21111712
162	0x3e53de30	0.20690227
163	0xbe0b8710	-0.13625741
164	0x3d397ff8	0.045288056
165	0x3cf850c0	0.030311942
166	0x3e6c6c76	0.2308825
167	0xbdf14efc	-0.11782643
168	0x3e29060c	0.16506213
169	0xbd245b38	-0.040126055
170	0x3e27023a	0.16309443
171	0xbd5a4538	-0.05328867
172	0xbe087646	-0.13326368
173	0x3e20154a	0.15633121
174	0xbdc85a84	-0.097828895
175	0x3e59147e	0.21199223
176	0x3defeb70	0.11714828
177	0x3e19aeb4	0.1500805
178	0xbe562090	-0.20910859
179	0x3e537734	0.20650941
180	0xbde29488	-0.11063486
181	0xbdb6b23c	-0.08920714
182	0x3e10a300	0.1412468
183	0xbd82c04c	-0.06384334
184	0x3e50d360	0.20393133
185	0x3e40166a	0.1875855
186	0xbcc847b0	-0.024448246
187	0x3c62c800	0.013841629
188	0xbe275796	-0.16342005
189	0xbe6aadb8	-0.22917831
190	0xbe54e3c0	-0.20790005
191	0x3df62f20	0.12020707
192	0x3dfd2844	0.12361196
193	0x3e1bcfbc	0.15215963
194	0xbe6fdea2	-0.23424771
195	0x3e45c724	0.19314247
196	0x3da73494	0.08164325
197	0xbd03c0e0	-0.03216636
198	0x3c087ec0	0.008331001
199	0x3c969af0	0.018384427
200	0x3cbd6290	0.023118287
201	0x3e1879aa	0.14890161
202	0xbd795de8	-0.06088057
203	0x3cd01730	0.025401682
204	0xbdf46bf8	-0.11934656
205	0x3e4106ac	0.18850201
206	0x3d356318	0.044283956
207	0xbe30bbf0	-0.17259192
208	0xbdd2d068	-0.102936566
209	0x3df88b64	0.12135962
210	0x3e4416e8	0.19149363
211	0xbe75a944	-0.23990351
212	0xbd84b1f4	-0.06479254
213	0xbe196ade	-0.14982173
214	0xbd52ba50	-0.051447213
215	0x3e453996	0.19260249
216	0xbe34c79c	-0.1765427
217	0xbdec6bfc	-0.11544034
218	0xbe4bf7b0	-0.19918704
219	0xbddab9dc	-0.10679981
220	0xbd059f80	-0.032622814
221	0x3d1a4838	0.03766653
222	0xbc32b5c0	-0.01090759
223	0xbdf242f4	-0.118291765
224	0x3ba8b4c0	0.0051485
225	0x39c66000	0.00037837029
226	0x3d4ed660	0.050497413
227	0x3d945ce0	0.07244277
228	0x3e666a28	0.22501433
229	0x3e574310	0.21021676
230	0x3e6cd31e	0.2312741
231	0x3e6eb858	0.23312509
232	0xbe667378	-0.22504985
233	0x3e4c62a8	0.1995951
234	0xbce2d490	-0.027689248
235	0xbd95f194	-0.07321468
236	0x3db8b794	0.0901939
237	0x3d5b96b8	0.053610533
238	0xbe127922	-0.14304021
239	0xbe15f5ce	-0.14644548
240	0x3d4b9898	0.04970607
241	0x3cd41330	0.025888056
242	0xbd87c194	-0.06628719
243	0xbdc322c8	-0.09528118
244	0x3da06054	0.07830873
245	0x3d756a78	0.05991599
246	0x3e36166a	0.17781988
247	0xbe661de2	-0.22472337
248	0x3de437cc	0.11143455
249	0x39d4f000	0.00040614605
250	0xbe19313c	-0.14960188
251	0x3db38ac8	0.08766705
252	0x3e54a990	0.20767808
253	0x3e02e636	0.12783131
254	0xbb7cd200	-0.0038577318
255	0x3dcd402c	0.100220054

encoder_layer.self_attn.out_proj.bias f4 [16]
0	0x00000000	0.0
1	0x00000000	0.0
2	0x00000000	0.0
3	0x00000000	0.0
4	0x00000000	0.0
5	0x00000000	0.0
6	0x00000000	0.0
7	0x00000000	0.0
8	0x00000000	0.0
9	0x00000000	0.0
10	0x00000000	0.0
11	0x00000000	0.0
12	0x00000000	0.0
13	0x00000000	0.0
14	0x00000000	0.0
15	0x00000000	0.0

encoder_layer.linear1.weight f4 [512, 16]
0	0x3e2b614e	0.16736338
1	0x3e580a18	0.210976
2	0x3e61de7a	0.22057524
3	0x3e6bdda8	0.23033774
4	0xbb5e2780	-0.0033898056
5	0xbe253214	-0.16132385
6	0x3e33672e	0.17519829
7	0x3e57a45c	0.21058792
8	0x3e148478	0.14503658
9	0x3e3d90ee	0.18512318
10	0x3c14e6e0	0.009088248
11	0xbd5248f8	-0.05133912
12	0xbe159230	-0.14606547
13	0x3e1a9bae	0.1509845
14	0xbdb2c704	-0.087293655
15	0x3dec1d84	0.11529067
16	0x3d8fbc4c	0.07018337
17	0xbdc224c8	-0.09479672
18	0x3e414ea8	0.18877661
19	0x3df8d470	0.12149894
20	0xbde425e8	-0.111400425
21	0xbd1814f0	-0.037129343
22	0xbe7d5b0c	-0.24741763
23	0xbe19df70	-0.15026641
24	0x3d9d2f94	0.076750904
25	0xbe3a510a	-0.18194976
26	0x3ce1ef40	0.027579904
27	0xbe2593d4	-0.16169673
28	0xbd807fd0	-0.06274378
29	0x3d9c03f0	0.076179385
30	0x3e3ad634	0.18245775
31	0xbd4c4fe8	-0.049880892
32	0xbc2ca860	-0.010538191
33	0x3dae02dc	0.08496639
34	0xbd67b158	-0.056565613
35	0x3dc72434	0.09723702
36	0xbe714b6c	-0.23563927
37	0xbe03833c	-0.1284303
38	0xbe22d250	-0.1590054
39	0xbdf318f0	-0.11869991
40	0xbba58800	-0.005051613
41	0x3df3df68	0.11907846
42	0xbe03a530	-0.12855983
43	0xbc7149a0	-0.014727026
44	0x3e24957c	0.16072649
45	0xbd0558d8	-0.03255543
46	0x3e3eb85e	0.18625018
47	0x3db0aa2c	0.08626208
48	0xbe3ce23a	-0.18445674
49	0xbd8edf20	-0.069761515
50	0xbde7c9c0	-0.11317778
51	0xbd7c6180	-0.06161642
52	0xbd341380	-0.04396391
53	0xbe6a281c	-0.22866863
54	0x3e56a1d4	0.2096017
55	0x3e14541e	0.14485213
56	0xbdadbd3c	-0.08483359
57	0x3e5d1b46	0.21592435
58	0xbe6519d0	-0.22373128
59	0xbd9462b8	-0.072453916
60	0xbe14ee98	-0.14544141
61	0xbe4d74b8	-0.20064056
62	0x3e09f100	0.1347084
63	0xbc397a60	-0.01132068
64	0xbe0949da	-0.13407078
65	0xbda45a7c	-0.08025071
66	0xbe533e2c	-0.20629185
67	0x3e6a4552	0.22878006
68	0xbe3e2536	-0.18568882
69	0x3cb46240	0.022019506
70	0xbdf0e718	-0.11762828
71	0xbd1f9a00	-0.038965225
72	0x3d4f78b8	0.050652236
73	0xbdff2f0c	-0.12460145
74	0xbd7c8d18	-0.061657995
75	0x3e6bba42	0.2302027
76	0xbd2b9f10	-0.04189974
77	0x3a9f4000	0.0012149811
78	0xbe692284	-0.22767073
79	0xbe66456c	-0.2248742
80	0x3df86a30	0.12129629
81	0x3e7f333e	0.24921891
82	0x3e30bd28	0.17259657
83	0x3e0dc93e	0.13846299
84	0xbc8d5e30	-0.017256826
85	0xbe1b12ba	-0.15143862
86	0xbe2d8fb4	-0.1694935
87	0x3d5c95a8	0.05385366
88	0xbe734cc4	-0.23759753
89	0x3e50b45c	0.20381302
90	0xbd8e5714	-0.069502026
91	0x3d89d274	0.06729594
92	0x3e7000c6	0.23437795
93	0xbdbc6b64	-0.09200171
94	0x3e79362e	0.24337074
95	0x3e3ffd26	0.18748912
96	0xbd95a9c0	-0.07307768
97	0xbd576f78	-0.05259654
98	0x3dd85a2c	0.10564074
99	0x3e4731da	0.1945261
100	0xbe3523c4	-0.17689425
101	0xbe626d28	-0.22111952
102	0xba3f5200	-0.0007298291
103	0x3dcecf84	0.10098174
104	0xbe0b1f40	-0.1358614
105	0x3e6b59d8	0.22983491
106	0x3e536cf0	0.20647025
107	0xbde16198	-0.11004943
108	0x3c0abb00	0.008467436
109	0xbd04e368	-0.032443434
110	0x3d28d8b8	0.041222304
111	0xbbac1800	-0.0052518845
112	0x3c4dc160	0.012558311
113	0x3d562b38	0.05228731
114	0xbe57f870	-0.21090865
115	0xbe6a1f8c	-0.22863597
116	0x3ba63780	0.005072534
117	0x3e0f96b8	0.14022338
118	0xbe3ff17e	-0.18744466
119	0x3c1a6e80	0.009425759
120	0x3e2a5d40	0.16637135
121	0xbe709fc4	-0.23498446
122	0xbe0922bc	-0.13392156
123	0xbe71f510	-0.2362864
124	0xbe5a2e5e	-0.2130675
125	0xbe1a24a4	-0.1505304
126	0xbd8f9d14	-0.07012382
127	0x3e44ac14	0.19206268
128	0x3d8b88d8	0.0681321
129	0x3c0512e0	0.008122176
130	0xbe5a4d66	-0.21318588
131	0xbe62d094	-0.22149879
132	0xbe5e2952	-0.2169545
133	0x3e31a4e8	0.17348063
134	0xbe177074	-0.14788991
135	0x3e1ebd96	0.15502009
136	0xbe29df32	-0.16589049
137	0x3e1e6c68	0.15471041
138	0x3d5821e0	0.05276668
139	0xbd8f23cc	-0.069892496
140	0xbe4e9cb2	-0.20176962
141	0xbe7fc092	-0.24975803
142	0xbdbbdb8c	-0.091727346
143	0xbd6e8640	-0.0582335
144	0x3dde3938	0.10850757
145	0x3e4a87c0	0.19778347
146	0x3db61488	0.08890635
147	0x3d81aa14	0.06331268
148	0x3e07dee4	0.1326862
149	0x3d3b1bf8	0.04568097
150	0x3e5384d2	0.20656136
151	0xbd9069d4	-0.07051435
152	0x3ce609f0	0.02808091
153	0x3e2bcdfa	0.16777793
154	0x3e29591c	0.16537899
155	0x3d21f900	0.039544106
156	0xbdd20534	-0.10254899
157	0x3e1d0ec6	0.15337667
158	0x3e669cce	0.22520754
159	0xbe1bff64	-0.15234143
160	0xbe15a052	-0.14611939
161	0x3d025718	0.03182134
162	0xbda689e8	-0.08131772
163	0x3d06d498	0.03291759
164	0x3e0aa0de	0.13537928
165	0xbe6b68a0	-0.2298913
166	0x3da128c8	0.078691065
167	0xbe040d1c	-0.12895626
168	0x3e437e2e	0.19091102
169	0x3dfbcfcc	0.122954935
170	0xbcaa5a20	-0.020794928
171	0x3e77a4d8	0.24183977
172	0x3e0fc02e	0.14038154
173	0x3e019edc	0.12658256
174	0x3deef690	0.11668122
175	0x3e4191ba	0.18903247
176	0x3da3656c	0.07978329
177	0x3dfce240	0.12347841
178	0x3d5f4698	0.054510683
179	0x3daebd1c	0.085321635
180	0xbe1565dc	-0.14589638
181	0x3e6d225e	0.23157641
182	0x3e627a50	0.22116971
183	0xbe058582	-0.1303921
184	0xbe1142ca	-0.14185634
185	0x3c5ffe00	0.013671398
186	0xbe1fa118	-0.15588796
187	0x3da41f48	0.08013779
188	0xbd5d05f0	-0.05396074
189	0x3e4cfcda	0.2001833
190	0x3de27de4	0.11059168
191	0x3e0dbe40	0.13842106
192	0x3e127396	0.14301905
193	0x3e0162e0	0.12635374
194	0x3d86c1ec	0.065799564
195	0xbd4a9588	-0.04945901
196	0xbe41a262	-0.189096
197	0xbde4a19c	-0.11163637
198	0x3c2ed260	0.0106702745
199	0xbdcca244	-0.09991887
200	0x3d831f58	0.06402463
201	0x3d686910	0.05674082
202	0xbe6d21da	-0.23157445
203	0x3e633878	0.2218951
204	0xbdab855c	-0.08375046
205	0x3e72db6c	0.23716515
206	0x3e047312	0.12934521
207	0xbe16b3dc	-0.14717048
208	0xbe518ea6	-0.20464572
209	0xbd83e458	-0.064400375
210	0xbd7e6ec0	-0.06211734
211	0x3e29dc08	0.16587842
212	0xbe401d1a	-0.18761101
213	0x3e5a9080	0.21344185
214	0xbe7eb69c	-0.24874347
215	0x3bad38c0	0.005286306
216	0x3d920924	0.0713065
217	0xbe0f4aa0	-0.13993311
218	0xbe0e6d8a	-0.13908973
219	0xbdb25a3c	-0.08708617
220	0xbe1342cc	-0.1438095
221	0x3e16a556	0.14711508
222	0xbd9cd014	-0.07656875
223	0xbe6e832c	-0.23292226
224	0x3e67dab2	0.2264202
225	0xbe6984a6	-0.22804508
226	0x3e527388	0.20551884
227	0x3c80df20	0.015731394
228	0x3cf649f0	0.030064553
229	0xbd7d4868	-0.06183663
230	0x3e2c5302	0.1682854
231	0x3ab96700	0.0014145076
232	0xbe3ba5ca	-0.18324962
233	0x3e72a476	0.2369555
234	0x3e4bd4ec	0.19905442
235	0x3c7f8ee0	0.015598029
236	0xbe3905e6	-0.18068656
237	0xbe57de20	-0.21080828
238	0xbe63f924	-0.22263008
239	0x3d8ca344	0.06867078
240	0x3dc88480	0.09790897
241	0x3d281a68	0.041040808
242	0xbdccfa00	-0.10008621
243	0x3e0a18ce	0.13486025
244	0x3e39d3ca	0.18147197
245	0x3c115f60	0.008872837
246	0xbe65e2dc	-0.22449821
247	0xbe7685cc	-0.24074477
248	0x3d8d2410	0.06891644
249	0x3e541020	0.20709276
250	0x3e5cb1f0	0.21552253
251	0x3e36c224	0.17847496
252	0xbe2f6b64	-0.1713081
253	0x3e14293c	0.14468855
254	0xbe410f8e	-0.1885359
255	0xbe4a4920	-0.19754457

encoder_layer.linear1.bias f4 [512]
0	0x3e7b586a	0.24545446
1	0x3dab6f18	0.08370799
2	0x3d1e19d8	0.038598865
3	0xbe357410	-0.17720056
4	0x3e11be2e	0.14232704
5	0xbe0b6818	-0.13613927
6	0x3c1dd440	0.009633124
7	0x3e01b640	0.12667179
8	0x3e5a96cc	0.21346587
9	0xbdc4c96c	-0.09608731
10	0x3e4e92f6	0.20173249
11	0xbc8baa10	-0.017048866
12	0x3e142aa8	0.14469397
13	0xbe5564c0	-0.20839214
14	0xbe542524	-0.20717293
15	0x3e331362	0.17487863
16	0xbe12980a	-0.14315811
17	0xbd99fe60	-0.07519221
18	0x3d64ddb0	0.05587548
19	0xbdeb6bf8	-0.11495203
20	0x3d53df88	0.051726848
21	0xbe57306c	-0.21014565
22	0x3e4b64b4	0.19862634
23	0x3dddf3b4	0.10837498
24	0x3e7f8bfe	0.24955747
25	0xbe657846	-0.22409162
26	0x3ce6de80	0.028182268
27	0x3e4a9cde	0.19786403
28	0x3db41b90	0.0879432
29	0x3e649e30	0.22325969
30	0x3e20d0bc	0.15704626
31	0x3e6bd8a6	0.23031864
32	0xbe6f1a8c	-0.2334997
33	0xbe504e76	-0.2034243
34	0x3e57c52a	0.21071306
35	0x3dd137ec	0.102157444
36	0xbd7cf660	-0.0617584
37	0xbdaf7ba4	-0.085685045
38	0x3c228d60	0.009921402
39	0x3e225724	0.15853554
40	0x3dfbe6a0	0.122998476
41	0xbe76d69a	-0.24105301
42	0x3d18c3e8	0.037296206
43	0x3e5ac5f4	0.21364576
44	0xbbe6c0c0	-0.0070420206
45	0xbe007a74	-0.12546712
46	0xbe506c8a	-0.20353904
47	0x3db6fed8	0.08935326
48	0x3e19aeac	0.15008038
49	0xbc1326c0	-0.008981407
50	0x3e636ad6	0.22208723
51	0xbcd164e0	-0.025560796
52	0xbd266eb0	-0.040632904
53	0xbcae4690	-0.021273881
54	0x3e0dcee6	0.13848457
55	0x3d515b90	0.05111271
56	0xbe7dbf1a	-0.2477993
57	0x3df27338	0.118383825
58	0x3e402484	0.1876393
59	0x3e3c7df4	0.18407422
60	0x3dfdb720	0.12388444
61	0xbe786faa	-0.24261346
62	0x3e526e1e	0.20549819
63	0x3cfee970	0.031117171
64	0x3dde5658	0.108563125
65	0x3de00f94	0.10940471
66	0xbe69e0e6	-0.22839698
67	0x3e52cc12	0.20585659
68	0xbe37d938	-0.17953956
69	0x3e5c4f46	0.21514615
70	0x3db6d9f4	0.0892829
71	0xbc29c2e0	-0.010361403
72	0xbd011528	-0.031514317
73	0x3d85d1e0	0.06534171
74	0x3e548b1a	0.20756188
75	0x3e1a2fd0	0.15057302
76	0x3e205d30	0.15660548
77	0x3e21e898	0.15811384
78	0x3d9af608	0.07566458
79	0x3dc28d30	0.09499586
80	0xbd9fbd58	-0.07799786
81	0xbd8320e8	-0.06402761
82	0x3d2d58f8	0.042321175
83	0x3e38d812	0.18051174
84	0x3ccc9030	0.024971098
85	0xbd1cdd78	-0.038297147
86	0x3e059bac	0.13047665
87	0x3c69c0e0	0.014267176
88	0xbe67a3a8	-0.22621024
89	0x3e046d38	0.12932289
90	0xbd0b0cf0	-0.033947885
91	0x3df04e94	0.117337376
92	0x3e787b9a	0.242659
93	0x3d7dcb68	0.06196156
94	0xbe474496	-0.19459757
95	0xbdacb5c4	-0.084331065
96	0x3e737220	0.23774004
97	0xbdf6f984	-0.1205931
98	0xbe2f77fe	-0.17135617
99	0xbe39bd82	-0.18138698
100	0x3e796936	0.24356541
101	0x3cfe7f00	0.031066418
102	0xbd98694c	-0.07441959
103	0xbd85260c	-0.065013975
104	0xbe434eae	-0.19072983
105	0xbd101ed0	-0.035185635
106	0xbcd8ac70	-0.026449412
107	0x3e1d4098	0.15356672
108	0x3e21054c	0.15724677
109	0x3d822014	0.06353775
110	0x3d2df8d0	0.042473614
111	0xbdf04fbc	-0.11733958
112	0x3e7a7fce	0.24462816
113	0x3dc99d8c	0.09844503
114	0xbe75621e	-0.2396321
115	0xbe100366	-0.14063796
116	0xbe1421d0	-0.14466023
117	0xbd7fa060	-0.062408805
118	0xbc7e31a0	-0.015514761
119	0x3d8bd17c	0.06827065
120	0x3ddcaf64	0.107756406
121	0xbe48aa7e	-0.19596288
122	0x3db227a0	0.08698964
123	0x3d84146c	0.06449208
124	0xbe6e4c02	-0.23271182
125	0x3d8512d0	0.06497729
126	0x3c581340	0.013188183
127	0x3d677b38	0.056513995
128	0x3cf31460	0.029672801
129	0xbdd07ab0	-0.10179651
130	0xbe27c662	-0.16384271
131	0x3bb8f580	0.0056445003
132	0xbe142142	-0.14465812
133	0x3dad0b0c	0.08449373
134	0xbe5da2fa	-0.21644202
135	0xbe3c68d6	-0.18399367
136	0x3e5467f4	0.2074278
137	0xbdc403f8	-0.095710695
138	0xbe3b2290	-0.18274903
139	0xbd9f9954	-0.07792917
140	0xbe04b5ae	-0.1295993
141	0x3d12d930	0.035851657
142	0xbdcf71e0	-0.10129142
143	0x3c164220	0.009171039
144	0x3d132490	0.03592354
145	0x3e33ae04	0.1754685
146	0xbaab3000	-0.001306057
147	0xbe7ea0fc	-0.24866098
148	0x3da89ab0	0.08232629
149	0xbcbaca80	-0.022801638
150	0x3e4777ce	0.19479296
151	0x3e05610c	0.13025302
152	0x3e37ed76	0.17961678
153	0xbe2ed6ca	-0.17074123
154	0x3dfc21c8	0.12311131
155	0x3e5ee9c2	0.21768859
156	0x3e378098	0.17920148
157	0x3e0c46e0	0.13698912
158	0xbb200a80	-0.002442032
159	0x3d373260	0.044725776
160	0xbe23f9d8	-0.16013277
161	0x3e21bd30	0.15794826
162	0xbd7c4190	-0.061585963
163	0x3c718d00	0.01474309
164	0xbdd1f898	-0.102524936
165	0xbddc20ec	-0.10748467
166	0xbdd91438	-0.105995595
167	0xbe792a36	-0.24332508
168	0xbe57fcf4	-0.21092588
169	0x3dd6d3d0	0.10489619
170	0xbd5978d8	-0.05309376
171	0x3bd29080	0.006425917
172	0x3d9c90f8	0.07644838
173	0xbdd10ad4	-0.102071434
174	0x3e38b6a6	0.18038425
175	0x3cb6c360	0.022309959
176	0x3dab7904	0.08372691
177	0x3e626852	0.22110108
178	0xbe4df38a	-0.20112434
179	0xbe761406	-0.24031076
180	0x3e589a8c	0.21152705
181	0xbe33a238	-0.1754235
182	0xbd35f2d8	-0.044421047
183	0x3e4fe2d0	0.20301366
184	0xbe6d2002	-0.23156741
185	0x3e1ca9b0	0.15299106
186	0xbe41db70	-0.18931365
187	0xbde7f61c	-0.113262385
188	0xbe666f62	-0.22503427
189	0x3e53785e	0.20651385
190	0x3e148a34	0.14505845
191	0xbe20af00	-0.15691757
192	0xbe64f7c6	-0.22360143
193	0xbe170274	-0.1474703
194	0x3e28107a	0.16412535
195	0xbe204ea8	-0.15655005
196	0x3e02b30e	0.12763616
197	0x3e062284	0.13099104
198	0x3e408176	0.18799385
199	0xbe2fa28c	-0.1715185
200	0xbd11fb38	-0.03563997
201	0x3d23f398	0.04002723
202	0xbe38bf22	-0.18041661
203	0x3da5d750	0.08097708
204	0x3d48fea8	0.049070984
205	0xbd8306e0	-0.06397796
206	0xbc5b6240	-0.013390124
207	0xbd74f008	-0.059799224
208	0xbe4a7032	-0.19769362
209	0xbc3184e0	-0.0108349025
210	0xbdd58b18	-0.10426921
211	0x3e051438	0.12995994
212	0xbd0ca148	-0.034333497
213	0xbc7b88a0	-0.015352398
214	0xbdbc3210	-0.09189236
215	0xbe64cc2e	-0.22343513
216	0xbe0a677c	-0.13516039
217	0x3c690020	0.014221221
218	0xbe6dda20	-0.2322774
219	0xbb5fbf80	-0.0034141243
220	0x3d9105f0	0.070812106
221	0xbe357498	-0.17720258
222	0x3c949e80	0.018141985
223	0x3dbb177c	0.09135339
224	0xbe06a4fa	-0.13148871
225	0x3e4296dc	0.19002861
226	0xbdc8ebbc	-0.09810588
227	0x3e51c4f0	0.20485282
228	0xbde87f64	-0.11352423
229	0x3e2cb802	0.16867068
230	0xbe47a736	-0.1949738
231	0x3d93c220	0.07214761
232	0xbde88b4c	-0.11354694
233	0xbe4a5524	-0.19759041
234	0x3e52edd0	0.20598531
235	0xbdd90060	-0.10595775
236	0x3da5128c	0.08060178
237	0x3e3ee21c	0.18640941
238	0xbe00517a	-0.12531081
239	0x3e1f3f42	0.15551475
240	0x3cbc2d40	0.022970796
241	0xbe0601c8	-0.13086617
242	0x3e00ae02	0.12566379
243	0xbe19773e	-0.14986894
244	0x3e74c39a	0.23902741
245	0x3e7edd94	0.24889213
246	0xbb984b80	-0.004647672
247	0x3e40c616	0.18825564
248	0x3dc20b00	0.09474754
249	0xbdf26040	-0.118347645
250	0x3e343626	0.17598781
251	0x3d9543dc	0.07288334
252	0xbe38bc74	-0.18040639
253	0xbcfc6cf0	-0.030813664
254	0x3e554c82	0.20829967
255	0xbc8dfb60	-0.017331779

encoder_layer.linear2.weight f4 [16, 512]
0	0x3d117f63	0.035521876
1	0xbc7233d4	-0.014782865
2	0x3b83ea48	0.0040257312
3	0x3c2bdcf4	0.010489691
4	0x3ccab9a2	0.02474672
5	0x3ca2fb82	0.019895319
6	0xbb064f00	-0.0020493865
7	0xbc4e6ca0	-0.01259914
8	0x3d181313	0.037127566
9	0xbceab6e2	-0.028651658
10	0x3d17194d	0.036889363
11	0xbd192b78	-0.03739497
12	0x3aa1b460	0.0012337081
13	0x3c7fc790	0.015611544
14	0xbc73be26	-0.014876878
15	0x3d2ae369	0.04172078
16	0xbd34fb2a	-0.04418484
17	0x3c4c2b24	0.012461457
18	0xbcfc661d	-0.03081041
19	0x3c75ff58	0.015014492
20	0x3cfc5b9e	0.030805405
21	0x3ab6cdc0	0.0013946816
22	0xbc7c6486	-0.015404826
23	0xbc39e500	-0.011346102
24	0xbce47766	-0.027888965
25	0x3cb4f48e	0.022089269
26	0xb88d7c00	-6.746501e-05
27	0xbce8c88d	-0.028415943
28	0x3d29a281	0.04141474
29	0x3be02a50	0.0068409815
30	0x3d1ec921	0.03876603
31	0x3c53964c	0.012914252
32	0xbd184132	-0.03717155
33	0x3c080bb8	0.008303575
34	0xbc1dbd24	-0.009627614
35	0x3d2fbeb9	0.042906497
36	0x3d223de3	0.0396098
37	0xbd1f9772	-0.03896279
38	0xbd1fcb6a	-0.03901235
39	0x3d2212b3	0.039568614
40	0xbc170090	-0.009216443
41	0x3b90c170	0.004417591
42	0xbc4434c8	-0.011975475
43	0xbc30118c	-0.010746371
44	0x3a01cc40	0.0004951395
45	0xbca588bb	-0.0202068
46	0x3c191960	0.009344429
47	0x3cf8961a	0.030345012
48	0x3d024ecf	0.03181344
49	0x3caed6ce	0.021342661
50	0x3cf148a2	0.02945358
51	0xbca8605b	-0.020553758
52	0x3cedc08a	0.029022474
53	0xbb9f8ba0	-0.0048689395
54	0xbbc423e0	-0.005985722
55	0x3c8465a6	0.016161751
56	0xbd2ee166	-0.042695425
57	0x3d0a415f	0.03375375
58	0x3ce9ea4e	0.028554108
59	0x3b04d490	0.0020268299
60	0x3d10d38b	0.035357993
61	0x3d2f851d	0.042851556
62	0x3cecabde	0.028890546
63	0xbba96fe8	-0.005170811
64	0x3c98569a	0.018595982
65	0x3c8bf89e	0.017086323
66	0xbbc8def8	-0.0061300956
67	0xbca52809	-0.020160692
68	0xbd1a92a9	-0.037737522
69	0x3d303a9f	0.043024655
70	0x3d115bd1	0.035487954
71	0xbd2c4a3e	-0.04206299
72	0x3bdd7b48	0.006759081
73	0x3cba3f16	0.02273516
74	0x3b7c4880	0.0038495362
75	0xbcee5986	-0.029095422
76	0xbc88f99a	-0.016720582
77	0x3d26bd6d	0.040707994
78	0x3c3fb534	0.011700917
79	0xbcd06f89	-0.02544381
80	0xbd1ce396	-0.03830298
81	0x3ccf607a	0.025314558
82	0x3c7aadf0	0.015300259
83	0xb79f0000	-1.8954277e-05
84	0x3c04fda0	0.00811711
85	0x3d0780a1	0.033081654
86	0x3ca051da	0.01957028
87	0x3c84cd4e	0.016211178
88	0x3cdfeaee	0.027333703
89	0xbd23e3d1	-0.040012185
90	0xbd2c44ff	-0.042057987
91	0x3cc64412	0.02420238
92	0x3cf7401e	0.03018194
93	0x3cf21abe	0.029553767
94	0xbc95b631	-0.018275352
95	0xbc5aadb6	-0.01334708
96	0xbd2a1736	-0.041526042
97	0x3c7195ec	0.014745217
98	0x3beb0990	0.007172771
99	0xbcb7b412	-0.022424731
100	0xbce7c215	-0.028290788
101	0xbca58fc8	-0.020210162
102	0xbc765198	-0.015034102
103	0xbc87fc9d	-0.016599948
104	0x3c1aefd4	0.009456594
105	0xbcd3230b	-0.025773546
106	0x3d1e4947	0.0386441
107	0x3c0a603c	0.008445796
108	0xbcc9fa2d	-0.024655426
109	0xbd08d37c	-0.033404812
110	0x3ca1422a	0.01968487
111	0xbce964f1	-0.028490515
112	0xbb986b58	-0.0046514682
113	0x38477400	4.755333e-05
114	0x3d142903	0.036171924
115	0x3cea2dfe	0.028586384
116	0xbbaeeea0	-0.005338505
117	0xbbdcf048	-0.006742511
118	0xbc1d0c70	-0.009585485
119	0x3b68dbf0	0.0035531484
120	0xbca10314	-0.019654788
121	0xbc7d2abc	-0.015452083
122	0xbd2a7e9b	-0.041624647
123	0x3d21d5b9	0.039510462
124	0xbd0c48e2	-0.034249194
125	0xbb1a5e70	-0.0023554824
126	0x3cd07a42	0.025448922
127	0x3d0ccb57	0.034373607
128	0xbd029efe	-0.031889908
129	0x3d0ab4ef	0.033863958
130	0xbc9849db	-0.018589905
131	0x3b55df00	0.003263414
132	0xbcae66a2	-0.021289174
133	0xbd0930a2	-0.033493645
134	0xbce8cad3	-0.028417027
135	0xbcd61dfa	-0.02613734
136	0x3cbea86a	0.023273665
137	0x3d2ee6fb	0.04270075
138	0x3cf0f8ba	0.029415477
139	0xbb946a90	-0.004529305
140	0x3b008d40	0.0019615442
141	0xbbb4b130	-0.0055142865
142	0x3cd2c59a	0.02572899
143	0xbcd293eb	-0.025705298
144	0x3c9a425a	0.018830467
145	0xbd1fc5a7	-0.039006855
146	0x3ce8d32a	0.028421003
147	0xbb2e9360	-0.0026638135
148	0xbd329fbe	-0.043609373
149	0x3d249dcf	0.04018956
150	0xb95ccb00	-0.00021056458
151	0xbcd143ef	-0.025545089
152	0xbc77ece4	-0.015132163
153	0x3d025c03	0.03182603
154	0x3cf72062	0.030166809
155	0xbcead104	-0.02866412
156	0x3cf8815e	0.030335125
157	0xbd0e2c39	-0.034710143
158	0xbc8d390e	-0.01723912
159	0xbc3b5e3c	-0.011436041
160	0x3c82ea90	0.015980989
161	0x3ce0bd82	0.027434114
162	0x3bf0bce8	0.007346738
163	0x3d340ed5	0.043959457
164	0x3d344ec1	0.044020418
165	0x3bdd5130	0.006754063
166	0x3b6167a0	0.003439404
167	0xbd2c67d1	-0.042091195
168	0x3c5bbfe8	0.013412453
169	0x3c682650	0.014169291
170	0x3aacd8c0	0.0013187155
171	0x3d225abf	0.039637323
172	0x3ce90f52	0.028449688
173	0xbd2a4300	-0.041567802
174	0x3ce5a8ea	0.028034646
175	0xbd187e8c	-0.03723006
176	0x3d2c769b	0.0421053
177	0xbce5f610	-0.028071433
178	0x3ca83f9a	0.02053814
179	0x3bc6ebe0	0.006070599
180	0x3d322631	0.043493453
181	0x3ccb8162	0.024841968
182	0x3cb3ed22	0.02196366
183	0x3c847a6e	0.01617166
184	0xbc7b68ba	-0.015344793
185	0xbc0d4c34	-0.008624125
186	0xbcf4ec18	-0.029897735
187	0xbd18e204	-0.03732492
188	0xbc0cc870	-0.00859271
189	0x3ce5abae	0.028035965
190	0x3d0dc73b	0.03461383
191	0x3cd6d676	0.02622531
192	0xbc5810be	-0.013187585
193	0x3ca214c2	0.019785289
194	0xbccb1f40	-0.024795175
195	0x3c74ee50	0.014949396
196	0x3c98df9a	0.018661309
197	0x3d121007	0.035659816
198	0x3c830224	0.015992232
199	0xbcb39459	-0.021921324
200	0x3d1db553	0.038503002
201	0xbc3dc9b0	-0.011583731
202	0x3ca8cd9e	0.020605858
203	0xbcd6c631	-0.026217552
204	0x3d304821	0.043037537
205	0x3ce7ef82	0.028312448
206	0xbcbdbdd9	-0.023161815
207	0xbd249370	-0.04017967
208	0x3d31b03f	0.043380972
209	0x3cab88f2	0.020939324
210	0xbceb76b2	-0.028743122
211	0xbd178089	-0.036987815
212	0x3d19c4a7	0.037541058
213	0x3d1b45bd	0.037908304
214	0xbc069fa0	-0.0082167685
215	0xbc434b70	-0.011919841
216	0xbcd115cb	-0.025523087
217	0xbc172888	-0.009225972
218	0x3cb50f7e	0.022102114
219	0x3cd3f79e	0.025874909
220	0x3d1ca25b	0.03824077
221	0x3c85c1a0	0.01632768
222	0xbd1e8cd6	-0.03870853
223	0xbcccae80	-0.024985552
224	0xbd0680b8	-0.0328376
225	0xbd2a83c7	-0.04162958
226	0x3b827b80	0.0039820075
227	0xba9b3fe0	-0.0011844598
228	0x3d1b9b51	0.03798992
229	0xbd176d96	-0.036969744
230	0x3c143fb0	0.009048387
231	0x3bc2ca50	0.0059445277
232	0x3d257d7d	0.040402878
233	0x3d050601	0.03247643
234	0xbc714dc0	-0.01472801
235	0x3d1d79e1	0.03844631
236	0xbc7eb234	-0.015545417
237	0xbc9f2409	-0.019426363
238	0x3d102a4f	0.0351966
239	0xbbaa73d0	-0.005201794
240	0xbbca4450	-0.0061726943
241	0x3d20a907	0.039223697
242	0xbc839dd3	-0.016066467
243	0x3d117d95	0.035520155
244	0x3d025be5	0.03182592
245	0x3d08b927	0.0333797
246	0xbcc20799	-0.023685263
247	0x3c92481a	0.017856646
248	0x3cacdef6	0.02110241
249	0xbba0d170	-0.0049077794
250	0xbc999679	-0.018748509
251	0x3d33c38b	0.043887656
252	0xbce63a93	-0.028104102
253	0xbccc3c7b	-0.024931183
254	0x3d0de135	0.034638602
255	0x3ce7e906	0.028309356

encoder_layer.linear2.bias f4 [16]
0	0xbb0ffe60	-0.0021971688
1	0x3d306ce1	0.043072585
2	0xbc9beb86	-0.019033205
3	0xbb24f530	-0.0025170557
4	0xbcb99bfc	-0.022657387
5	0xbcc9bf36	-0.02462731
6	0xbcb043dd	-0.021516735
7	0xbcfc3506	-0.030787002
8	0x3bec1780	0.00720495
9	0x3c8cfb2e	0.017209616
10	0x3d07f143	0.03318907
11	0x3b6923a0	0.0035574213
12	0xbb644e00	-0.003483653
13	0xbbd0c1d8	-0.006370764
14	0x3be4e238	0.006984975
15	0xbcbdab5d	-0.023153001

encoder_layer.norm1.weight f4 [16]
0	0x3f800000	1.0
1	0x3f800000	1.0
2	0x3f800000	1.0
3	0x3f800000	1.0
4	0x3f800000	1.0
5	0x3f800000	1.0
6	0x3f800000	1.0
7	0x3f800000	1.0
8	0x3f800000	1.0
9	0x3f800000	1.0
10	0x3f800000	1.0
11	0x3f800000	1.0
12	0x3f800000	1.0
13	0x3f800000	1.0
14	0x3f800000	1.0
15	0x3f800000	1.0

encoder_layer.norm1.bias f4 [16]
0	0x00000000	0.0
1	0x00000000	0.0
2	0x00000000	0.0
3	0x00000000	0.0
4	0x00000000	0.0
5	0x00000000	0.0
6	0x00000000	0.0
7	0x00000000	0.0
8	0x00000000	0.0
9	0x00000000	0.0
10	0x00000000	0.0
11	0x00000000	0.0
12	0x00000000	0.0
13	0x00000000	0.0
14	0x00000000	0.0
15	0x00000000	0.0

encoder_layer.norm2.weight f4 [16]
0	0x3f800000	1.0
1	0x3f800000	1.0
2	0x3f800000	1.0
3	0x3f800000	1.0
4	0x3f800000	1.0
5	0x3f800000	1.0
6	0x3f800000	1.0
7	0x3f800000	1.0
8	0x3f800000	1.0
9	0x3f800000	1.0
10	0x3f800000	1.0
11	0x3f800000	1.0
12	0x3f800000	1.0
13	0x3f800000	1.0
14	0x3f800000	1.0
15	0x3f800000	1.0

encoder_layer.norm2.bias f4 [16]
0	0x00000000	0.0
1	0x00000000	0.0
2	0x00000000	0.0
3	0x00000000	0.0
4	0x00000000	0.0
5	0x00000000	0.0
6	0x00000000	0.0
7	0x00000000	0.0
8	0x00000000	0.0
9	0x00000000	0.0
10	0x00000000	0.0
11	0x00000000	0.0
12	0x00000000	0.0
13	0x00000000	0.0
14	0x00000000	0.0
15	0x00000000	0.0

transformer_encoder.layers.0.self_attn.in_proj_weight f4 [48, 16]
0	0x3cd76b16	0.02629618
1	0x3d5f02e0	0.0544461
2	0x3ca1e0a5	0.01976044
3	0xbe2e36df	-0.17013119
4	0xbe31f06b	-0.17376868
5	0xbe95b9dd	-0.29243365
6	0xbe38b924	-0.18039376
7	0x3c2aa103	0.010414365
8	0xbec8fb2f	-0.39254138
9	0x3ef33a7c	0.47505558
10	0xbeecda99	-0.46260527
11	0x3edf5ec9	0.43627003
12	0xbf00fdca	-0.5038725
13	0x3e918d9d	0.28428355
14	0xbeaccc3e	-0.33749574
15	0x3e3e4b99	0.18583526
16	0x3e043c54	0.12913638
17	0x3e157f2a	0.1459929
18	0x3ce0fca6	0.027464222
19	0xbd20f3d5	-0.039295036
20	0xbda190a1	-0.07888914
21	0x3d954646	0.07288794
22	0xbe78ddf2	-0.24303415
23	0x3e4669e3	0.1937633
24	0xbd87ba94	-0.06627384
25	0xbe91a499	-0.2844589
26	0xbdd77e79	-0.105221696
27	0x3d2367d4	0.03989394
28	0x3d40849e	0.047001474
29	0xbdd29de5	-0.10284022
30	0x3ebf53a4	0.373685
31	0x3e244348	0.16041291
32	0xbe82142e	-0.2540602
33	0x3e70ea10	0.23526788
34	0xbdbc428a	-0.09192379
35	0x3d3434fc	0.043995842
36	0xbb997929	-0.004683633
37	0xbe4a3ed5	-0.19750531
38	0xbe3dc6fb	-0.18532936
39	0xbdabf514	-0.08396354
40	0x3d753474	0.059864476
41	0x3e0e850e	0.13917944
42	0xbe90d9b6	-0.282911
43	0x3efd67f1	0.49493363
44	0xbeb31c02	-0.34982306
45	0x3aebc0a0	0.0017986484
46	0xbedf404f	-0.4360375
47	0x3e34fe55	0.17675145
48	0x3d3dbce2	0.04632271
49	0xbdaf784a	-0.08567865
50	0x3e938a54	0.28816473
51	0x3eaf9434	0.34292758
52	0xbdbbc2cc	-0.09168014
53	0xbe14e0fa	-0.14538947
54	0x3d192b80	0.037395
55	0xbbfa0070	-0.0076294467
56	0x3f004f63	0.50121135
57	0xbe9f3e5b	-0.3110226
58	0x3e477267	0.19477235
59	0xbeadc267	-0.3393738
60	0x3d19272d	0.037390877
61	0x3d0757d0	0.03304273
62	0x3ef8eaf6	0.4861676
63	0xbe9e0c0c	-0.30868566
64	0xbdb27c37	-0.08715098
65	0xbdca873f	-0.098890774
66	0xbd7997d4	-0.06093581
67	0x3d1790d8	0.03700337
68	0xbe642ba7	-0.22282277
69	0x3e8dd12a	0.27698642
70	0xbe69f849	-0.2284862
71	0x3eb78d64	0.3585006
72	0xbece1bee	-0.40255684
73	0x3e5a0b53	0.21293382
74	0xbedb732f	-0.42861316
75	0xbb9b0989	-0.0047313613
76	0xbeb3468a	-0.35014755
77	0x3e80369b	0.2504166
78	0xbe71008f	-0.2353537
79	0x3e6e52ce	0.23273775
80	0xbd149910	-0.036278784
81	0x3e51f1d0	0.205024
82	0xbd8d1a4d	-0.06889782
83	0xbc538a4c	-0.0129113905
84	0xbda9d332	-0.082922354
85	0x3e2bfebb	0.1679639
86	0x3e9bf69b	0.30461583
87	0xbde91ef6	-0.113828585
88	0x3ea26c89	0.3172343
89	0x3d9c4845	0.07630972
90	0x3d91ef58	0.07125729
91	0xbe8b53de	-0.27212423
92	0x3f0ae155	0.5425008
93	0xbe3d8faa	-0.18511835
94	0x3e9ddd8f	0.30833098
95	0xbeda3eaa	-0.42625934
96	0x3e9471a3	0.28992948
97	0xbded1927	-0.11577063
98	0x3e6fd21d	0.23419996
99	0xbe91e350	-0.28493738
100	0xbde898ae	-0.11357246
101	0xbe0db010	-0.13836694
102	0x3eaaef2b	0.33385596
103	0x3dc1dda1	0.094661005
104	0x3e89d38d	0.26919213
105	0xbea96034	-0.3308121
106	0x3b152517	0.0022757703
107	0xbd9b3328	-0.07578117
108	0x3e8c4a35	0.27400365
109	0x3db47dd3	0.088130616
110	0x3ee7e538	0.45292068
111	0xbebd2ce4	-0.3694831
112	0xbde6f735	-0.1127762
113	0xbe480e89	-0.19536795
114	0x3c839717	0.016063256
115	0x3e93f25c	0.28895843
116	0xbe3b5927	-0.18295728
117	0x3e7a6e1c	0.24456066
118	0x3e76f6c5	0.24117573
119	0x3d8bd753	0.06828179
120	0xbe0a0568	-0.13478625
121	0xbd8b7f3b	-0.06811377
122	0x3ee44419	0.44583204
123	0xbeca51df	-0.39515588
124	0x3e256ae7	0.16154061
125	0xbe34a4bb	-0.17640965
126	0x3eee9ebd	0.46605483
127	0x3a48eedf	0.0007664989
128	0x3e0b2e17	0.135918
129	0xbdad48c0	-0.084611416
130	0x3e87eca1	0.2654772
131	0xbe47a65c	-0.19497055
132	0x3d3e0252	0.04638893
133	0x3d8b00c3	0.06787255
134	0x3d1fe74b	0.039038938
135	0xbe39c285	-0.1814061
136	0x3d2e750f	0.042592105
137	0xbeb572a2	-0.3543902
138	0x3dbabc2c	0.09117922
139	0x3d86180b	0.065475546
140	0x3ebe7bb3	0.3720375
141	0x3d93c9c3	0.07216217
142	0x3ecf3c15	0.40475526
143	0x3d8e4344	0.06946424
144	0xbdec2ab1	-0.1153158
145	0x3ded5bdb	0.11589786
146	0xbe86f301	-0.26357272
147	0x3e8c6904	0.2742387
148	0x3d89235a	0.06696196
149	0x3cd9bdc0	0.026579738
150	0x3e339e63	0.17540888
151	0x3ca90981	0.020634415
152	0x3ea70b7e	0.32625955
153	0xbd5070f4	-0.05088897
154	0x3e5c0dbe	0.21489617
155	0xbdf6dfc6	-0.120544
156	0x3eef8f87	0.4678919
157	0x3dcc5736	0.09977572
158	0x3eea1c69	0.457248
159	0xbe8c5fac	-0.27416742
160	0x3b6fa2f8	0.0036565643
161	0xbdc48e0b	-0.09597405
162	0xbe1721e0	-0.14759016
163	0x3e4ec304	0.2019158
164	0x3d51a33a	0.051181056
165	0xbe572da8	-0.2101351
166	0x3ed30583	0.41215143
167	0xba5b32fe	-0.00083617854
168	0x3f03598c	0.5130851
169	0xbdeb0c62	-0.11476971
170	0x3e954dba	0.29160863
171	0xbb9c4d7c	-0.004769979
172	0x3eae8327	0.34084436
173	0xbea7ca41	-0.32771495
174	0x3dd9fb7f	0.10643672
175	0xbd8760d4	-0.066102654
176	0x3d967219	0.07345981
177	0x3d85d798	0.06535262
178	0x3e83a860	0.25714397
179	0x3e971878	0.29510856
180	0x3e70e27e	0.235239
181	0x3e073427	0.13203488
182	0xbdd19be4	-0.10234812
183	0x3ca68fbc	0.02033221
184	0xbd0f13e7	-0.03493109
185	0xbe9907b8	-0.298887
186	0x3e89acf8	0.26889777
187	0xbd28e158	-0.04123053
188	0x3eac10d0	0.33606577
189	0xbd0875b4	-0.033315375
190	0x3e9f9ad8	0.31172824
191	0xbebe2bd3	-0.3714281
192	0xbe125d81	-0.14293481
193	0x3ea0bc14	0.31393492
194	0xbe6172d9	-0.22016467
195	0x3e6f2fd5	0.2335809
196	0x3ddeedc7	0.10885196
197	0x3e9010cf	0.28137824
198	0xbdde0be8	-0.10842115
199	0xbe7a506e	-0.24444744
200	0x3ec06481	0.37576678
201	0x3e800224	0.25001633
202	0xbd23e8d9	-0.040016983
203	0xbe2bae42	-0.16765693
204	0xbce872e2	-0.028375093
205	0xbe086a5d	-0.13321824
206	0xbd503d0f	-0.05083948
207	0xbc520877	-0.012819401
208	0x3da0c354	0.07849756
209	0x3e83e56a	0.25760967
210	0xbd822cde	-0.06356214
211	0x3cdc90b2	0.026924465
212	0xbd8d0bac	-0.06886992
213	0x3e40a96d	0.18814631
214	0x3ec2f2cb	0.3807586
215	0x3d65ccfa	0.056103684
216	0x3b188b76	0.0023276485
217	0xbedb7101	-0.42859653
218	0x3e6b4d0f	0.22978614
219	0xbd1ebbbc	-0.038753256
220	0xbc5fadcf	-0.013652279
221	0x3d83f11b	0.064424716
222	0x3f007d5b	0.5019128
223	0xbe20523a	-0.15656367
224	0x3dcbd7bb	0.09953257
225	0x3e26ea07	0.16300212
226	0x3ed7000b	0.4199222
227	0x3d93c7b8	0.07215828
228	0x3eb1fb20	0.34761906
229	0xbd32482f	-0.04352587
230	0x3d7fc952	0.062447853
231	0xbe653efb	-0.22387306
232	0xbd2db21f	-0.042406198
233	0xbe767b15	-0.2407039
234	0x3de11982	0.10991193
235	0x3deb5a4b	0.114918314
236	0x3e78c7ed	0.24295016
237	0xbe74d3aa	-0.23908868
238	0x3f03a2c0	0.5142021
239	0xbe9e79ca	-0.30952293
240	0xbdf63958	-0.12022656
241	0x3dd20b90	0.102561116
242	0xbe86fd8c	-0.26365316
243	0x3c7fcc05	0.015612607
244	0x3dddc87b	0.10829254
245	0xbe456dad	-0.19280119
246	0xbdf9485b	-0.12172004
247	0xbdde3188	-0.10849291
248	0xbec38463	-0.3818694
249	0x3e283d8a	0.16429725
250	0xbedd35bc	-0.4320506
251	0xbdbb8a0e	-0.09157191
252	0x3d906521	0.07050539
253	0x3e953a65	0.29146114
254	0xbad29f4b	-0.0016069202
255	0x3e514be3	0.20439105

transformer_encoder.layers.0.self_attn.in_proj_bias f4 [48]
0	0x3f62bae3	0.88566417
1	0xbed1cbc8	-0.40975785
2	0x3f568b28	0.83806086
3	0xbf2e6b3a	-0.68132365
4	0x3f57f29b	0.8435456
5	0xbf544959	-0.8292442
6	0xbf48074e	-0.78136146
7	0xbf3fb0d2	-0.7487918
8	0xbf3ca938	-0.7369571
9	0xbf3bf136	-0.73414934
10	0xbf4ecb13	-0.80778617
11	0xbf4ea25b	-0.80716485
12	0xbe986b6a	-0.2976945
13	0xbf609851	-0.87732416
14	0xbf30b013	-0.6901867
15	0x3f04f8f3	0.51942366
16	0xbb337bf9	-0.0027387126
17	0x3b11f13f	0.0022269038
18	0xbc10ceb5	-0.008838345
19	0xbbef909f	-0.0073109413
20	0x3a28c328	0.0006437772
21	0xbb1acac1	-0.0023619386
22	0x3b29d7ca	0.0025915974
23	0x3be20281	0.006897271
24	0xbb3d28e2	-0.002886348
25	0xbc254561	-0.010087342
26	0xbb7d1ad2	-0.0038620722
27	0xbb7e623d	-0.0038815879
28	0xbb3763cb	-0.0027983065
29	0xbaf01f10	-0.0018319804
30	0xbbbdd5bc	-0.0057933014
31	0x3b1b755b	0.0023721072
32	0x3ebf8e85	0.3741342
33	0xbf1bc973	-0.6085426
34	0xbed8f1bd	-0.42371932
35	0xbefbfb20	-0.4921503
36	0xbf25eddb	-0.64816064
37	0x3f0fd931	0.5619078
38	0x3dd4c3e4	0.10388926
39	0x3f02e4aa	0.51130164
40	0xbebb2c1b	-0.36557087
41	0xbe9013c3	-0.28140077
42	0x3e561cca	0.2090942
43	0xbed283ea	-0.41116267
44	0xbec819b9	-0.39082125
45	0xbf132945	-0.5748485
46	0xbeb51208	-0.3536532
47	0x3eeab090	0.45837831
