预测论文/save_model_para/best_model_seq32.pt (torch, 474908 bytes, 25 tensors)

encoder_layer.self_attn.in_proj_weight f4 [48, 16]
0.17990407 0.2373403 0.2756916 0.09830859 0.0015401542 -0.1478995 0.114836365 -0.15435468
0.10915145 0.25483617 0.29983082 0.112140685 -0.0906762 0.28919157 -0.2638003 -0.25499043
0.29840466 0.29089245 -0.16165279 -0.21470374 0.023084939 0.07303676 -0.22355175 0.14473006
-0.23557954 0.018729001 0.12082493 0.16300836 -0.28671438 0.21878007 -0.12310535 0.07738781
0.05098343 -0.30566886 -0.2499833 0.072556466 -0.034122765 0.14096877 -0.30602172 0.052580416
-0.023379505 -0.07872248 0.047872514 -0.10135479 -0.023857206 0.041118354 0.10153332 0.16452342
0.2715234 0.18401963 -0.2886958 0.15764624 0.087130815 0.06859884 0.042232484 -0.23080564
0.23154268 -0.2624659 -0.030278057 -0.22658235 -0.035373002 -0.21882662 -0.20271567 0.041614473
0.170389 -0.16409914 0.051658362 0.22965917 -0.1314933 0.161733 0.13119823 -0.21358906
-0.055699885 0.26117787 0.24029353 0.2774079 0.17910713 -0.18950579 -0.097657785 0.0492734
0.28665075 0.02292344 0.11192015 0.14823526 -0.11115076 0.20036915 -0.17032473 0.26946923
0.15726912 0.14988431 -0.18016239 -0.13871801 -0.24902163 0.10708687 0.020745665 -0.18089093
-0.25368533 0.2849016 -0.25027305 0.18372437 -0.099494115 -0.09179647 0.0154949725 -0.018759727
-0.25889516 -0.022312045 0.12716144 0.038404107 0.009576291 -0.04348293 -0.18283235 -0.13695438
0.1384871 0.04532206 -0.10369551 0.086463094 0.12855646 0.045041412 0.24299136 -0.24379107
-0.27983624 -0.27774057 -0.00040629506 -0.29850596 -0.29946613 0.085185796 0.24232045 0.035680056
-0.049762607 0.2577066 -0.24050155 0.24445674 -0.071860686 -0.07791901 -0.049415678 -0.12781005
0.19831994 0.0025117993 0.21158662 0.25805035 -0.2585822 0.111909986 0.24483368 -0.19886442
-0.25203797 0.14758858 -0.22606915 0.23520598 -0.22966139 0.045339942 0.13197777 0.110072166
-0.17178157 -0.007127762 -0.27229208 0.15383962 -0.11672975 -0.2861776 0.025206387 0.12826273
-0.2529767 -0.1196406 -0.120227605 0.21698567 -0.18770052 0.06270906 -0.15726298 0.03907621
-0.19764662 0.19491038 0.24850455 -0.30590165 -0.12818666 -0.024559379 0.12593701 0.26200047
-0.17119588 -0.22865751 -0.23148137 0.032096773 -0.10695563 0.23775706 0.1480178 -0.19883302
-0.03140661 0.2768251 0.10310173 0.077411115 -0.28530893 -0.19519407 0.2822487 -0.036245823
-0.07364446 0.055989414 0.23829648 -0.112827435 -0.17111573 0.015756905 -0.29323995 -0.24306862
-0.045666724 0.029077083 0.09558606 0.1416162 0.029267132 0.2737662 0.07920304 0.01535821
-0.23407072 -0.23403448 -0.05844021 -0.13189442 -0.047831953 0.20566455 0.03169155 -0.12524602
-0.016325206 0.0021401048 -0.26671216 -0.23468678 -0.17099649 0.17827216 -0.23655742 0.05239895
0.07679936 0.20348373 0.27936688 -0.034414947 -0.18161477 -0.24936426 0.20098493 0.20175543
-0.23131883 0.094442874 -0.22977224 0.15457097 0.20956215 0.06367439 -0.13925456 0.16298833
-0.0030281842 0.2994688 0.012923241 0.2369459 0.031686366 -0.25406253 0.24535951 -0.26417577
0.30214152 0.29886863 0.2629405 -0.14734301 -0.12363906 -0.07668635 0.07699579 0.14102435
00000000: c638 383e 5609 733e 7327 8d3e 0456 c93d
00000010: 00df c93a f772 17be 542f eb3d 270f 1ebe
00000020: cc8a df3d e379 823e 6d83 993e 04aa e53d
00000030: 72b4 b9bd eb10 943e d510 87be 1b8e 82be
00000040: 7fc8 983e dbef 943e 4f88 25be 4cdb 5bbe
00000050: a01c bd3c 4c94 953d c0ea 64be 1e34 143e
00000060: c33b 71be 906d 993c 1073 f73d aaeb 263e
00000070: 3acc 92be e207 603e a81e fcbd 807d 9e3d
00000080: 00d4 503d a180 9cbe 9ffb 7fbe 7c98 943d
00000090: 50c4 0bbd 1e5a 103e e1ae 9cbe 905e 573d
000000a0: 6086 bfbc 4039 a1bd f815 443d 1a93 cfbd
000000b0: 3070 c3bc b86b 283d b4f0 cf3d d478 283e
000000c0: 1d05 8b3e a46f 3c3e f0cf 93be 046e 213e
000000d0: a471 b23d 8c7d 8c3d f8fb 2c3d 5058 6cbe
000000e0: 8619 6d3e ee61 86be b009 f8bc 3405 68be
000000f0: 48e3 10bd 1614 60be b294 4fbe f073 2a3d
00000100: 747a 2e3e 9b09 28be b897 533d c62b 6b3e
00000110: 2ea6 06be 569d 253e d458 063e 17b7 5abe
00000120: 9025 64bd 1bb9 853e 820f 763e 6908 8e3e
00000130: dc67 373e ce0d 42be ce00 c8bd e8d2 493d
00000140: e3c3 923e f0c9 bb3c 6436 e53d fcca 173e
00000150: 02a3 e3bd 922d 4d3e 9b69 2ebe dff7 893e
00000160: 280b 213e 467b 193e 7d7c 38be 180c 0ebe
00000170: 87ff 7ebe 5c50 db3d d0f2 a93c 793b 39be
00000180: 0be3 81be 9fde 913e ca23 80be 3e22 3c3e
00000190: 92c3 cbbd caff bbbd a0de 7d3c 00ae 99bc
000001a0: e88d 84be c0c7 b6bc 9c36 023e a04d 1d3d
000001b0: e0e5 1c3c 281b 32bd 6738 3bbe c53d 0cbe
000001c0: 90cf 0d3e a0a3 393d 505e d4bd 9013 b13d
000001d0: 4ea4 033e 587d 383d bad2 783e 5ea4 79be
000001e0: b246 8fbe 0334 8ebe 0004 d5b9 c6d5 98be
000001f0: a053 99be e475 ae3d da22 783e 4025 123d
00000200: e0d3 4bbd 1ff2 833e 0a46 76be de52 7a3e
00000210: b22b 93bd 0094 9fbd 1868 4abd a3e0 02be
00000220: 6214 4b3e 009d 243b 2aaa 583e 2d1f 843e
00000230: e364 84be 1031 e53d aeb5 7a3e 1da3 4bbe
00000240: 1f0b 81be 7621 173e ac7e 67be d6d9 703e
00000250: 5b2c 6bbe 60b6 393d 2e25 073e 846d e13d
00000260: 82e7 2fbe 0090 e9bb de69 8bbe 2288 1d3e
00000270: 0210 efbd df85 92be a07d ce3c 4e57 033e
00000280: 2986 81be 2206 f5bd e439 f6bd 7e31 5e3e
00000290: 9134 40be 9c6d 803d 8c09 21be 600e 203d
000002a0: e063 4abe 9696 473e fa77 7e3e 249f 9cbe
000002b0: 5d43 03be c030 c9bc a2f5 003e ed24 863e
000002c0: f94d 2fbe 3225 6abe 7409 6dbe e877 033d
000002d0: 8e0b dbbd 9676 733e fa91 173e e29a 4bbe
000002e0: 38a4 00bd 05bc 8d3e 0027 d33d b889 9e3d
000002f0: 0314 92be f4e0 47be e782 903e 8076 14bd
00000300: e8d2 96bd 2855 653d fe03 743e 1212 e7bd
00000310: f638 2fbe a014 813c 8c23 96be fbe6 78be
00000320: 080d 3bbd 1033 ee3c a0c2 c33d d603 113e
00000330: a0c1 ef3c 152b 8c3e 3435 a23d 00a1 7b3c
00000340: 3cb0 6fbe bca6 6fbe 005f 6fbd 550f 07be
00000350: 70eb 43bd ba99 523e 00cf 013d 7e40 00be
00000360: 70bc 85bc 0041 0c3b 7f8e 88be bb51 70be
00000370: b419 2fbe fa8c 363e 1c3c 72be 48a0 563d
00000380: fc48 9d3d 0a5e 503e 2d09 8f3e b0f6 0cbd
00000390: 39f9 39be 5859 7fbe fece 4d3e fa98 4e3e
000003a0: d8de 6cbe 446b c13d 6a49 6bbe da47 1e3e
000003b0: 7697 563e b867 823d bf98 0ebe 6ae6 263e
000003c0: 8074 46bb f953 993e 00bc 533c f2a1 723e
000003d0: 90c9 013d 7c14 82be 863f 7b3e 0c42 87be
000003e0: 4bb2 9a3e 4f05 993e 23a0 863e 16e1 16be
000003f0: 7a36 fdbd bc0d 9dbd f8af 9d3d b068 103e

encoder_layer.self_attn.in_proj_bias f4 [48]
0.0 0.0 0.0 0.0 0.0 0.0 0.0 0.0
0.0 0.0 0.0 0.0 0.0 0.0 0.0 0.0
0.0 0.0 0.0 0.0 0.0 0.0 0.0 0.0
0.0 0.0 0.0 0.0 0.0 0.0 0.0 0.0
0.0 0.0 0.0 0.0 0.0 0.0 0.0 0.0
0.0 0.0 0.0 0.0 0.0 0.0 0.0 0.0
00000000: 0000 0000 0000 0000 0000 0000 0000 0000
00000010: 0000 0000 0000 0000 0000 0000 0000 0000
00000020: 0000 0000 0000 0000 0000 0000 0000 0000
00000030: 0000 0000 0000 0000 0000 0000 0000 0000
00000040: 0000 0000 0000 0000 0000 0000 0000 0000
00000050: 0000 0000 0000 0000 0000 0000 0000 0000
00000060: 0000 0000 0000 0000 0000 0000 0000 0000
00000070: 0000 0000 0000 0000 0000 0000 0000 0000
00000080: 0000 0000 0000 0000 0000 0000 0000 0000
00000090: 0000 0000 0000 0000 0000 0000 0000 0000
000000a0: 0000 0000 0000 0000 0000 0000 0000 0000
000000b0: 0000 0000 0000 0000 0000 0000 0000 0000

encoder_layer.self_attn.out_proj.weight f4 [16, 16]
0.054668576 -0.17124745 0.011851758 -0.035372347 0.015548676 -0.12406489 0.24004161 -0.08801222
-0.15273169 -0.09811461 -0.056737453 -0.11762121 0.05702609 0.17358911 -0.03288746 -0.10475558
0.102534354 0.010928601 -0.038664103 0.18542477 -0.12054223 0.04317251 -0.1567803 -0.09457219
0.09083462 -0.07915789 -0.16807032 -0.20012578 -0.16760948 0.14477983 -0.018137485 -0.04898861
0.07755044 -0.06305215 -0.15218523 0.16886997 -0.09850907 -0.10697523 0.070999295 0.117696226
-0.079238504 0.18262058 0.23703873 -0.09766099 0.12473774 0.10349885 -0.23220205 -0.017991573
0.14130673 0.16088846 -0.23881018 0.081917465 0.09803775 0.103651255 0.2334224 -0.07299024
-0.012655199 -0.15077034 -0.19137284 -0.14159405 0.19786468 0.06092152 -0.24810553 0.18898371
-0.010246813 0.039615065 -0.13031521 -0.22417772 -0.13990512 -0.008695722 -0.028138727 0.0042669773
0.121435165 -0.038543522 0.19456786 -0.17076087 0.051486254 -0.07982412 0.096796274 0.08130509
-0.07175863 0.17485398 0.22696674 0.015928954 0.017370045 -0.08072075 0.20131147 -0.034222275
-0.20314336 -0.07311326 -0.12041929 -0.22337186 -0.025771588 0.20059949 -0.039435 -0.028834194
-0.04405105 -0.07024437 -0.10240415 -0.03936079 0.04527825 0.20597512 -0.2450189 0.0768044
-0.042250782 0.12998784 0.14236972 0.1501635 0.1419628 0.18340197 -0.24807957 0.18745273
-0.13279551 -0.18418315 0.12658197 -0.16027293 0.08468491 0.14505392 0.021078706 -0.15787637
0.1307703 0.069410145 -0.06518659 -0.11115897 0.12156308 0.049907178 -0.2180829 0.07069713
0.24337965 -0.1802071 0.17798483 -0.20249438 -0.01797074 -0.23275474 0.23786655 -0.13492554
-0.11024916 -0.09621361 -0.10987401 -0.16567096 0.10125527 -0.10909966 -0.17147183 -0.1538578
-0.13116232 -0.018723011 -0.06357807 -0.103385866 -0.0018351972 -0.18890834 -0.11506879 0.12200558
-0.046493143 -0.20381027 0.08320975 -0.110737115 -0.19672203 -0.091275066 0.05852917 0.14789626
-0.12688306 0.21980447 0.18929127 -0.13640466 -0.122582525 0.05040595 0.103618145 0.034474015
-0.045419484 0.110703975 -0.008172542 0.21953708 0.059514463 -0.19873375 0.10228059 -0.24562898
0.089654475 -0.08784437 -0.010921419 0.1858122 -0.14501986 0.14565274 -0.006434053 -0.17783597
-0.076098144 0.040093422 -0.22962636 0.2231107 -0.10414153 0.035838515 0.18680036 -0.1368528
-0.21985772 -0.112436295 -0.17406702 0.24470383 -0.10622236 -0.15958777 0.20643547 -0.19460788
0.100278586 0.2397758 -0.015529305 0.122774005 -0.1450162 0.10489878 0.22452402 0.20885196
0.12582424 -0.089753 -0.17437315 0.047286928 0.021435231 -0.1732791 -0.19062147 -0.03014186
0.13696653 0.18696433 -0.11845341 -0.16170207 -0.15781942 0.23366588 0.21590483 -0.18688151
-0.09874129 -0.14750704 0.1254986 0.05153039 -0.032901824 0.0161528 0.18784234 -0.05687964
-0.032258302 0.05611536 -0.24455476 0.22056592 0.16883045 0.18238282 -0.07981616 -0.15608364
0.2261855 -0.19161698 0.2290619 0.14753711 -0.2273882 -0.08764914 0.21725583 -0.2038835
0.057296306 0.021696955 -0.009581566 -0.097483814 0.15057242 0.17091021 0.05474937 -0.15082079
00000000: 28ec 5f3d 7e5b 2fbe e02d 423c 98e2 10bd
00000010: e0bf 7e3c bc15 febd 78cd 753e c03f b4bd
00000020: b265 1cbe 50f0 c8bd 8865 68bd 64e3 f0bd
00000030: 3094 693d 58c1 313e 00b5 06bd 188a d6bd
00000040: 88fd d13d e00d 333c 405e 1ebd fedf 3d3e
00000050: d8de f6bd a8d5 303d 048b 20be 10af c1bd
00000060: 8007 ba3d 881d a2bd a01a 2cbe c6ed 4cbe
00000070: d2a1 2bbe 2a41 143e 1095 94bc 48a8 48bd
00000080: c4d2 9e3d 7c21 81bd 72d6 1bbe 40ec 2c3e
00000090: 20bf c9bd d415 dbbd 1468 913d b80a f13d
000000a0: cc47 a2bd e400 3b3e 48ba 723e 7c02 c8bd
000000b0: 8076 ff3d 34f7 d33d 60c6 6dbe 1063 93bc
000000c0: b6b2 103e f2bf 243e a88a 74be 58c4 a73d
000000d0: 04c8 c83d 1c47 d43d 4806 6f3e e87b 95bd
000000e0: c057 4fbc 8a63 1abe 3ef7 43be 08fe 10be
000000f0: 0a9d 4a3e d888 793d 600f 7ebe f284 413e
00000100: 40e2 27bc 6843 223d 5a71 05be d88e 65be
00000110: 4a43 0fbe 8078 0ebc 3083 e6bc 00d2 8b3b
00000120: 00b3 f83d d0df 1dbd cc3c 473e f0db 2ebe
00000130: 40e3 523d d47a a3bd 203d c63d 4883 a63d
00000140: 30f6 92bd ec0c 333e f869 683e 707d 823c
00000150: a04b 8e3c ec50 a5bd 9824 4e3e a82c 0cbd
00000160: d004 50be 68bc 95bd 649e f6bd 98bb 64be
00000170: f01e d3bc f469 4d3e 9886 21bd b035 ecbc
00000180: e06e 34bd 48dc 8fbd 44b9 d1bd c838 21bd
00000190: b075 393d 24eb 523e 3ce6 7abe a04b 9d3d
000001a0: 280f 2dbd 881b 053e 5ec9 113e 76c4 193e
000001b0: b25e 113e bacd 3b3e 9208 7ebe 9cf3 3f3e
000001c0: 8cfb 07be 829a 3cbe b49e 013e 961e 24be
000001d0: 486f ad3d 0489 143e 40ad ac3c 58aa 21be
000001e0: a6e8 053e e826 8e3d 8c80 85bd 50a7 e3bd
000001f0: 10f6 f83d 786b 4c3d 2051 5fbe a8c9 903d
00000200: 8438 793e 3688 38be a841 363e b05a 4fbe
00000210: 6037 93bc 4257 6ebe 4a93 733e ec29 0abe
00000220: 50ca e1bd a40b c5bd a005 e1bd a6a5 29be
00000230: ec5e cf3d a46f dfbd 5096 2fbe e68c 1dbe
00000240: 6a4f 06be 0061 99bc 3835 82bd f8bb d3bd
00000250: 008b f0ba 3071 41be 30a9 ebbd 10de f93d
00000260: 986f 3ebd a4b3 50be e069 aa3d 24ca e2bd
00000270: 8071 49be 6cee babd 48bc 6f3d 1e72 173e
00000280: a2ed 01be 6c14 613e 92d5 413e aaad 0bbe
00000290: 8c0c fbbd 7876 4e3d c035 d43d a034 0d3d
000002a0: c809 3abd c4b8 e23d 20e6 05bc 54ce 603e
000002b0: 70c5 733d dc80 4bbe 7c78 d13d 2a86 7bbe
000002c0: c49c b73d c0e7 b3bd c0ef 32bc 8e45 3e3e
000002d0: 1680 14be fe25 153e c0d4 d2bb a21a 36be
000002e0: 58d9 9bbd 0039 243d 2c23 6bbe 2277 643e
000002f0: 2848 d5bd 68cb 123d 9848 3f3e 2423 0cbe
00000300: 6222 61be 0045 e6bd a03e 32be a493 7a3e
00000310: 1c8b d9bd fa6a 23be d263 533e 4a47 47be
00000320: dc5e cd3d ca87 753e a06e 7ebc f070 fb3d
00000330: 207f 14be 2cd5 d63d a0e9 653e 4add 553e
00000340: 12d8 003e 6cd0 b7bd e08e 32be f0af 413d
00000350: f098 af3c 1470 31be 4632 43be 10ec f6bc
00000360: f440 0c3e 9473 3f3e b497 f2bd 3a95 25be
00000370: 6a9b 21be 1c46 6f3e 2816 5d3e de5d 3fbe
00000380: e038 cabd 160c 17be b482 003e 8811 533d
00000390: 10c4 06bd e052 843c be59 403e a0fa 68bd
000003a0: 4821 04bd 38d9 653d 906c 7abe 08dc 613e
000003b0: e4e1 2c3e 90c2 3a3e a876 a3bd 64d4 1fbe
000003c0: 2c9d 673e 3e37 44be 348f 6a3e f813 173e
000003d0: 74d8 68be 6481 b3bd 5078 5e3e d6c6 50be
000003e0: 88af 6a3d d0bd b13c 00fc 1cbc 98a5 c7bd
000003f0: a82f 1a3e 1603 2f3e e040 603d c470 1abe

encoder_layer.self_attn.out_proj.bias f4 [16]
0.0 0.0 0.0 0.0 0.0 0.0 0.0 0.0
0.0 0.0 0.0 0.0 0.0 0.0 0.0 0.0
00000000: 0000 0000 0000 0000 0000 0000 0000 0000
00000010: 0000 0000 0000 0000 0000 0000 0000 0000
00000020: 0000 0000 0000 0000 0000 0000 0000 0000
00000030: 0000 0000 0000 0000 0000 0000 0000 0000

encoder_layer.linear1.weight f4 [512, 16]
0.22261128 -0.13756552 0.23374829 -0.19424814 0.10070616 -0.08703783 -0.021641582 -0.050653964
0.13716227 -0.111670375 0.22140008 0.025438666 -0.2226789 0.21207726 -0.05485773 -0.1504718
-0.11616996 0.24129722 -0.21959579 -0.019442797 0.10994241 -0.004718125 0.19556868 0.021011382
0.12549856 -0.01525268 0.15033308 0.01830244 0.20175698 -0.15600187 -0.1444537 0.10698387
0.17061064 -0.20704389 0.12673467 -0.11892694 -0.20907867 0.13665462 -0.19441912 -0.040478885
-0.01883331 -0.18575555 -0.008350253 0.08590272 -0.1894714 0.09330097 0.15539992 0.06409651
0.21192452 -0.22550741 -0.1020132 0.005439341 -0.2245118 -0.07592937 0.11065099 -0.23470458
-0.12575984 0.19064286 0.005091071 0.17688298 -0.07347509 0.16422212 0.20392054 0.13896003
0.18620667 0.20361325 0.11907345 0.11966607 0.09360129 0.19426355 0.05162725 0.14249253
-0.24556193 -0.16679123 0.05133155 0.033739686 0.23331052 0.157588 -0.047011644 -0.01427421
-0.14614189 -0.043639183 -0.2467809 0.19552281 0.124091625 0.18046686 0.092511 0.070076615
0.15685728 0.15857205 0.056652546 0.0637154 0.11554539 -0.14491177 0.105454385 -0.1897291
0.0016848743 0.16260067 -0.14918032 -0.025521398 0.22747433 0.1741001 0.16134167 0.19184643
-0.19735655 0.20938909 0.09046143 0.06847361 -0.1272597 0.06807205 -0.14701098 -0.09959826
0.17409027 -0.14121687 -0.14024323 -0.03187576 -0.07587448 0.121460766 0.09506664 -0.18902889
0.11069533 -0.13862598 -0.16359046 0.009716541 0.08028445 -0.08179602 0.039310664 -0.08291143
-0.22872737 -0.1861166 -0.12397596 0.24915737 -0.037862062 0.16365895 0.052131623 0.22956574
0.0067483783 0.017538697 -0.24400294 0.0037090182 0.025703102 -0.08010626 0.035014868 -0.22844094
-0.087233424 -0.0978151 -0.05175376 0.20948997 -0.098023266 -0.21345219 -0.13369942 0.023286492
-0.16642693 0.0818944 0.21721542 0.19883725 0.24864712 -0.02064079 -0.14043549 -0.24296519
0.17804375 0.018418968 -0.23253962 0.064077675 0.1100831 0.17254034 0.23745382 0.0693714
-0.22034743 -0.22812882 -0.2382189 0.10827249 0.17136127 -0.15552926 -0.118557364 -0.05197531
-0.21175706 -0.19387317 -0.17007962 -0.024369568 -0.24526662 -0.025360018 0.12941709 -0.15746492
0.09580925 -0.24457875 -0.24089393 -0.17442286 -0.24840754 0.12717402 -0.040242255 0.0229944
0.18372011 0.017138392 0.013716251 0.17799455 0.13740161 0.14857665 0.22745496 0.02607882
-0.082577646 0.08205238 0.15058577 -0.17080209 -0.20029026 -0.15598398 0.018574268 -0.04187134
0.060477972 0.1310482 0.11874378 0.10733676 0.030939192 -0.022499144 -0.15630841 -0.054866463
0.20688558 -0.028794706 0.002919048 -0.08022073 0.18446818 0.18711296 -0.15380216 0.06332007
0.14486471 0.09534255 -0.15654969 0.10194504 0.028324008 0.009491652 -0.20895821 -0.1924012
0.09455052 -0.045951486 0.13668656 0.076669216 -0.06348616 -0.124773294 0.048892826 -0.11722031
-0.24816611 0.045770377 0.18675667 0.19908747 -0.0022345483 0.18172503 -0.015828937 0.06526235
0.20722845 -0.13787335 0.16168663 0.1368289 -0.07654175 -0.23081595 0.169386 -0.18668517
00000000: 36f4 633e fadd 0cbe b65b 6f3e fce8 46be
00000010: 083f ce3d e440 b2bd b049 b1bc 887a 4fbd
00000020: 4474 0c3e 70b3 e4bd b4b6 623e c064 d03c
00000030: f005 64be c82a 593e 80b2 60bd 4815 1abe
00000040: 84ea edbd 9e16 773e b8dd 60be 8046 9fbc
00000050: 7c29 e13d 809a 9abb 2843 483e 1020 ac3c
00000060: b282 003e 60e6 79bc eaf0 193e 00ef 953c
00000070: 6299 4e3e f4be 1fbe aceb 13be 5c1a db3d
00000080: 8eb4 2e3e 5003 54be bcc6 013e f88f f3bd
00000090: b818 56be 30ef 0b3e ce15 47be 30cd 25bd
000000a0: 5048 9abc b436 3ebe 80cf 08bc c4ed af3d
000000b0: ca04 42be 9414 bf3d 2821 1f3e 0845 833d
000000c0: be02 593e 6aeb 66be 4cec d0bd 803c b23b
000000d0: 6ce6 65be dc80 9bbd fc9c e23d 6656 70be
000000e0: 30c7 00be e237 433e 00d3 a63b d020 353e
000000f0: 1c7a 96bd d829 283e 8cd0 503e 8a4b 0e3e
00000100: f6ac 3e3e fe7f 503e c8dc f33d 7c13 f53d
00000110: 08b2 bf3d 06ed 463e 1877 533d 90e9 113e
00000120: 9674 7bbe 52cb 2abe 0841 523d a032 0a3d
00000130: f4e8 6e3e c05e 213e 488f 40bd 60de 69bc
00000140: 38a6 15be 00bf 32bd 22b4 7cbe 2237 483e
00000150: c023 fe3d 4ecc 383e 6876 bd3d 5484 8f3d
00000160: 329f 203e b660 223e 800c 683d 387d 823d
00000170: 10a3 ec3d c063 14be 78f8 d73d 5848 42be
00000180: 00d7 dc3a ca80 263e bac2 18be 4012 d1bc
00000190: 08ef 683e 4c47 323e c036 253e 6473 443e
000001a0: d617 4abe 186a 563e d843 b93d e43b 8c3d
000001b0: 5e50 02be 5c69 8b3d 0c8a 16be 2cfa cbbd
000001c0: b844 323e 289b 10be ec9b 0fbe 2890 02bd
000001d0: 1464 9bbd 6cc0 f83d 4cb2 c23d ca90 41be
000001e0: 3cb4 e23d f8f3 0dbe 4284 27be 2032 1f3c
000001f0: 2c6c a43d ac84 a7bd 3804 213d 78cd a9bd
00000200: 8237 6abe 5a95 3ebe 1ce7 fdbd 1c23 7f3e
00000210: 4015 1bbd 3696 273e f887 553d 4813 6b3e
00000220: 8021 dd3b 50ad 8f3c e8db 79be 0013 733b
00000230: 508f d23c c00e a4bd c06b 0f3d 6cec 69be
00000240: 70a7 b2bd 4853 c8bd c0fb 53bd 8a84 563e
00000250: 6cc0 c8bd 3693 5abe 80e8 08be 50c3 be3c
00000260: d26b 2abe 40b8 a73d b86d 5e3e fe9b 4b3e
00000270: 5a9d 7e3e e016 a9bc 52ce 0fbe decb 78be
00000280: 1a51 363e 60e3 963c de1e 6ebe 283b 833d
00000290: 4073 e13d 6aae 303e 1827 733e 9812 8e3d
000002a0: c2a2 61be 9a9a 69be a8ef 73be f8bd dd3d
000002b0: 5479 2f3e 1043 1fbe 34ce f2bd 10e4 54bd
000002c0: d8d6 58be b086 46be 5a29 2ebe b0a2 c7bc
000002d0: 2c27 7bbe d0bf cfbc ea85 043e 7c3e 21be
000002e0: a437 c43d da72 7abe e6ac 76be e89b 32be
000002f0: 8c5e 7ebe e839 023e 10d5 24bd c05e bc3c
00000300: 2021 3c3e d065 8c3c 20ba 603c 3444 363e
00000310: 02b3 0c3e 7a24 183e f4e9 683e 40a3 d53c
00000320: 781e a9bd 140b a83d 2833 1a3e bee6 2ebe
00000330: e418 4dbe 44ba 1fbe 1029 983c 4881 2bbd
00000340: c0b7 773d 8031 063e f02f f33d 60d3 db3d
00000350: 3074 fd3c 2050 b8bc 500f 20be a8bb 60bd
00000360: d0d9 533e e0e2 ebbc 804d 3f3b c44a a4bd
00000370: 3ae5 3c3e 8a9a 3f3e 507e 1dbe f4ad 813d
00000380: 6a57 143e f442 c33d 904e 20be 90c8 d03d
00000390: c007 e83c e082 1b3c 24f9 55be d204 45be
000003a0: b4a3 c13d a037 3cbd 90f7 0b3e c004 9d3d
000003b0: 0805 82bd 2489 ffbd d843 483d 3411 f0bd
000003c0: 421f 7ebe b879 3b3d 243d 3f3e 96dd 4b3e
000003d0: 8071 12bb 2016 3a3e b0ab 81bc 44a8 853d
000003e0: b233 543e ac2e 0dbe 2e91 253e e01c 0c3e
000003f0: ecc1 9cbd 045b 6cbe 8673 2d3e 662a 3fbe

encoder_layer.linear1.bias f4 [512]
0.0321621 -0.17810035 0.1241712 -0.07771361 -0.020383775 -0.20106667 0.18694505 -0.19138166
0.051595777 0.15671903 0.1188201 0.1737977 0.18844616 0.064496905 0.21099123 -0.24757373
0.08259502 -0.05726576 -0.0043130517 -0.027314186 -0.10142031 -0.14123589 0.22999248 -0.12678209
0.024605632 0.026851714 0.11886409 -0.19251803 -0.12313169 -0.02076158 0.13706434 -0.0357067
0.14290991 -0.16590041 -0.12590295 0.03463182 0.0056881607 0.19938779 -0.18673906 0.020405471
-0.06704539 0.09638506 -0.20282206 -0.07509661 0.03868714 0.07177004 -0.24194169 0.15336546
-0.030461162 -0.060915947 0.09689972 -0.23844391 -0.035468966 -0.22395223 0.09615362 0.21400961
0.16217327 -0.13895777 -0.24398813 0.010764092 0.18966237 0.23110652 -0.048181564 0.1278502
0.10646176 0.024740368 0.055289954 0.03852874 -0.1118556 -0.22178888 -0.131102 -0.17762202
0.02681312 -0.21536216 -0.14345995 0.058524787 0.04824832 -0.17310172 -0.16245589 0.019940495
0.015112311 0.1546565 0.19103095 -0.10666263 -0.16951671 0.14202914 0.17095667 0.06731534
-0.16971096 0.030471414 -0.17704633 -0.19113761 -0.009079844 0.17742732 0.12681714 0.057019025
-0.15271094 -0.10631591 -0.13244998 0.12535828 0.029669791 -0.098781824 0.192074 -0.24737379
-0.12871161 -0.0056841075 -0.07308468 -0.15861371 -0.12413159 0.1648362 -0.0150657 0.20778212
0.025307834 0.05444318 0.24895468 -0.044148564 0.2473853 -0.023393005 -0.20173979 0.1708039
-0.09956047 -0.24761343 0.18164289 -0.045377344 0.21814728 0.21925732 -0.14524809 0.004484296
-0.21323541 -0.21391109 0.23794225 0.22025004 -0.04093662 0.23232067 0.0044495165 0.22165665
-0.23653841 0.07251182 -0.20443955 -0.016100705 -0.2436693 -0.2180781 -0.18824846 0.22571126
-0.13000605 0.025790125 -0.15628031 -0.18694818 -0.089342624 0.050658435 -0.18945128 -0.048791885
-0.1598643 -0.1788758 -0.13698566 -0.117394745 -0.2429094 0.2239554 0.07806715 -0.012461066
0.2228545 -0.15744624 -0.078392506 0.19308925 0.13526753 0.14481917 0.07175404 -0.03466764
-0.065892905 -0.12628612 -0.08042115 -0.025610268 -0.24585846 -0.09509528 0.07439703 -0.14848259
-0.13188505 -0.20485038 -0.024450272 -0.048430383 -0.14422616 0.13592124 0.02276221 0.11998737
0.095573604 0.09021005 0.15782732 -0.09452194 -0.035634667 0.12000853 -0.13799873 -0.13248149
-0.24569175 0.14032379 0.1421133 0.19720078 -0.22901636 -0.16789636 0.044313908 -0.045241177
-0.012481481 0.19982934 0.16044566 -0.099481285 0.08444092 0.23672402 -0.13615462 0.047470123
0.16606519 -0.06197828 0.066586316 -0.029678643 -0.18532518 -0.11907628 -0.20179838 -0.13493973
-0.08209664 0.13951933 0.017461658 -0.06485516 -0.032031894 0.22787032 0.053760916 -0.058489352
0.13120234 0.11770615 0.15805385 -0.09963542 -0.20146325 -0.11041081 -0.135596 -0.2127989
0.049954325 -0.054778367 0.21320903 0.08853084 0.11214167 -0.17033651 -0.21718436 0.12588096
-0.2412552 0.1806001 -0.18179601 -0.022420615 0.034882545 -0.073397905 0.046400726 0.14151785
0.15121505 -0.21065229 0.028080672 0.12422699 -0.0918771 0.19359314 -0.17303652 -0.15814713
00000000: 68bc 033d f05f 36be 784d fe3d 5028 9fbd
00000010: e0fb a6bc 6ce4 4dbe 866e 3f3e 8ef9 43be
00000020: 1856 533d f47a 203e f457 f33d 06f8 313e
00000030: 08f8 403e f416 843d 160e 583e f883 7dbe
00000040: 9427 a93d 808f 6abd 8054 8dbb 00c2 dfbc
00000050: 74b5 cfbd 24a0 10be 2683 6b3e 2ad3 01be
00000060: c091 c93c 20f8 db3c 046f f33d 7223 45be
00000070: 782c fcbd 3014 aabc 985a 0c3e 3041 12bd
00000080: fa56 123e cce1 29be b4ec 00be 18da 0d3d
00000090: c063 ba3b 502c 4c3e 8638 3fbe 6029 a73c
000000a0: 184f 89bd 8865 c53d 96b0 4fbe 40cc 99bd
000000b0: 6876 1e3d 2cfc 923d 90bf 77be d60b 1d3e
000000c0: b089 f9bc 0083 79bd 5c73 c63d a42a 74be
000000d0: e847 11bd bc53 65be 30ec c43d 5625 5b3e
000000e0: c010 263e f24a 0ebe 06d8 79be e05b 303c
000000f0: da36 423e 30a7 6c3e 085a 45bd 2aeb 023e
00000100: a008 da3d 50ac ca3c b877 623d 50d0 1d3d
00000110: 8c14 e5bd a01c 63be 9a3f 06be 8ce2 35be
00000120: 30a7 db3c e687 5cbe 2ae7 12be b0b7 6f3d
00000130: 08a0 453d 9441 31be d65a 26be 405a a33c
00000140: a099 773c 465e 1e3e 9e9d 433e f071 dabd
00000150: ca95 2dbe 1670 113e 440f 2f3e a0dc 893d
00000160: b6c8 2dbe 309f f93c a24b 35be 94b9 43be
00000170: a0c3 14bc 82af 353e 5adc 013e c88c 693d
00000180: 4260 1cbe 28bc d9bd f8a0 07be ec5d 003e
00000190: 100e f33c 204e cabd 0caf 443e 8e4f 7dbe
000001a0: facc 03be c041 babb 6cad 95bd a26b 22be
000001b0: b438 febd d2ca 283e 20d6 76bc d6c4 543e
000001c0: 6052 cf3c d0ff 5e3d faed 7e3e 20d5 34bd
000001d0: 9252 7d3e b0a2 bfbc e094 4ebe 38e7 2e3e
000001e0: 5ce6 cbbd 608e 7dbe 9800 3a3e 98dd 39bd
000001f0: 0062 5f3e fe84 603e eabb 14be 00f1 923b
00000200: 625a 5abe 820b 5bbe 22a7 733e 3a89 613e
00000210: 28ad 27bd 78e5 6d3e 40cd 913b f6f9 623e
00000220: 2037 72be 1481 943d 9a58 51be a0e5 83bc
00000230: 7284 79be de4f 5fbe 34c4 40be da20 673e
00000240: 4e20 05be d045 d33c f207 20be 586f 3fbe
00000250: 44f9 b6bd 387f 4f3d 84ff 41be 00da 47bd
00000260: 78b3 23be 382b 37be f845 0cbe a86c f0bd
00000270: 3ebd 78be 9054 653e ace1 9f3d 8029 4cbc
00000280: f833 643e 9639 21be 408c a0bd 30b9 453e
00000290: 9283 0a3e 7a4b 143e c8f3 923d a8ff 0dbd
000002a0: dcf2 86bd 2651 01be d8b3 a4bd a0cc d1bc
000002b0: 52c2 7bbe 50c1 c2bd 785d 983d d20b 18be
000002c0: e00c 07be 4cc4 51be f04b c8bc f05e 46bd
000002d0: 06b0 13be f02e 0b3e d077 ba3c f0bb f53d
000002e0: 18bc c33d 0cc0 b83d 7c9d 213e b894 c1bd
000002f0: a8f5 11bd 08c7 f53d 8a4f 0dbe 3aa9 07be
00000300: 9e96 7bbe 0ab1 0f3e 2686 113e 00ef 493e
00000310: 4483 6abe 06ed 2bbe 8082 353d d04e 39bd
00000320: 207f 4cbc 10a0 4c3e de4b 243e d8bc cbbd
00000330: 5cef ac3d c867 723e 1e6c 0bbe 0870 423d
00000340: fe0c 2a3e f0dc 7dbd 685e 883d a020 f3bc
00000350: e2c5 3dbe 44de f3bd 3ca4 4ebe a42d 0abe
00000360: 4822 a8bd 28de 0e3e c00b 8f3c c8d2 84bd
00000370: e033 03bd d656 693e 6834 5c3d 8892 6fbd
00000380: e859 063e ec0f f13d ded8 213e a80d ccbd
00000390: 624c 4ebe 101f e2bd aed9 0abe f4e7 59be
000003a0: e89c 4c3d 485f 60bd 7853 5a3e a84f b53d
000003b0: 88aa e53d b26c 2ebe 9465 5ebe f0e6 003e
000003c0: 9a0b 77be 3cef 383e bc28 3abe 70ab b7bc
000003d0: 00e1 0e3d a451 96bd b00e 3e3d 0eea 103e
000003e0: 1ed8 1a3e 3cb5 57be 7009 e63c b86a fe3d
000003f0: 102a bcbd 483d 463e 7c30 31be 52f1 21be

encoder_layer.linear2.weight f4 [16, 512]
0.021602366 -0.039034232 -0.015791407 -0.008715451 -0.033433497 -0.025996018 0.006307535 -0.009810802
0.019717675 -0.0072542243 0.04357096 -0.03420362 0.0073879845 0.010019835 0.036227647 -0.0012813956
0.03968441 0.0064631067 0.011417396 0.023388837 -0.03104117 -0.020690678 0.006722253 -0.03349763
0.010009088 0.0105548985 0.033487123 -0.030180488 0.03984565 -0.0006108135 -0.032616135 0.033540186
-0.03936127 -0.010280158 -0.033466537 8.095801e-05 0.03979597 0.018436026 0.034308676 -0.039286625
-0.035041716 0.0049340315 0.00441603 0.013569508 -0.0117793605 -0.015570985 0.00087979436 -0.005572576
0.0019276924 -0.040395867 -0.002782125 -0.013191769 -0.033060413 0.016328014 0.0007715598 0.035093125
0.024413202 -0.035480898 0.021163631 0.042079967 -0.03468755 0.026888993 0.03718592 0.02166209
0.013030611 0.024313342 0.021601107 -0.016559381 0.018696282 -0.038736463 0.039065238 -0.0031599328
-0.009392239 0.021699186 0.015850171 -0.033182368 0.022775318 -0.0328233 -0.016548458 -0.020315813
0.025138427 0.025249463 0.024404671 -0.019021425 0.041688565 -0.0005950816 -0.009612732 -0.04276952
0.03704467 0.03301258 -0.029698018 -0.025267294 -0.034979697 0.0031425357 -0.036271837 -0.014967073
0.028524514 0.037731912 0.014119994 0.042031247 0.018833708 -0.037062548 -0.012049478 0.025728796
0.009808563 -0.043923315 0.033294905 0.040970717 -0.009019922 -0.04378639 0.018236052 0.036093522
-0.0035728365 0.007413063 -0.03125351 0.027055752 0.0108993575 -0.043944374 -0.035112355 0.025797103
-0.018312726 -0.037400655 0.042782363 0.01303985 -0.03779483 -0.043524887 -0.009573836 0.013835542
0.025275577 0.012284029 0.035744 -0.015939353 0.013499267 0.021310333 0.037069794 -0.04144151
-0.040831678 0.008721702 0.018024642 -0.004223995 0.044144582 -0.0166901 -0.009621084 -0.036587738
0.0029541105 -0.017482001 0.041080024 -0.0046845414 -0.035014104 -0.030137558 -0.0075052194 -0.04240921
-0.0042013302 0.026581291 0.008643676 -0.025317838 0.025594812 0.041680086 -0.041299026 0.0038600154
0.02492607 0.024604205 0.004732769 0.009892914 0.028953146 0.039515506 0.035699103 -0.014193578
0.020550009 -0.025128778 -4.0460378e-05 -0.026056577 0.022158775 0.0085411705 -0.037191615 0.033049185
-0.041360505 0.027609464 -0.03840427 0.012314744 -0.011097375 0.013359599 0.041261453 -0.015448194
0.01626189 0.030481499 -0.010142192 -0.022649268 0.03901353 -0.021540517 -0.016736113 -0.0040687025
-0.0021397322 -0.012801085 0.02553681 -0.00601691 0.041981164 0.023100886 -0.037877556 -0.021689948
-0.02518536 0.036360662 0.006414227 0.0431527 -0.017022474 0.039523 -0.029368503 0.0384336
0.035292123 -0.03999424 -0.04362472 0.004004825 0.0007862039 -0.04222481 0.03508014 -0.005563367
-0.004667498 -0.040158026 0.017852556 -0.0046038367 0.00012581423 -0.0052812696 0.021590758 0.03912386
0.012856808 -0.008868847 0.03187893 -0.028110014 -0.029208308 -0.04373765 0.02190962 0.04128288
-0.03318733 -0.038991135 -0.027953254 -0.03689387 0.04039673 -0.029629804 -0.007140465 -0.0006780438
-0.008161135 -0.0009717606 0.004119616 -0.021103332 0.0398974 -0.0017568059 0.039503273 0.019740585
0.008245818 0.030503187 0.039751414 0.03646746 -0.02551458 0.032199074 -0.014012216 0.012886584
00000000: 72f7 b03c 5ce2 1fbd fb5c 81bc 40cb 0ebc
00000010: 90f1 08bd 9af5 d4bc 70af ce3b 7cbd 20bc
00000020: f686 a13c d8b4 edbb 7777 323d 1819 0cbd
00000030: e816 f23b 3c2a 243c 7163 143d 80f4 a7ba
00000040: 1f8c 223d 78c8 d33b 0810 3b3c f299 bf3c
00000050: 0d4a febc 7f7f a9bc 5846 dc3b d034 09bd
00000060: 28fd 233c 74ee 2c3c cb29 093d 123d f7bc
00000070: 3135 233d 001f 20ba 7f98 05bd 6f61 093d
00000080: 4839 21bd 1c6e 28bc 3514 09bd 00c8 a938
00000090: 1901 233d 2607 973c 4187 0c3d 03eb 20bd
000000a0: e787 0fbd a8ad a13b 58b4 903b a452 5e3c
000000b0: 38fe 40bc 721d 7fbc 00a2 663a 289a b6bb
000000c0: a0aa fc3a 2376 25bd 5054 36bb 4a22 58bc
000000d0: 5b6a 07bd 54c2 853c 8042 4a3a cfbd 0f3d
000000e0: 32fe c73c 6b54 11bd 5a5f ad3c 0b5c 2c3d
000000f0: 8814 0ebd 4e46 dc3c 4350 183d b274 b13c
00000100: 587e 553c c62c c73c cef4 b03c 8aa7 87bc
00000110: f228 993c 20aa 1ebd df02 203d e016 4fbb
00000120: e8e1 19bc 7ec2 b13c 38d8 813c 3cea 07bd
00000130: 4e93 ba3c ba71 06bd a290 87bc 596d a6bc
00000140: 1aef cd3c f6d7 ce3c 4eec c73c d2d2 9bbc
00000150: a1c1 2a3d 40ff 1bba b87e 1dbc 182f 2fbd
00000160: 27bc 173d 3338 073d 4249 f3bc 5bfd cebc
00000170: df46 0fbd 00f3 4d3b c791 14bd 7438 75bc
00000180: 3eac e93c c78c 1a3d 8c57 673c f528 2c3d
00000190: 2649 9a3c e6ce 17bd 2c6b 45bc 32c5 d23c
000001a0: 18b4 203c efe8 33bd 3d60 083d e9d0 273d
000001b0: 4cc8 13bc 5c59 33bd c663 953c cdd6 133d
000001c0: 4026 6abb 48e9 f23b ae03 00bd 06a4 dd3c
000001d0: 3893 323c 04ff 33bd f9d1 0fbd 7254 d33c
000001e0: 9204 96bc 6e31 19bd 8f3c 2f3d 18a5 553c
000001f0: c0ce 1abd 2747 32bd 94db 1cbc 78ae 623c
00000200: ba0e cf3c f442 493c 4d68 123d 3f93 82bc
00000210: 082c 5d3c 0293 ae3c 7fd6 173d 93be 29bd
00000220: 1e3f 27bd 78e5 0e3c 6aa8 933c 7069 8abb
00000230: f3d0 343d adb9 88bc c0a1 1dbc 06dd 15bd
00000240: c099 413b 6a36 8fbc 8743 283d c880 99bb
00000250: f36a 0fbd 0ae3 f6bc 58ee f5bb 48b5 2dbd
00000260: 50ab 89bb 02c1 d93c 349e 0d3c 5b67 cfbc
00000270: 36ac d13c bdb8 2a3d 2b29 29bd 50f8 7c3b
00000280: c231 cc3c c28e c93c 5815 9b3b e415 223c
00000290: 262f ed3c 03db 213d 3939 123d 2e8c 68bc
000002a0: 7e58 a83c deda cdbc 00b4 29b8 9a74 d5bc
000002b0: 5286 b53c 44f0 0b3c 3c56 18bd 955e 073d
000002c0: a269 29bd 3e2d e23c cc4d 1dbd c8c3 493c
000002d0: c4d1 35bc 38e2 5a3c c501 293d 6c1a 7dbc
000002e0: a837 853c 56b4 f93c 702b 26bc f58a b9bc
000002f0: a7cc 1f3d bd75 b0bc 2c1a 89bc c052 85bb
00000300: c03a 0cbb a4bb 51bc 9232 d13c 8029 c5bb
00000310: 71f4 2b3d 123e bd3c 7f25 1bbd 1eaf b1bc
00000320: 8751 cebc ebee 143d 702e d23b e3c0 303d
00000330: b772 8bbc dfe2 213d 3796 f0bc 8d6c 1d3d
00000340: 798e 103d 00d1 23bd d6af 32bd e83a 833b
00000350: 4019 4e3a ecf3 2cbd 31b0 0f3d e84c b6bb
00000360: d0f1 98bb be7c 24bd 863f 923c c8db 96bb
00000370: 00ed 0339 800e adbb 1adf b03c 5740 203d
00000380: 5ca5 523c a44e 11bc 7b93 023d f946 e6bc
00000390: 4346 efbc 4026 33bd ce7b b33c 3d18 293d
000003a0: 70ef 07bd 2bb5 1fbd 39fe e4bc 071e 17bd
000003b0: 0b77 253d 34ba f2bc 90fa e9bb c0be 31ba
000003c0: 48b6 05bc c0bd 7eba d8fd 863b e5e0 acbc
000003d0: 756b 233d a044 e6ba 2fce 213d 02b7 a13c
000003e0: 7819 073c d2e1 f93c 61d2 223d e75e 153d
000003f0: f403 d1bc 2de3 033d 7e93 65bc 4022 533c

encoder_layer.linear2.bias f4 [16]
-0.011043735 0.009492781 -0.04113153 -0.0020932928 0.032142382 0.037590396 0.0410341 0.037223104
0.0094496645 0.014455073 0.014079701 -0.023032436 0.02383716 -0.012102809 0.022380967 0.002966933
00000000: c8f0 34bc 9c87 1b3c 8979 28bd a02f 09bb
00000010: bba7 033d 63f8 193d 5f13 283d 4177 183d
00000020: c4d2 1a3c f8d4 6c3c 8cae 663c 85ae bcbc
00000030: 2646 c33c dc4a 46bc 4a58 b73c e070 423b

encoder_layer.norm1.weight f4 [16]
1.0 1.0 1.0 1.0 1.0 1.0 1.0 1.0
1.0 1.0 1.0 1.0 1.0 1.0 1.0 1.0
00000000: 0000 803f 0000 803f 0000 803f 0000 803f
00000010: 0000 803f 0000 803f 0000 803f 0000 803f
00000020: 0000 803f 0000 803f 0000 803f 0000 803f
00000030: 0000 803f 0000 803f 0000 803f 0000 803f

encoder_layer.norm1.bias f4 [16]
0.0 0.0 0.0 0.0 0.0 0.0 0.0 0.0
0.0 0.0 0.0 0.0 0.0 0.0 0.0 0.0
00000000: 0000 0000 0000 0000 0000 0000 0000 0000
00000010: 0000 0000 0000 0000 0000 0000 0000 0000
00000020: 0000 0000 0000 0000 0000 0000 0000 0000
00000030: 0000 0000 0000 0000 0000 0000 0000 0000

encoder_layer.norm2.weight f4 [16]
1.0 1.0 1.0 1.0 1.0 1.0 1.0 1.0
1.0 1.0 1.0 1.0 1.0 1.0 1.0 1.0
00000000: 0000 803f 0000 803f 0000 803f 0000 803f
00000010: 0000 803f 0000 803f 0000 803f 0000 803f
00000020: 0000 803f 0000 803f 0000 803f 0000 803f
00000030: 0000 803f 0000 803f 0000 803f 0000 803f

encoder_layer.norm2.bias f4 [16]
0.0 0.0 0.0 0.0 0.0 0.0 0.0 0.0
0.0 0.0 0.0 0.0 0.0 0.0 0.0 0.0
00000000: 0000 0000 0000 0000 0000 0000 0000 0000
00000010: 0000 0000 0000 0000 0000 0000 0000 0000
00000020: 0000 0000 0000 0000 0000 0000 0000 0000
00000030: 0000 0000 0000 0000 0000 0000 0000 0000

transformer_encoder.layers.0.self_attn.in_proj_weight f4 [48, 16]
0.17475751 0.274873 0.16635299 0.027213171 -0.10150738 -0.066524416 0.14329849 -0.32208407
0.23862113 0.07543553 0.4731214 -0.06823605 0.097935095 0.10871982 -0.0701925 -0.4354737
0.21116874 0.15666017 -0.1308964 -0.22074105 0.04738461 -0.11615227 -0.3365489 0.23653935
-0.46031812 0.12549457 -0.15212394 0.27107465 -0.5764692 0.3269744 -0.41833344 0.18559535
0.014317112 -0.39567873 -0.16729003 0.11296224 0.036981676 -0.002665029 -0.37729338 0.19358146
-0.20676334 0.07616541 -0.18422772 0.054711483 -0.27300447 0.19730027 -0.15317616 0.3207169
0.28463322 0.13621011 -0.2198172 0.21755429 0.18469779 -0.105873235 0.065345615 -0.12230042
0.1636386 -0.1337618 -0.13833803 -0.09600624 -0.15745957 -0.08806519 -0.3293747 0.17239445
0.19608632 -0.07516165 -0.059627205 0.15439938 -0.23620526 0.36112535 0.16785274 -0.3901415
0.11283483 0.06455082 0.4680679 0.07901964 0.42783988 -0.38806733 0.15793851 -0.1493042
0.23595834 -0.07579514 0.15058342 0.11398286 -0.12248127 0.17087722 -0.31790724 0.32942748
-0.054675043 0.20922516 -0.41703683 -0.0795558 -0.49436307 0.16623019 -0.22733508 -0.12174947
-0.281732 0.19711812 -0.1511591 0.2513184 7.904279e-05 -0.28564838 -0.025105849 0.1483573
-0.4274197 0.16420324 -0.09844829 0.22661906 -0.23618253 0.14489967 -0.4351843 0.051445425
0.24859999 0.20674035 -0.11809563 0.09924469 0.1135157 0.2849848 0.3667692 -0.32448468
-0.033683494 -0.37707025 0.29874864 -0.3995025 0.018176163 -0.015974931 0.5659897 -0.06549717
-0.0943095 0.3046278 -0.17873728 0.36857677 -0.13501199 -0.031816687 0.051831853 -0.23063107
0.38927135 -0.10415314 0.43840283 0.15111786 -0.019474395 0.0049523506 0.48792726 -0.3058239
-0.18567447 0.111706264 -0.28267163 0.123078935 -0.14472608 0.015668675 0.04295257 0.23783454
-0.35544732 0.124698006 -0.49381647 0.2859453 -0.35122886 -0.154044 -0.21350233 0.260399
-0.21113001 -0.1558234 -0.16563413 0.107604586 -0.13038915 0.04082167 -0.24667203 0.13427769
-0.36323327 0.29229668 0.052851267 -0.20839487 -0.33410272 0.07295729 -0.08330576 0.35951817
-0.133977 -0.26204908 -0.27789086 -0.06738641 -0.055518445 0.20502415 0.060517445 -0.10877801
-0.19512005 0.3701194 -0.090965286 0.17092983 -0.48975515 -0.10165299 0.07443661 0.057297572
-0.093419805 0.12505335 0.31763667 0.032735102 -0.22593775 0.08333868 -0.18411535 -0.33665556
0.15655294 -0.069847725 0.3351828 0.04227634 0.2816706 0.17438462 0.33576354 -0.08402664
-0.09648863 -0.18276082 -0.00066804566 -0.18967383 0.021702515 0.29493004 -0.021368042 -0.01107122
-0.113320336 0.1105866 -0.3798925 -0.12689486 -0.2896358 0.28599492 -0.35696036 0.16011828
0.061654538 0.08608095 0.18516754 -0.23231818 -0.18115933 -0.35139173 0.0393465 0.24257244
-0.48080075 0.13974875 -0.51376635 0.20021646 -0.086175896 0.1093535 -0.43879798 0.20867062
-0.13136373 0.25176373 -0.036740784 0.30945316 -0.0204262 -0.34768593 0.3156986 -0.36245212
0.41051435 0.2084785 0.38485304 -0.23686455 0.0028188813 -0.16611972 0.20492028 0.051599503
00000000: a2f3 323e 27bc 8c3e 7058 2a3e 28ee de3c
00000010: 1ae3 cfbd f43d 88bd d7bc 123e 34e8 a4be
00000020: 1959 743e f17d 9a3d f83c f23e 58bf 8bbd
00000030: 3292 c83d 7fa8 de3d 16c1 8fbd 69f6 debe
00000040: 9e3c 583e 866b 203e b509 06be f109 62be
00000050: 5d16 423d 3ee1 edbd 2350 acbe 5f37 723e
00000060: d1ae ebbe a681 003e 61c6 1bbe 4cca 8a3e
00000070: 7c93 13bf 3069 a73e cd2f d6be b50c 3e3e
00000080: 5292 6a3c 6796 cabe 144e 2bbe bf58 e73d
00000090: 197a 173d c4a7 2ebb 992c c1be 383a 463e
000000a0: c5b9 53be 9cfc 9b3d 31a6 3cbe 2619 603d
000000b0: 3ec7 8bbe 1509 4a3e 36da 1cbe 0135 a43e
000000c0: 72bb 913e aa7a 0b3e c317 61be 8dc6 5e3e
000000d0: 6b21 3d3e 11d4 d8bd ecd3 853d a578 fabd
000000e0: e190 273e daf8 08be 7ca8 0dbe eb9e c4bd
000000f0: 153d 21be 865b b4bd cda3 a8be 2c88 303e
00000100: daca 483e 5aee 99bd a83b 74bd df1a 1e3e
00000110: cbdf 71be 6ce5 b83e 97e1 2b3e a0c0 c7be
00000120: f315 e73d 3833 843d 99a6 ef3e 0dd5 a13d
00000130: d40d db3e c3b0 c6be a2ba 213e 33e3 18be
00000140: 109f 713e 7b3a 9bbd 8a32 1a3e d96f e93d
00000150: 76d7 fabd 70fa 2e3e bdc4 a2be b8aa a83e
00000160: f0f2 5fbd 1f3f 563e da85 d5be 27ee a2bd
00000170: 281d fdbe 3f38 2a3e 87ca 68be c957 f9bd
00000180: 2d3f 90be 55d9 493e 73c9 1abe ceac 803e
00000190: c6c3 a538 8140 92be c8aa cdbc faea 173e
000001a0: c1d6 dabe e524 283e 429f c9bd d40e 683e
000001b0: d5d9 71be 9460 143e 7ad0 debe 70b8 523d
000001c0: ff90 7e3e beb3 533e 1fdc f1bd cd40 cb3d
000001d0: eb7a e83d 87e9 913e 2cc9 bb3e db22 a6be
000001e0: b4f7 09bd 5a0f c1be 95f5 983e 978b ccbe
000001f0: 2de6 943c dcdd 82bc b3e4 103f 6123 86bd
00000200: 5725 c1bd 2df8 9b3e e806 37be 18b6 bc3e
00000210: 9540 0abe 3752 02bd a34d 543d 8d2a 6cbe
00000220: 934e c73e 3e4e d5bd 5676 e03e a4be 1a3e
00000230: c488 9fbc 5447 a23b 9ad1 f93e f394 9cbe
00000240: 7321 3ebe 41c6 e43d 56ba 90be cf10 fc3d
00000250: 1333 14be 985b 803c 09ef 2f3d e68a 733e
00000260: 31fd b5be ab61 ff3d 83d5 fcbe 6c67 923e
00000270: 45d4 b3be b6bd 1dbe 5ba0 5abe 0553 853e
00000280: 7732 58be 2b90 1fbe fe9b 29be cb5f dc3d
00000290: bc84 05be a034 273d 9897 7cbe 1780 093e
000002a0: b6f9 b9be e9a7 953e 927a 583d 7765 55be
000002b0: 830f abbe a26a 953d 369c aabd c412 b83e
000002c0: 4431 09be 4c2b 86be b647 8ebe e301 8abd
000002d0: 4f67 63bd daf1 513e 24e1 773d 01c7 debd
000002e0: 8dcd 47be 4a80 bd3e 024c babd 3b08 2f3e
000002f0: 30c1 fabe 712f d0bd 3972 983d dcb0 6a3d
00000300: e252 bfbd fc0d 003e 46a1 a23e 3e15 063d
00000310: 3a5c 67be 78ad aa3d bc88 3cbe 1e5e acbe
00000320: 6a4f 203e 530c 8fbd 149d ab3e f529 2d3d
00000330: 2137 903e e291 323e 33e9 ab3e 2916 acbd
00000340: d59b c5bd a725 3bbe c91f 2fba db39 42be
00000350: 79c9 b13c 1201 973e 080c afbc 1064 35bc
00000360: 7e14 e8bd 3a7b e23d 4581 c2be baf0 01be
00000370: 254b 94be ed6d 923e 82c3 b6be 0cf6 233e
00000380: 7889 7c3d 364b b03d 8f9c 3d3e d1e4 6dbe
00000390: d581 39be 9ee9 b3be cc29 213d e964 783e
000003a0: 842b f6be 4c1a 0f3e 3186 03bf 8b05 4d3e
000003b0: fd7c b0bd baf4 df3d 21aa e0be c0ad 553e
000003c0: 3784 06be 2de7 803e 817d 16bd a570 9e3e
000003d0: d954 a7bc e403 b2be 3fa3 a13e 5393 b9be
000003e0: f02e d23e 637b 553e 750b c53e 9f8c 72be
000003f0: fbbc 383b 4a1b 2abe 9fd6 513e 005a 533d

transformer_encoder.layers.0.self_attn.in_proj_bias f4 [48]
-0.82515347 0.8186983 0.8752657 0.5517517 -0.95430803 0.69465214 0.9303451 -0.844273
-0.7080679 0.7668832 0.63113594 0.6117075 -0.70947605 0.536976 0.6699888 -0.50727695
-0.014102943 0.0022987977 0.007972365 0.006066972 -0.007384099 0.00014134917 0.008796047 -0.0026879502
-0.005856494 0.0048244507 0.0052086404 0.00485276 -0.0050868858 0.004249664 0.0046380013 -0.0027372616
-0.10336026 -0.68721294 -0.14547674 -0.3448923 0.5454713 -0.38301903 -0.69489425 0.47045532
-0.28364864 0.4818311 -0.41402274 0.4008848 0.33232284 -0.09839424 0.30629143 -0.5239927
00000000: 423d 53bf 3696 513f 6a11 603f 993f 0d3f
00000010: 884d 74bf b9d4 313f 192b 6e3f 4622 58bf
00000020: f043 35bf 7552 443f 2092 213f dd98 1c3f
00000030: 39a0 35bf 4277 093f 6384 2b3f e7dc 01bf
00000040: 0810 67bc 6da7 163b 869e 023c 73cd c63b
00000050: 50f6 f1bb 2137 1439 4c1d 103c 5228 30bb
00000060: d5e7 bfbb 6d16 9e3b 3ead aa3b e703 9f3b
00000070: e4af a6bb c440 8b3b 60fa 973b a163 33bb
00000080: 8bae d3bd 30ed 2fbf dbf7 14be b995 b0be
00000090: 02a4 0b3f 121b c4be 97e4 31bf 85df f03e
000000a0: 653a 91be 91b2 f63e cafa d3be c640 cd3e
000000b0: 3826 aa3e eb82 c9bd 3bd2 9c3e 6324 06bf

transformer_encoder.layers.0.self_attn.out_proj.weight f4 [16, 16]
0.011828433 -0.30095628 0.08235307 0.045918535 0.29366976 -0.11974914 0.12477049 0.051777735
-0.07848358 -0.17822546 -0.05135264 -0.07122788 -0.12250134 0.21070844 0.10046828 0.026689298
0.022666119 0.07491752 -0.1502756 -0.009214854 0.10078239 0.0338744 -0.12696105 0.1832784
0.15692076 0.022350911 -0.20989574 -0.14370272 0.025852906 0.14412767 0.12422168 -0.15270828
-0.019117212 -0.1674397 -0.12032845 0.27665508 0.14682996 -0.10098958 0.023634894 0.00028502085
0.03866482 0.25050557 0.020621171 -0.021026017 0.13137634 0.09953869 -0.07012059 -0.015575256
0.48730955 0.139863 -0.15615152 -0.006225979 -0.033184797 -0.018642377 0.21487585 -0.086323254
-0.048595186 -0.19628248 -0.02615 0.07336706 0.12653555 0.012321308 -0.091138124 0.116463825
0.10214038 -0.07244671 -0.18301702 -0.42551523 -0.07015206 0.0516783 -0.11715865 -0.042764664
0.1172596 -0.3019994 0.6518981 -0.33953506 -0.0058728117 0.047676127 0.06643959 0.4250244
0.024809187 0.32641828 0.0031928075 -0.16922504 0.099009804 -0.111246325 0.29771858 -0.049465466
-0.08002312 -0.11281229 0.10862626 -0.38804948 0.077329256 0.14870076 -0.1428793 -0.0588185
0.02689659 -0.21166815 -0.03970257 -0.034824643 0.04575818 0.19304606 -0.36238268 0.0018727533
0.030907776 -0.025118018 0.34311035 0.03509256 0.07998863 0.22105122 -0.13377774 0.41290236
-0.3232821 -0.29352087 0.039294 -0.16249278 0.38403457 0.049952425 -0.0865359 0.05173622
0.18245794 -0.003427571 -0.06966853 -0.08616179 -0.023081958 0.0875967 -0.1630355 0.19801344
0.16377556 -0.49909824 0.18909204 -0.26814663 -0.121884815 -0.27814776 -0.12022662 -0.036276527
-0.15657465 -0.089460045 -0.26474807 -0.22645901 -0.112249024 -0.06391699 -0.05461111 -0.04098143
-0.1062084 -0.21202636 0.027436739 -0.049319085 -0.0028533535 -0.21142952 -0.29645193 0.08670657
0.014398028 -0.28473085 0.23359957 -0.07950918 -0.20489644 -0.0815227 0.15663354 0.30777323
0.09071957 0.35204154 0.08299456 -0.22957268 -0.1362006 0.072285 0.20113055 0.12650877
-0.035758384 0.13519987 -0.0874577 0.0950534 0.02130836 -0.18541214 0.0080631375 -0.3458328
-0.085160114 -0.20095323 0.003977814 0.15865865 0.14679179 0.017694948 -0.093481205 0.03503234
-0.071504295 0.18377483 -0.4330756 0.37060443 -0.068966426 -0.036461245 0.17523411 -0.26600197
-0.16870207 0.028543225 -0.22031365 0.21594356 -0.5046324 -0.09666304 0.30197346 -0.22620668
0.12728846 0.18787278 -0.06420958 0.03165589 -0.07776748 0.1477838 0.2002101 0.1477316
0.034549814 -0.068048924 -0.18735056 0.06926629 0.5429312 -0.1224933 -0.14205949 0.120885536
0.057144035 0.16147593 -0.09991893 -0.07916817 -0.11281575 0.2065744 0.12171723 -0.13802513
-0.092570655 0.025069872 0.10814475 0.19829156 -0.23567483 0.03174309 0.28957918 0.10490834
0.01566877 0.04419754 -0.39387313 0.06387238 0.06572564 0.19263513 -0.09408024 -0.17643678
0.13529257 0.0062536616 0.14465547 0.08122944 -0.1666421 0.0012477227 0.41188028 -0.08579092
-0.019163962 0.039358515 -0.11405305 0.043244477 0.13081484 0.17454678 -0.059980575 -0.25996444
00000000: 0bcc 413c f116 9abe baa8 a83d 1315 3c3d
00000010: e25b 963e 0a3f f5bd ac87 ff3d e414 543d
00000020: 00bc a0bd bc80 36be 2557 52bd ecdf 91bd
00000030: fce1 fabd f4c3 573e 50c2 cd3d 84a3 da3c
00000040: 4cae b93c 5b6e 993d d9e1 19be e6f9 16bc
00000050: ff66 ce3d e2bf 0a3d 1402 02be 55ad 3b3e
00000060: d6af 203e 4219 b73c e9ee 56be ce26 13be
00000070: 79c9 d33c 3496 133e f067 fe3d 8f5f 1cbe
00000080: b39b 9cbc 5075 2bbe c36e f6bd bca5 8d3e
00000090: 985a 163e a0d3 cebd f79d c13c da6e 9539
000000a0: 015f 1e3d 4442 803e bbed a83c c13e acbc
000000b0: 8587 063e f1da cb3d 629b 8fbd 5c2f 7fbc
000000c0: a380 f93e 3f38 0f3e 2fe6 1fbe 4c03 ccbb
000000d0: c8ec 07bd e6b7 98bc 6a08 5c3e 3fca b0bd
000000e0: bf0b 47bd 46fe 48be 8638 d6bc 7841 963d
000000f0: 8992 013e 50df 493c a0a6 babd 9684 ee3d
00000100: fa2e d13d f15e 94bd d068 3bbe 22dd d9be
00000110: e2ab 8fbd a0ac 533d e0f0 efbd 002a 2fbd
00000120: cd25 f03d aa9f 9abe cbe2 263f 8ad7 adbe
00000130: b770 c0bb 0b48 433d 7b11 883d cc9c d93e
00000140: a33c cb3c 4c20 a73e 6c3e 513b 5449 2dbe
00000150: a7c5 ca3d 1dd5 e3bd 926e 983e 4d9c 4abd
00000160: 29e3 a3bd 210a e7bd 7277 de3d 6cae c6be
00000170: cd5e 9e3d 0345 183e f44e 12be abeb 70bd
00000180: 3d56 dc3c 89bf 58be 299f 22bd 49a4 0ebd
00000190: ee6c 3b3d dead 453e 398a b9be 2c77 f53a
000001a0: 4e32 fd3c 4dc4 cdbc 29ac af3e 37bd 0f3d
000001b0: 14d1 a33d 405b 623e 08fd 08be f067 d33e
000001c0: 3b85 a5be 5e48 96be bff2 203d 8264 26be
000001d0: 2ea0 c43e ea9a 4c3d bc39 b1bd 5ce9 533d
000001e0: 41d6 3a3e 19a1 60bb 60ae 8ebd 9875 b0bd
000001f0: 6016 bdbc e665 b33d c7f2 26be 09c4 4a3e
00000200: c8b4 273e ce89 ffbe 58a1 413e 844a 89be
00000210: bf9e f9bd 6269 8ebe 6039 f6bd b296 14bd
00000220: 1b55 20be d436 b7bd 0f8d 87be dfe4 67be
00000230: d1e2 e5bd e9e6 82bd e6af 5fbd 25dc 27bd
00000240: ca83 d9bd 701d 59be 03c3 e03c cf02 4abd
00000250: 54ff 3abb fb80 58be 8cc8 97be 3793 b13d
00000260: b5e5 6b3c 3ec8 91be ba34 6f3e b5d5 a2bd
00000270: 5fd0 51be 60f5 a6bd 8b64 203e 7494 9d3e
00000280: 2fcb b93d ca3e b43e 0df9 a93d 1a15 6bbe
00000290: 2c78 0bbe 280a 943d 2bf5 4d3e 848b 013e
000002a0: 6277 12bd d671 0a3e 061d b3bd 5bab c23d
000002b0: df8e ae3c aedc 3dbe 401b 043c ff10 b1be
000002c0: 6d68 aebd afc6 4dbe 5358 823b 6a77 223e
000002d0: 9650 163e fff4 903c 1373 bfbd 127e 0f3d
000002e0: d870 92bd 782f 3c3e 16bc ddbe ddbf bd3e
000002f0: 453e 8dbd 6358 15bd 9270 333e 6931 88be
00000300: 3cc0 2cbe 7bd3 e93c e799 61be 4f20 5d3e
00000310: 972f 01bf 46f7 c5bd 449c 9a3e b9a2 67be
00000320: e857 023e b961 403e 5080 83bd 9ba9 013d
00000330: 8e44 9fbd a354 173e e003 4d3e f446 173e
00000340: 1b84 0d3d 3c5d 8bbd d3d8 3fbe 7cdb 8d3d
00000350: 8afd 0a3f c4dd fabd 0b78 11be d692 f73d
00000360: dd0f 6a3d f259 253e 4ca2 ccbd ec22 a2bd
00000370: f20b e7bd 3d88 533e e246 f93d 7656 0dbe
00000380: af95 bdbd 555f cd3c ff7a dd3d f10c 4b3e
00000390: be54 71be 0b05 023d b943 943e 2fda d63d
000003a0: cb5b 803c 7b08 353d bda9 c9be 86cf 823d
000003b0: 2a9b 863d 2542 453e 24ad c0bd d8ab 34be
000003c0: 238a 0a3e 84eb cc3b 9020 143e 9f5b a63d
000003d0: 3aa4 2abe a08a a33a f9e1 d23e 26b3 afbd
000003e0: befd 9cbc 6536 213d a594 e9bd 1f21 313d
000003f0: 53f4 053e 64bc 323e 31ae 75bd 0f1a 85be

transformer_encoder.layers.0.self_attn.out_proj.bias f4 [16]
0.029661104 0.018021224 0.1356175 -0.19276084 -0.0012335134 -0.08841042 -0.114663996 0.08762971
-0.23875406 -0.08279041 -0.05292105 0.19133756 -0.13473155 0.22771767 -0.11148451 0.285397
00000000: d8fb f23c 3fa1 933c 50df 0a3e 1963 45be
00000010: d7ad a1ba 8610 b5bd f5d4 eabd 3577 b33d
00000020: f27b 74be 058e a9bd bec3 58bd feed 433e
00000030: 11f7 09be d22e 693e fe51 e4bd 8e1f 923e
